{"format": "graph-model", "generatedBy": "2.8.0", "convertedBy": "TensorFlow.js Converter v3.13.0", "signature": {"inputs": {"inputs_1": {"name": "inputs_1:0", "dtype": "DT_FLOAT", "tensorShape": {}}, "inputs_0": {"name": "inputs_0:0", "dtype": "DT_FLOAT", "tensorShape": {"dim": [{"size": "-1"}, {"size": "-1"}, {"size": "-1"}, {"size": "-1"}]}}}, "outputs": {"PartitionedCall/PartitionedCall_1/cond/else/_13/cond/cond/output/_64:0": {"name": "PartitionedCall/PartitionedCall_1/cond/else/_13/cond/cond/output/_64:0", "dtype": "DT_INT32", "tensorShape": {}}, "PartitionedCall/PartitionedCall_1/cond/else/_13/cond/cond/else/_53/cond/cond/cond/else/_93/cond/cond/cond/cond/else/_133/cond/cond/cond/cond/cond/output/_177:0": {"name": "PartitionedCall/PartitionedCall_1/cond/else/_13/cond/cond/else/_53/cond/cond/cond/else/_93/cond/cond/cond/cond/else/_133/cond/cond/cond/cond/cond/output/_177:0", "dtype": "DT_FLOAT", "tensorShape": {"dim": [{"size": "-1"}, {"size": "-1"}, {"size": "1"}, {"size": "1"}]}}, "PartitionedCall/PartitionedCall_1/cond/else/_13/cond/cond/else/_53/cond/cond/cond/output/_104:0": {"name": "PartitionedCall/PartitionedCall_1/cond/else/_13/cond/cond/else/_53/cond/cond/cond/output/_104:0", "dtype": "DT_INT32", "tensorShape": {}}, "PartitionedCall/PartitionedCall_1/cond/else/_13/cond/cond/else/_53/cond/cond/cond/else/_93/cond/cond/cond/cond/else/_133/cond/cond/cond/cond/cond/output/_178:0": {"name": "PartitionedCall/PartitionedCall_1/cond/else/_13/cond/cond/else/_53/cond/cond/cond/else/_93/cond/cond/cond/cond/else/_133/cond/cond/cond/cond/cond/output/_178:0", "dtype": "DT_INT32", "tensorShape": {}}, "PartitionedCall/PartitionedCall_1/cond/else/_13/cond/cond/else/_53/cond/cond/cond/else/_93/cond/cond/cond/cond/output/_143:0": {"name": "PartitionedCall/PartitionedCall_1/cond/else/_13/cond/cond/else/_53/cond/cond/cond/else/_93/cond/cond/cond/cond/output/_143:0", "dtype": "DT_INT32", "tensorShape": {}}, "PartitionedCall/PartitionedCall_1/cond/else/_13/cond/cond/output/_65:0": {"name": "PartitionedCall/PartitionedCall_1/cond/else/_13/cond/cond/output/_65:0", "dtype": "DT_INT32", "tensorShape": {}}, "PartitionedCall/PartitionedCall_1/cond/else/_13/cond/cond/else/_53/cond/cond/cond/else/_93/cond/cond/cond/cond/else/_133/cond/cond/cond/cond/cond/output/_185:0": {"name": "PartitionedCall/PartitionedCall_1/cond/else/_13/cond/cond/else/_53/cond/cond/cond/else/_93/cond/cond/cond/cond/else/_133/cond/cond/cond/cond/cond/output/_185:0", "dtype": "DT_INT32", "tensorShape": {}}, "PartitionedCall/PartitionedCall_1/cond/else/_13/cond/cond/output/_61:0": {"name": "PartitionedCall/PartitionedCall_1/cond/else/_13/cond/cond/output/_61:0", "dtype": "DT_INT32", "tensorShape": {}}, "PartitionedCall/PartitionedCall_1/cond/else/_13/cond/cond/else/_53/cond/cond/cond/else/_93/cond/cond/cond/cond/output/_140:0": {"name": "PartitionedCall/PartitionedCall_1/cond/else/_13/cond/cond/else/_53/cond/cond/cond/else/_93/cond/cond/cond/cond/output/_140:0", "dtype": "DT_INT32", "tensorShape": {}}, "PartitionedCall/PartitionedCall_1/cond/else/_13/cond/cond/else/_53/cond/cond/cond/else/_93/cond/cond/cond/cond/output/_139:0": {"name": "PartitionedCall/PartitionedCall_1/cond/else/_13/cond/cond/else/_53/cond/cond/cond/else/_93/cond/cond/cond/cond/output/_139:0", "dtype": "DT_INT32", "tensorShape": {}}, "PartitionedCall/PartitionedCall_1/cond/else/_13/cond/cond/else/_53/cond/cond/cond/else/_93/cond/cond/cond/cond/else/_133/cond/cond/cond/cond/cond/pivot_t/_176:0": {"name": "PartitionedCall/PartitionedCall_1/cond/else/_13/cond/cond/else/_53/cond/cond/cond/else/_93/cond/cond/cond/cond/else/_133/cond/cond/cond/cond/cond/pivot_t/_176:0", "dtype": "DT_BOOL", "tensorShape": {}}, "PartitionedCall/PartitionedCall_1/cond/else/_13/cond/cond/pivot_t/_56:0": {"name": "PartitionedCall/PartitionedCall_1/cond/else/_13/cond/cond/pivot_t/_56:0", "dtype": "DT_BOOL", "tensorShape": {}}, "PartitionedCall/PartitionedCall_1/cond/else/_13/cond/cond/else/_53/cond/cond/cond/pivot_t/_96:0": {"name": "PartitionedCall/PartitionedCall_1/cond/else/_13/cond/cond/else/_53/cond/cond/cond/pivot_t/_96:0", "dtype": "DT_BOOL", "tensorShape": {}}, "PartitionedCall/PartitionedCall_1/cond/else/_13/cond/cond/else/_53/cond/cond/cond/else/_93/cond/cond/cond/cond/else/_133/cond/cond/cond/cond/cond/output/_182:0": {"name": "PartitionedCall/PartitionedCall_1/cond/else/_13/cond/cond/else/_53/cond/cond/cond/else/_93/cond/cond/cond/cond/else/_133/cond/cond/cond/cond/cond/output/_182:0", "dtype": "DT_INT32", "tensorShape": {}}, "PartitionedCall/PartitionedCall_1/cond/output/_25:0": {"name": "PartitionedCall/PartitionedCall_1/cond/output/_25:0", "dtype": "DT_INT32", "tensorShape": {}}, "PartitionedCall/PartitionedCall_1/cond/else/_13/cond/cond/else/_53/cond/cond/cond/else/_93/cond/cond/cond/cond/output/_145:0": {"name": "PartitionedCall/PartitionedCall_1/cond/else/_13/cond/cond/else/_53/cond/cond/cond/else/_93/cond/cond/cond/cond/output/_145:0", "dtype": "DT_INT32", "tensorShape": {}}, "PartitionedCall/PartitionedCall_1/cond/pivot_f/_15:0": {"name": "PartitionedCall/PartitionedCall_1/cond/pivot_f/_15:0", "dtype": "DT_BOOL", "tensorShape": {}}, "PartitionedCall/PartitionedCall_1/cond/else/_13/cond/cond/else/_53/cond/cond/cond/else/_93/cond/cond/cond/cond/output/_138:0": {"name": "PartitionedCall/PartitionedCall_1/cond/else/_13/cond/cond/else/_53/cond/cond/cond/else/_93/cond/cond/cond/cond/output/_138:0", "dtype": "DT_FLOAT", "tensorShape": {"dim": [{"size": "-1"}, {"size": "-1"}, {"size": "1"}, {"size": "1"}]}}, "PartitionedCall/PartitionedCall_1/cond/else/_13/cond/cond/else/_53/cond/cond/cond/else/_93/cond/cond/cond/cond/pivot_t/_136:0": {"name": "PartitionedCall/PartitionedCall_1/cond/else/_13/cond/cond/else/_53/cond/cond/cond/else/_93/cond/cond/cond/cond/pivot_t/_136:0", "dtype": "DT_BOOL", "tensorShape": {}}, "PartitionedCall/PartitionedCall_1/cond/else/_13/cond/cond/output/_60:0": {"name": "PartitionedCall/PartitionedCall_1/cond/else/_13/cond/cond/output/_60:0", "dtype": "DT_INT32", "tensorShape": {}}, "PartitionedCall/PartitionedCall_1/cond/else/_13/cond/cond/else/_53/cond/cond/cond/output/_100:0": {"name": "PartitionedCall/PartitionedCall_1/cond/else/_13/cond/cond/else/_53/cond/cond/cond/output/_100:0", "dtype": "DT_INT32", "tensorShape": {}}, "PartitionedCall/PartitionedCall_1/cond/else/_13/cond/cond/else/_53/cond/cond/cond/else/_93/cond/cond/cond/cond/else/_133/cond/cond/cond/cond/cond/output/_180:0": {"name": "PartitionedCall/PartitionedCall_1/cond/else/_13/cond/cond/else/_53/cond/cond/cond/else/_93/cond/cond/cond/cond/else/_133/cond/cond/cond/cond/cond/output/_180:0", "dtype": "DT_INT32", "tensorShape": {}}, "PartitionedCall/PartitionedCall_1/cond/output/_22:0": {"name": "PartitionedCall/PartitionedCall_1/cond/output/_22:0", "dtype": "DT_INT32", "tensorShape": {}}, "PartitionedCall/PartitionedCall_1/cond/else/_13/cond/cond/else/_53/cond/cond/cond/output/_99:0": {"name": "PartitionedCall/PartitionedCall_1/cond/else/_13/cond/cond/else/_53/cond/cond/cond/output/_99:0", "dtype": "DT_INT32", "tensorShape": {}}, "PartitionedCall/PartitionedCall_1/cond/else/_13/cond/cond/output/_66:0": {"name": "PartitionedCall/PartitionedCall_1/cond/else/_13/cond/cond/output/_66:0", "dtype": "DT_INT32", "tensorShape": {}}, "PartitionedCall/PartitionedCall_1/cond/output/_19:0": {"name": "PartitionedCall/PartitionedCall_1/cond/output/_19:0", "dtype": "DT_INT32", "tensorShape": {}}, "PartitionedCall/PartitionedCall_1/cond/else/_13/cond/cond/else/_53/cond/cond/cond/output/_103:0": {"name": "PartitionedCall/PartitionedCall_1/cond/else/_13/cond/cond/else/_53/cond/cond/cond/output/_103:0", "dtype": "DT_INT32", "tensorShape": {}}, "PartitionedCall/PartitionedCall_1/cond/else/_13/cond/cond/else/_53/cond/cond/cond/output/_102:0": {"name": "PartitionedCall/PartitionedCall_1/cond/else/_13/cond/cond/else/_53/cond/cond/cond/output/_102:0", "dtype": "DT_INT32", "tensorShape": {}}, "PartitionedCall/PartitionedCall_1/cond/else/_13/cond/cond/else/_53/cond/cond/cond/else/_93/cond/cond/cond/cond/output/_141:0": {"name": "PartitionedCall/PartitionedCall_1/cond/else/_13/cond/cond/else/_53/cond/cond/cond/else/_93/cond/cond/cond/cond/output/_141:0", "dtype": "DT_INT32", "tensorShape": {}}, "PartitionedCall/PartitionedCall_1/cond/else/_13/cond/cond/else/_53/cond/cond/cond/output/_98:0": {"name": "PartitionedCall/PartitionedCall_1/cond/else/_13/cond/cond/else/_53/cond/cond/cond/output/_98:0", "dtype": "DT_FLOAT", "tensorShape": {"dim": [{"size": "-1"}, {"size": "-1"}, {"size": "1"}, {"size": "1"}]}}, "PartitionedCall/PartitionedCall_1/cond/output/_20:0": {"name": "PartitionedCall/PartitionedCall_1/cond/output/_20:0", "dtype": "DT_INT32", "tensorShape": {}}, "PartitionedCall/PartitionedCall_1/cond/output/_18:0": {"name": "PartitionedCall/PartitionedCall_1/cond/output/_18:0", "dtype": "DT_FLOAT", "tensorShape": {"dim": [{"size": "-1"}, {"size": "-1"}, {"size": "1"}, {"size": "1"}]}}, "PartitionedCall/PartitionedCall_1/cond/else/_13/cond/cond/else/_53/cond/cond/cond/output/_101:0": {"name": "PartitionedCall/PartitionedCall_1/cond/else/_13/cond/cond/else/_53/cond/cond/cond/output/_101:0", "dtype": "DT_INT32", "tensorShape": {}}, "Identity_1:0": {"name": "Identity_1:0", "dtype": "DT_FLOAT", "tensorShape": {"dim": [{"size": "-1"}, {"size": "-1"}, {"size": "-1"}, {"size": "1"}]}}, "PartitionedCall/PartitionedCall_1/cond/else/_13/cond/cond/output/_62:0": {"name": "PartitionedCall/PartitionedCall_1/cond/else/_13/cond/cond/output/_62:0", "dtype": "DT_INT32", "tensorShape": {}}, "PartitionedCall/PartitionedCall_1/cond/else/_13/cond/cond/output/_58:0": {"name": "PartitionedCall/PartitionedCall_1/cond/else/_13/cond/cond/output/_58:0", "dtype": "DT_FLOAT", "tensorShape": {"dim": [{"size": "-1"}, {"size": "-1"}, {"size": "1"}, {"size": "1"}]}}, "PartitionedCall/PartitionedCall_1/cond/else/_13/cond/cond/else/_53/cond/cond/cond/else/_93/cond/cond/cond/cond/output/_146:0": {"name": "PartitionedCall/PartitionedCall_1/cond/else/_13/cond/cond/else/_53/cond/cond/cond/else/_93/cond/cond/cond/cond/output/_146:0", "dtype": "DT_INT32", "tensorShape": {}}, "PartitionedCall/PartitionedCall_1/cond/else/_13/cond/cond/else/_53/cond/cond/cond/else/_93/cond/cond/cond/cond/pivot_f/_135:0": {"name": "PartitionedCall/PartitionedCall_1/cond/else/_13/cond/cond/else/_53/cond/cond/cond/else/_93/cond/cond/cond/cond/pivot_f/_135:0", "dtype": "DT_BOOL", "tensorShape": {}}, "PartitionedCall/PartitionedCall_1/cond/else/_13/cond/cond/else/_53/cond/cond/cond/output/_105:0": {"name": "PartitionedCall/PartitionedCall_1/cond/else/_13/cond/cond/else/_53/cond/cond/cond/output/_105:0", "dtype": "DT_INT32", "tensorShape": {}}, "PartitionedCall/PartitionedCall_1/cond/else/_13/cond/cond/output/_59:0": {"name": "PartitionedCall/PartitionedCall_1/cond/else/_13/cond/cond/output/_59:0", "dtype": "DT_INT32", "tensorShape": {}}, "PartitionedCall/PartitionedCall_1/cond/output/_26:0": {"name": "PartitionedCall/PartitionedCall_1/cond/output/_26:0", "dtype": "DT_INT32", "tensorShape": {}}, "PartitionedCall/PartitionedCall_1/cond/else/_13/cond/cond/else/_53/cond/cond/cond/else/_93/cond/cond/cond/cond/else/_133/cond/cond/cond/cond/cond/output/_184:0": {"name": "PartitionedCall/PartitionedCall_1/cond/else/_13/cond/cond/else/_53/cond/cond/cond/else/_93/cond/cond/cond/cond/else/_133/cond/cond/cond/cond/cond/output/_184:0", "dtype": "DT_INT32", "tensorShape": {}}, "PartitionedCall/PartitionedCall_1/cond/else/_13/cond/cond/else/_53/cond/cond/cond/else/_93/cond/cond/cond/cond/output/_144:0": {"name": "PartitionedCall/PartitionedCall_1/cond/else/_13/cond/cond/else/_53/cond/cond/cond/else/_93/cond/cond/cond/cond/output/_144:0", "dtype": "DT_INT32", "tensorShape": {}}, "PartitionedCall/PartitionedCall_1/cond/else/_13/cond/cond/else/_53/cond/cond/cond/else/_93/cond/cond/cond/cond/else/_133/cond/cond/cond/cond/cond/output/_179:0": {"name": "PartitionedCall/PartitionedCall_1/cond/else/_13/cond/cond/else/_53/cond/cond/cond/else/_93/cond/cond/cond/cond/else/_133/cond/cond/cond/cond/cond/output/_179:0", "dtype": "DT_INT32", "tensorShape": {}}, "PartitionedCall/PartitionedCall_1/cond/else/_13/cond/cond/else/_53/cond/cond/cond/else/_93/cond/cond/cond/cond/else/_133/cond/cond/cond/cond/cond/output/_183:0": {"name": "PartitionedCall/PartitionedCall_1/cond/else/_13/cond/cond/else/_53/cond/cond/cond/else/_93/cond/cond/cond/cond/else/_133/cond/cond/cond/cond/cond/output/_183:0", "dtype": "DT_INT32", "tensorShape": {}}, "PartitionedCall/PartitionedCall_1/cond/else/_13/cond/cond/else/_53/cond/cond/cond/else/_93/cond/cond/cond/cond/output/_142:0": {"name": "PartitionedCall/PartitionedCall_1/cond/else/_13/cond/cond/else/_53/cond/cond/cond/else/_93/cond/cond/cond/cond/output/_142:0", "dtype": "DT_INT32", "tensorShape": {}}, "Identity:0": {"name": "Identity:0", "dtype": "DT_FLOAT", "tensorShape": {"dim": [{"size": "-1"}, {"size": "-1"}, {"size": "-1"}, {"size": "1"}]}}, "PartitionedCall/PartitionedCall_1/cond/else/_13/cond/cond/output/_63:0": {"name": "PartitionedCall/PartitionedCall_1/cond/else/_13/cond/cond/output/_63:0", "dtype": "DT_INT32", "tensorShape": {}}, "PartitionedCall/PartitionedCall_1/cond/output/_21:0": {"name": "PartitionedCall/PartitionedCall_1/cond/output/_21:0", "dtype": "DT_INT32", "tensorShape": {}}, "PartitionedCall/PartitionedCall_1/cond/else/_13/cond/cond/pivot_f/_55:0": {"name": "PartitionedCall/PartitionedCall_1/cond/else/_13/cond/cond/pivot_f/_55:0", "dtype": "DT_BOOL", "tensorShape": {}}, "PartitionedCall/PartitionedCall_1/cond/else/_13/cond/cond/else/_53/cond/cond/cond/else/_93/cond/cond/cond/cond/else/_133/cond/cond/cond/cond/cond/pivot_f/_175:0": {"name": "PartitionedCall/PartitionedCall_1/cond/else/_13/cond/cond/else/_53/cond/cond/cond/else/_93/cond/cond/cond/cond/else/_133/cond/cond/cond/cond/cond/pivot_f/_175:0", "dtype": "DT_BOOL", "tensorShape": {}}, "PartitionedCall/PartitionedCall_1/cond/else/_13/cond/cond/else/_53/cond/cond/cond/pivot_f/_95:0": {"name": "PartitionedCall/PartitionedCall_1/cond/else/_13/cond/cond/else/_53/cond/cond/cond/pivot_f/_95:0", "dtype": "DT_BOOL", "tensorShape": {}}, "PartitionedCall/PartitionedCall_1/cond/pivot_t/_16:0": {"name": "PartitionedCall/PartitionedCall_1/cond/pivot_t/_16:0", "dtype": "DT_BOOL", "tensorShape": {}}, "Identity_2": {"name": "Identity_2:0", "dtype": "DT_FLOAT", "tensorShape": {"dim": [{"size": "-1"}, {"size": "3"}, {"size": "2"}]}}, "PartitionedCall/PartitionedCall_1/cond/output/_24:0": {"name": "PartitionedCall/PartitionedCall_1/cond/output/_24:0", "dtype": "DT_INT32", "tensorShape": {}}, "PartitionedCall/PartitionedCall_1/cond/else/_13/cond/cond/else/_53/cond/cond/cond/output/_106:0": {"name": "PartitionedCall/PartitionedCall_1/cond/else/_13/cond/cond/else/_53/cond/cond/cond/output/_106:0", "dtype": "DT_INT32", "tensorShape": {}}, "PartitionedCall/PartitionedCall_1/cond/output/_23:0": {"name": "PartitionedCall/PartitionedCall_1/cond/output/_23:0", "dtype": "DT_INT32", "tensorShape": {}}, "PartitionedCall/PartitionedCall_1/cond/else/_13/cond/cond/else/_53/cond/cond/cond/else/_93/cond/cond/cond/cond/else/_133/cond/cond/cond/cond/cond/output/_181:0": {"name": "PartitionedCall/PartitionedCall_1/cond/else/_13/cond/cond/else/_53/cond/cond/cond/else/_93/cond/cond/cond/cond/else/_133/cond/cond/cond/cond/cond/output/_181:0", "dtype": "DT_INT32", "tensorShape": {}}}}, "modelTopology": {"node": [{"name": "Const", "op": "Const", "attr": {"value": {"tensor": {"dtype": "DT_FLOAT", "tensorShape": {}}}, "dtype": {"type": "DT_FLOAT"}}}, {"name": "Const_1", "op": "Const", "attr": {"dtype": {"type": "DT_FLOAT"}, "value": {"tensor": {"dtype": "DT_FLOAT", "tensorShape": {}}}}}, {"name": "Const_2", "op": "Const", "attr": {"dtype": {"type": "DT_FLOAT"}, "value": {"tensor": {"dtype": "DT_FLOAT", "tensorShape": {}}}}}, {"name": "Const_3", "op": "Const", "attr": {"dtype": {"type": "DT_FLOAT"}, "value": {"tensor": {"dtype": "DT_FLOAT", "tensorShape": {}}}}}, {"name": "Const_4", "op": "Const", "attr": {"dtype": {"type": "DT_FLOAT"}, "value": {"tensor": {"dtype": "DT_FLOAT", "tensorShape": {}}}}}, {"name": "Const_5", "op": "Const", "attr": {"dtype": {"type": "DT_INT32"}, "value": {"tensor": {"dtype": "DT_INT32", "tensorShape": {}}}}}, {"name": "Const_6", "op": "Const", "attr": {"value": {"tensor": {"dtype": "DT_INT32", "tensorShape": {}}}, "dtype": {"type": "DT_INT32"}}}, {"name": "Const_8", "op": "Const", "attr": {"dtype": {"type": "DT_INT32"}, "value": {"tensor": {"dtype": "DT_INT32", "tensorShape": {"dim": [{"size": "1"}]}}}}}, {"name": "Const_9", "op": "Const", "attr": {"dtype": {"type": "DT_INT32"}, "value": {"tensor": {"dtype": "DT_INT32", "tensorShape": {"dim": [{"size": "1"}]}}}}}, {"name": "Const_10", "op": "Const", "attr": {"value": {"tensor": {"dtype": "DT_INT32", "tensorShape": {"dim": [{"size": "1"}]}}}, "dtype": {"type": "DT_INT32"}}}, {"name": "Const_11", "op": "Const", "attr": {"dtype": {"type": "DT_FLOAT"}, "value": {"tensor": {"dtype": "DT_FLOAT", "tensorShape": {}}}}}, {"name": "Const_12", "op": "Const", "attr": {"dtype": {"type": "DT_FLOAT"}, "value": {"tensor": {"dtype": "DT_FLOAT", "tensorShape": {}}}}}, {"name": "Const_13", "op": "Const", "attr": {"dtype": {"type": "DT_FLOAT"}, "value": {"tensor": {"dtype": "DT_FLOAT", "tensorShape": {"dim": [{"size": "2"}]}}}}}, {"name": "Const_14", "op": "Const", "attr": {"dtype": {"type": "DT_FLOAT"}, "value": {"tensor": {"dtype": "DT_FLOAT", "tensorShape": {"dim": [{"size": "2"}]}}}}}, {"name": "Const_15", "op": "Const", "attr": {"dtype": {"type": "DT_FLOAT"}, "value": {"tensor": {"dtype": "DT_FLOAT", "tensorShape": {"dim": [{"size": "2"}]}}}}}, {"name": "Const_16", "op": "Const", "attr": {"dtype": {"type": "DT_FLOAT"}, "value": {"tensor": {"dtype": "DT_FLOAT", "tensorShape": {"dim": [{"size": "2"}]}}}}}, {"name": "Const_17", "op": "Const", "attr": {"dtype": {"type": "DT_INT32"}, "value": {"tensor": {"dtype": "DT_INT32", "tensorShape": {"dim": [{"size": "1"}]}}}}}, {"name": "Const_18", "op": "Const", "attr": {"dtype": {"type": "DT_INT32"}, "value": {"tensor": {"dtype": "DT_INT32", "tensorShape": {"dim": [{"size": "1"}]}}}}}, {"name": "Const_19", "op": "Const", "attr": {"dtype": {"type": "DT_INT32"}, "value": {"tensor": {"dtype": "DT_INT32", "tensorShape": {"dim": [{"size": "1"}]}}}}}, {"name": "Const_20", "op": "Const", "attr": {"dtype": {"type": "DT_FLOAT"}, "value": {"tensor": {"dtype": "DT_FLOAT", "tensorShape": {"dim": [{"size": "1"}, {"size": "1"}, {"size": "32"}, {"size": "96"}]}}}}}, {"name": "Const_21", "op": "Const", "attr": {"dtype": {"type": "DT_INT32"}, "value": {"tensor": {"dtype": "DT_INT32", "tensorShape": {"dim": [{"size": "4"}, {"size": "2"}]}}}}}, {"name": "Const_22", "op": "Const", "attr": {"dtype": {"type": "DT_FLOAT"}, "value": {"tensor": {"dtype": "DT_FLOAT", "tensorShape": {"dim": [{"size": "3"}, {"size": "3"}, {"size": "96"}, {"size": "1"}]}}}}}, {"name": "Const_23", "op": "Const", "attr": {"dtype": {"type": "DT_FLOAT"}, "value": {"tensor": {"dtype": "DT_FLOAT", "tensorShape": {"dim": [{"size": "96"}]}}}}}, {"name": "Const_24", "op": "Const", "attr": {"dtype": {"type": "DT_FLOAT"}, "value": {"tensor": {"dtype": "DT_FLOAT", "tensorShape": {"dim": [{"size": "1"}, {"size": "1"}, {"size": "96"}, {"size": "32"}]}}}}}, {"name": "Const_25", "op": "Const", "attr": {"dtype": {"type": "DT_FLOAT"}, "value": {"tensor": {"dtype": "DT_FLOAT", "tensorShape": {"dim": [{"size": "32"}]}}}}}, {"name": "Const_26", "op": "Const", "attr": {"dtype": {"type": "DT_INT32"}, "value": {"tensor": {"dtype": "DT_INT32", "tensorShape": {"dim": [{"size": "1"}]}}}}}, {"name": "Const_27", "op": "Const", "attr": {"dtype": {"type": "DT_INT32"}, "value": {"tensor": {"dtype": "DT_INT32", "tensorShape": {"dim": [{"size": "1"}]}}}}}, {"name": "Const_28", "op": "Const", "attr": {"dtype": {"type": "DT_INT32"}, "value": {"tensor": {"dtype": "DT_INT32", "tensorShape": {"dim": [{"size": "1"}]}}}}}, {"name": "Const_29", "op": "Const", "attr": {"dtype": {"type": "DT_FLOAT"}, "value": {"tensor": {"dtype": "DT_FLOAT", "tensorShape": {"dim": [{"size": "1"}, {"size": "1"}, {"size": "24"}, {"size": "32"}]}}}}}, {"name": "Const_30", "op": "Const", "attr": {"dtype": {"type": "DT_INT32"}, "value": {"tensor": {"dtype": "DT_INT32", "tensorShape": {"dim": [{"size": "4"}, {"size": "2"}]}}}}}, {"name": "Const_31", "op": "Const", "attr": {"dtype": {"type": "DT_FLOAT"}, "value": {"tensor": {"dtype": "DT_FLOAT", "tensorShape": {"dim": [{"size": "3"}, {"size": "3"}, {"size": "32"}, {"size": "1"}]}}}}}, {"name": "Const_32", "op": "Const", "attr": {"dtype": {"type": "DT_FLOAT"}, "value": {"tensor": {"dtype": "DT_FLOAT", "tensorShape": {"dim": [{"size": "32"}]}}}}}, {"name": "Const_33", "op": "Const", "attr": {"dtype": {"type": "DT_FLOAT"}, "value": {"tensor": {"dtype": "DT_FLOAT", "tensorShape": {"dim": [{"size": "1"}, {"size": "1"}, {"size": "32"}, {"size": "24"}]}}}}}, {"name": "Const_34", "op": "Const", "attr": {"dtype": {"type": "DT_FLOAT"}, "value": {"tensor": {"dtype": "DT_FLOAT", "tensorShape": {"dim": [{"size": "24"}]}}}}}, {"name": "Const_35", "op": "Const", "attr": {"dtype": {"type": "DT_INT32"}, "value": {"tensor": {"dtype": "DT_INT32", "tensorShape": {"dim": [{"size": "1"}]}}}}}, {"name": "Const_36", "op": "Const", "attr": {"dtype": {"type": "DT_INT32"}, "value": {"tensor": {"dtype": "DT_INT32", "tensorShape": {"dim": [{"size": "1"}]}}}}}, {"name": "Const_37", "op": "Const", "attr": {"dtype": {"type": "DT_INT32"}, "value": {"tensor": {"dtype": "DT_INT32", "tensorShape": {"dim": [{"size": "1"}]}}}}}, {"name": "Const_38", "op": "Const", "attr": {"dtype": {"type": "DT_FLOAT"}, "value": {"tensor": {"dtype": "DT_FLOAT", "tensorShape": {"dim": [{"size": "1"}, {"size": "1"}, {"size": "16"}, {"size": "24"}]}}}}}, {"name": "Const_39", "op": "Const", "attr": {"dtype": {"type": "DT_INT32"}, "value": {"tensor": {"dtype": "DT_INT32", "tensorShape": {"dim": [{"size": "4"}, {"size": "2"}]}}}}}, {"name": "Const_40", "op": "Const", "attr": {"dtype": {"type": "DT_FLOAT"}, "value": {"tensor": {"dtype": "DT_FLOAT", "tensorShape": {"dim": [{"size": "3"}, {"size": "3"}, {"size": "24"}, {"size": "1"}]}}}}}, {"name": "Const_41", "op": "Const", "attr": {"dtype": {"type": "DT_FLOAT"}, "value": {"tensor": {"dtype": "DT_FLOAT", "tensorShape": {"dim": [{"size": "24"}]}}}}}, {"name": "Const_42", "op": "Const", "attr": {"dtype": {"type": "DT_FLOAT"}, "value": {"tensor": {"dtype": "DT_FLOAT", "tensorShape": {"dim": [{"size": "1"}, {"size": "1"}, {"size": "24"}, {"size": "16"}]}}}}}, {"name": "Const_43", "op": "Const", "attr": {"dtype": {"type": "DT_FLOAT"}, "value": {"tensor": {"dtype": "DT_FLOAT", "tensorShape": {"dim": [{"size": "16"}]}}}}}, {"name": "Const_44", "op": "Const", "attr": {"dtype": {"type": "DT_INT32"}, "value": {"tensor": {"dtype": "DT_INT32", "tensorShape": {"dim": [{"size": "1"}]}}}}}, {"name": "Const_45", "op": "Const", "attr": {"dtype": {"type": "DT_INT32"}, "value": {"tensor": {"dtype": "DT_INT32", "tensorShape": {"dim": [{"size": "1"}]}}}}}, {"name": "Const_46", "op": "Const", "attr": {"dtype": {"type": "DT_INT32"}, "value": {"tensor": {"dtype": "DT_INT32", "tensorShape": {"dim": [{"size": "1"}]}}}}}, {"name": "Const_47", "op": "Const", "attr": {"dtype": {"type": "DT_INT32"}, "value": {"tensor": {"dtype": "DT_INT32", "tensorShape": {"dim": [{"size": "4"}, {"size": "2"}]}}}}}, {"name": "Const_48", "op": "Const", "attr": {"dtype": {"type": "DT_FLOAT"}, "value": {"tensor": {"dtype": "DT_FLOAT", "tensorShape": {"dim": [{"size": "3"}, {"size": "3"}, {"size": "16"}, {"size": "1"}]}}}}}, {"name": "Const_49", "op": "Const", "attr": {"dtype": {"type": "DT_FLOAT"}, "value": {"tensor": {"dtype": "DT_FLOAT", "tensorShape": {"dim": [{"size": "16"}]}}}}}, {"name": "Const_50", "op": "Const", "attr": {"dtype": {"type": "DT_FLOAT"}, "value": {"tensor": {"dtype": "DT_FLOAT", "tensorShape": {"dim": [{"size": "1"}, {"size": "1"}, {"size": "16"}, {"size": "16"}]}}}}}, {"name": "Const_51", "op": "Const", "attr": {"dtype": {"type": "DT_FLOAT"}, "value": {"tensor": {"dtype": "DT_FLOAT", "tensorShape": {"dim": [{"size": "16"}]}}}}}, {"name": "Const_52", "op": "Const", "attr": {"dtype": {"type": "DT_INT32"}, "value": {"tensor": {"dtype": "DT_INT32", "tensorShape": {"dim": [{"size": "4"}, {"size": "2"}]}}}}}, {"name": "Const_53", "op": "Const", "attr": {"value": {"tensor": {"dtype": "DT_FLOAT", "tensorShape": {"dim": [{"size": "3"}, {"size": "3"}, {"size": "16"}, {"size": "1"}]}}}, "dtype": {"type": "DT_FLOAT"}}}, {"name": "Const_54", "op": "Const", "attr": {"dtype": {"type": "DT_FLOAT"}, "value": {"tensor": {"dtype": "DT_FLOAT", "tensorShape": {"dim": [{"size": "16"}]}}}}}, {"name": "Const_55", "op": "Const", "attr": {"dtype": {"type": "DT_FLOAT"}, "value": {"tensor": {"dtype": "DT_FLOAT", "tensorShape": {"dim": [{"size": "1"}, {"size": "1"}, {"size": "16"}, {"size": "16"}]}}}}}, {"name": "Const_56", "op": "Const", "attr": {"value": {"tensor": {"dtype": "DT_FLOAT", "tensorShape": {"dim": [{"size": "16"}]}}}, "dtype": {"type": "DT_FLOAT"}}}, {"name": "Const_57", "op": "Const", "attr": {"dtype": {"type": "DT_FLOAT"}, "value": {"tensor": {"dtype": "DT_FLOAT", "tensorShape": {"dim": [{"size": "1"}, {"size": "1"}, {"size": "16"}, {"size": "1"}]}}}}}, {"name": "Const_58", "op": "Const", "attr": {"dtype": {"type": "DT_FLOAT"}, "value": {"tensor": {"dtype": "DT_FLOAT", "tensorShape": {"dim": [{"size": "1"}]}}}}}, {"name": "Const_59", "op": "Const", "attr": {"dtype": {"type": "DT_FLOAT"}, "value": {"tensor": {"dtype": "DT_FLOAT", "tensorShape": {}}}}}, {"name": "Const_60", "op": "Const", "attr": {"dtype": {"type": "DT_FLOAT"}, "value": {"tensor": {"dtype": "DT_FLOAT", "tensorShape": {}}}}}, {"name": "Const_61", "op": "Const", "attr": {"dtype": {"type": "DT_FLOAT"}, "value": {"tensor": {"dtype": "DT_FLOAT", "tensorShape": {}}}}}, {"name": "Const_62", "op": "Const", "attr": {"dtype": {"type": "DT_INT32"}, "value": {"tensor": {"dtype": "DT_INT32", "tensorShape": {}}}}}, {"name": "Const_63", "op": "Const", "attr": {"dtype": {"type": "DT_INT32"}, "value": {"tensor": {"dtype": "DT_INT32", "tensorShape": {"dim": [{"size": "1"}]}}}}}, {"name": "Const_64", "op": "Const", "attr": {"dtype": {"type": "DT_INT32"}, "value": {"tensor": {"dtype": "DT_INT32", "tensorShape": {"dim": [{"size": "1"}]}}}}}, {"name": "Const_65", "op": "Const", "attr": {"dtype": {"type": "DT_INT32"}, "value": {"tensor": {"dtype": "DT_INT32", "tensorShape": {"dim": [{"size": "1"}]}}}}}, {"name": "Const_66", "op": "Const", "attr": {"value": {"tensor": {"dtype": "DT_FLOAT", "tensorShape": {"dim": [{"size": "2"}]}}}, "dtype": {"type": "DT_FLOAT"}}}, {"name": "Const_67", "op": "Const", "attr": {"dtype": {"type": "DT_FLOAT"}, "value": {"tensor": {"dtype": "DT_FLOAT", "tensorShape": {"dim": [{"size": "2"}]}}}}}, {"name": "Const_68", "op": "Const", "attr": {"dtype": {"type": "DT_FLOAT"}, "value": {"tensor": {"dtype": "DT_FLOAT", "tensorShape": {}}}}}, {"name": "Const_69", "op": "Const", "attr": {"dtype": {"type": "DT_FLOAT"}, "value": {"tensor": {"dtype": "DT_FLOAT", "tensorShape": {}}}}}, {"name": "Const_70", "op": "Const", "attr": {"dtype": {"type": "DT_FLOAT"}, "value": {"tensor": {"dtype": "DT_FLOAT", "tensorShape": {}}}}}, {"name": "Const_71", "op": "Const", "attr": {"dtype": {"type": "DT_FLOAT"}, "value": {"tensor": {"dtype": "DT_FLOAT", "tensorShape": {}}}}}, {"name": "Const_72", "op": "Const", "attr": {"value": {"tensor": {"dtype": "DT_FLOAT", "tensorShape": {}}}, "dtype": {"type": "DT_FLOAT"}}}, {"name": "Const_73", "op": "Const", "attr": {"dtype": {"type": "DT_FLOAT"}, "value": {"tensor": {"dtype": "DT_FLOAT", "tensorShape": {}}}}}, {"name": "Const_74", "op": "Const", "attr": {"dtype": {"type": "DT_FLOAT"}, "value": {"tensor": {"dtype": "DT_FLOAT", "tensorShape": {}}}}}, {"name": "Const_75", "op": "Const", "attr": {"value": {"tensor": {"dtype": "DT_FLOAT", "tensorShape": {"dim": [{"size": "1"}, {"size": "1"}, {"size": "1"}, {"size": "3"}]}}}, "dtype": {"type": "DT_FLOAT"}}}, {"name": "Const_76", "op": "Const", "attr": {"value": {"tensor": {"dtype": "DT_FLOAT", "tensorShape": {"dim": [{"size": "1"}, {"size": "1"}, {"size": "1"}, {"size": "3"}]}}}, "dtype": {"type": "DT_FLOAT"}}}, {"name": "Const_77", "op": "Const", "attr": {"value": {"tensor": {"dtype": "DT_INT32", "tensorShape": {"dim": [{"size": "4"}, {"size": "2"}]}}}, "dtype": {"type": "DT_INT32"}}}, {"name": "Const_78", "op": "Const", "attr": {"value": {"tensor": {"dtype": "DT_FLOAT", "tensorShape": {"dim": [{"size": "3"}, {"size": "3"}, {"size": "3"}, {"size": "32"}]}}}, "dtype": {"type": "DT_FLOAT"}}}, {"name": "Const_79", "op": "Const", "attr": {"value": {"tensor": {"dtype": "DT_FLOAT", "tensorShape": {"dim": [{"size": "32"}]}}}, "dtype": {"type": "DT_FLOAT"}}}, {"name": "Const_80", "op": "Const", "attr": {"dtype": {"type": "DT_INT32"}, "value": {"tensor": {"dtype": "DT_INT32", "tensorShape": {"dim": [{"size": "4"}, {"size": "2"}]}}}}}, {"name": "Const_81", "op": "Const", "attr": {"dtype": {"type": "DT_FLOAT"}, "value": {"tensor": {"dtype": "DT_FLOAT", "tensorShape": {"dim": [{"size": "3"}, {"size": "3"}, {"size": "32"}, {"size": "1"}]}}}}}, {"name": "Const_82", "op": "Const", "attr": {"value": {"tensor": {"dtype": "DT_FLOAT", "tensorShape": {"dim": [{"size": "32"}]}}}, "dtype": {"type": "DT_FLOAT"}}}, {"name": "Const_83", "op": "Const", "attr": {"value": {"tensor": {"dtype": "DT_FLOAT", "tensorShape": {"dim": [{"size": "1"}, {"size": "1"}, {"size": "32"}, {"size": "16"}]}}}, "dtype": {"type": "DT_FLOAT"}}}, {"name": "Const_84", "op": "Const", "attr": {"value": {"tensor": {"dtype": "DT_FLOAT", "tensorShape": {"dim": [{"size": "16"}]}}}, "dtype": {"type": "DT_FLOAT"}}}, {"name": "Const_85", "op": "Const", "attr": {"value": {"tensor": {"dtype": "DT_FLOAT", "tensorShape": {"dim": [{"size": "1"}, {"size": "1"}, {"size": "16"}, {"size": "96"}]}}}, "dtype": {"type": "DT_FLOAT"}}}, {"name": "Const_86", "op": "Const", "attr": {"value": {"tensor": {"dtype": "DT_FLOAT", "tensorShape": {"dim": [{"size": "96"}]}}}, "dtype": {"type": "DT_FLOAT"}}}, {"name": "Const_87", "op": "Const", "attr": {"value": {"tensor": {"dtype": "DT_INT32", "tensorShape": {"dim": [{"size": "4"}, {"size": "2"}]}}}, "dtype": {"type": "DT_INT32"}}}, {"name": "Const_88", "op": "Const", "attr": {"value": {"tensor": {"dtype": "DT_FLOAT", "tensorShape": {"dim": [{"size": "3"}, {"size": "3"}, {"size": "96"}, {"size": "1"}]}}}, "dtype": {"type": "DT_FLOAT"}}}, {"name": "Const_89", "op": "Const", "attr": {"dtype": {"type": "DT_FLOAT"}, "value": {"tensor": {"dtype": "DT_FLOAT", "tensorShape": {"dim": [{"size": "96"}]}}}}}, {"name": "Const_90", "op": "Const", "attr": {"dtype": {"type": "DT_FLOAT"}, "value": {"tensor": {"dtype": "DT_FLOAT", "tensorShape": {"dim": [{"size": "1"}, {"size": "1"}, {"size": "96"}, {"size": "24"}]}}}}}, {"name": "Const_91", "op": "Const", "attr": {"value": {"tensor": {"dtype": "DT_FLOAT", "tensorShape": {"dim": [{"size": "24"}]}}}, "dtype": {"type": "DT_FLOAT"}}}, {"name": "Const_92", "op": "Const", "attr": {"value": {"tensor": {"dtype": "DT_FLOAT", "tensorShape": {"dim": [{"size": "1"}, {"size": "1"}, {"size": "24"}, {"size": "144"}]}}}, "dtype": {"type": "DT_FLOAT"}}}, {"name": "Const_93", "op": "Const", "attr": {"dtype": {"type": "DT_FLOAT"}, "value": {"tensor": {"dtype": "DT_FLOAT", "tensorShape": {"dim": [{"size": "144"}]}}}}}, {"name": "Const_94", "op": "Const", "attr": {"value": {"tensor": {"dtype": "DT_INT32", "tensorShape": {"dim": [{"size": "4"}, {"size": "2"}]}}}, "dtype": {"type": "DT_INT32"}}}, {"name": "Const_95", "op": "Const", "attr": {"value": {"tensor": {"dtype": "DT_FLOAT", "tensorShape": {"dim": [{"size": "3"}, {"size": "3"}, {"size": "144"}, {"size": "1"}]}}}, "dtype": {"type": "DT_FLOAT"}}}, {"name": "Const_96", "op": "Const", "attr": {"value": {"tensor": {"dtype": "DT_FLOAT", "tensorShape": {"dim": [{"size": "144"}]}}}, "dtype": {"type": "DT_FLOAT"}}}, {"name": "Const_97", "op": "Const", "attr": {"dtype": {"type": "DT_FLOAT"}, "value": {"tensor": {"dtype": "DT_FLOAT", "tensorShape": {"dim": [{"size": "1"}, {"size": "1"}, {"size": "144"}, {"size": "24"}]}}}}}, {"name": "Const_98", "op": "Const", "attr": {"dtype": {"type": "DT_FLOAT"}, "value": {"tensor": {"dtype": "DT_FLOAT", "tensorShape": {"dim": [{"size": "24"}]}}}}}, {"name": "Const_99", "op": "Const", "attr": {"value": {"tensor": {"dtype": "DT_FLOAT", "tensorShape": {"dim": [{"size": "1"}, {"size": "1"}, {"size": "24"}, {"size": "144"}]}}}, "dtype": {"type": "DT_FLOAT"}}}, {"name": "Const_100", "op": "Const", "attr": {"dtype": {"type": "DT_FLOAT"}, "value": {"tensor": {"dtype": "DT_FLOAT", "tensorShape": {"dim": [{"size": "144"}]}}}}}, {"name": "Const_101", "op": "Const", "attr": {"dtype": {"type": "DT_INT32"}, "value": {"tensor": {"dtype": "DT_INT32", "tensorShape": {"dim": [{"size": "4"}, {"size": "2"}]}}}}}, {"name": "Const_102", "op": "Const", "attr": {"value": {"tensor": {"dtype": "DT_FLOAT", "tensorShape": {"dim": [{"size": "3"}, {"size": "3"}, {"size": "144"}, {"size": "1"}]}}}, "dtype": {"type": "DT_FLOAT"}}}, {"name": "Const_103", "op": "Const", "attr": {"value": {"tensor": {"dtype": "DT_FLOAT", "tensorShape": {"dim": [{"size": "144"}]}}}, "dtype": {"type": "DT_FLOAT"}}}, {"name": "Const_104", "op": "Const", "attr": {"value": {"tensor": {"dtype": "DT_FLOAT", "tensorShape": {"dim": [{"size": "1"}, {"size": "1"}, {"size": "144"}, {"size": "32"}]}}}, "dtype": {"type": "DT_FLOAT"}}}, {"name": "Const_105", "op": "Const", "attr": {"value": {"tensor": {"dtype": "DT_FLOAT", "tensorShape": {"dim": [{"size": "32"}]}}}, "dtype": {"type": "DT_FLOAT"}}}, {"name": "Const_106", "op": "Const", "attr": {"value": {"tensor": {"dtype": "DT_FLOAT", "tensorShape": {"dim": [{"size": "1"}, {"size": "1"}, {"size": "32"}, {"size": "192"}]}}}, "dtype": {"type": "DT_FLOAT"}}}, {"name": "Const_107", "op": "Const", "attr": {"value": {"tensor": {"dtype": "DT_FLOAT", "tensorShape": {"dim": [{"size": "192"}]}}}, "dtype": {"type": "DT_FLOAT"}}}, {"name": "Const_108", "op": "Const", "attr": {"dtype": {"type": "DT_INT32"}, "value": {"tensor": {"dtype": "DT_INT32", "tensorShape": {"dim": [{"size": "4"}, {"size": "2"}]}}}}}, {"name": "Const_109", "op": "Const", "attr": {"value": {"tensor": {"dtype": "DT_FLOAT", "tensorShape": {"dim": [{"size": "3"}, {"size": "3"}, {"size": "192"}, {"size": "1"}]}}}, "dtype": {"type": "DT_FLOAT"}}}, {"name": "Const_110", "op": "Const", "attr": {"dtype": {"type": "DT_FLOAT"}, "value": {"tensor": {"dtype": "DT_FLOAT", "tensorShape": {"dim": [{"size": "192"}]}}}}}, {"name": "Const_111", "op": "Const", "attr": {"dtype": {"type": "DT_FLOAT"}, "value": {"tensor": {"dtype": "DT_FLOAT", "tensorShape": {"dim": [{"size": "1"}, {"size": "1"}, {"size": "192"}, {"size": "32"}]}}}}}, {"name": "Const_112", "op": "Const", "attr": {"dtype": {"type": "DT_FLOAT"}, "value": {"tensor": {"dtype": "DT_FLOAT", "tensorShape": {"dim": [{"size": "32"}]}}}}}, {"name": "Const_113", "op": "Const", "attr": {"dtype": {"type": "DT_FLOAT"}, "value": {"tensor": {"dtype": "DT_FLOAT", "tensorShape": {"dim": [{"size": "1"}, {"size": "1"}, {"size": "32"}, {"size": "192"}]}}}}}, {"name": "Const_114", "op": "Const", "attr": {"value": {"tensor": {"dtype": "DT_FLOAT", "tensorShape": {"dim": [{"size": "192"}]}}}, "dtype": {"type": "DT_FLOAT"}}}, {"name": "Const_115", "op": "Const", "attr": {"value": {"tensor": {"dtype": "DT_INT32", "tensorShape": {"dim": [{"size": "4"}, {"size": "2"}]}}}, "dtype": {"type": "DT_INT32"}}}, {"name": "Const_116", "op": "Const", "attr": {"value": {"tensor": {"dtype": "DT_FLOAT", "tensorShape": {"dim": [{"size": "3"}, {"size": "3"}, {"size": "192"}, {"size": "1"}]}}}, "dtype": {"type": "DT_FLOAT"}}}, {"name": "Const_117", "op": "Const", "attr": {"value": {"tensor": {"dtype": "DT_FLOAT", "tensorShape": {"dim": [{"size": "192"}]}}}, "dtype": {"type": "DT_FLOAT"}}}, {"name": "Const_118", "op": "Const", "attr": {"value": {"tensor": {"dtype": "DT_FLOAT", "tensorShape": {"dim": [{"size": "1"}, {"size": "1"}, {"size": "192"}, {"size": "32"}]}}}, "dtype": {"type": "DT_FLOAT"}}}, {"name": "Const_119", "op": "Const", "attr": {"value": {"tensor": {"dtype": "DT_FLOAT", "tensorShape": {"dim": [{"size": "32"}]}}}, "dtype": {"type": "DT_FLOAT"}}}, {"name": "Const_120", "op": "Const", "attr": {"dtype": {"type": "DT_FLOAT"}, "value": {"tensor": {"dtype": "DT_FLOAT", "tensorShape": {"dim": [{"size": "1"}, {"size": "1"}, {"size": "32"}, {"size": "192"}]}}}}}, {"name": "Const_121", "op": "Const", "attr": {"value": {"tensor": {"dtype": "DT_FLOAT", "tensorShape": {"dim": [{"size": "192"}]}}}, "dtype": {"type": "DT_FLOAT"}}}, {"name": "Const_122", "op": "Const", "attr": {"dtype": {"type": "DT_INT32"}, "value": {"tensor": {"dtype": "DT_INT32", "tensorShape": {"dim": [{"size": "4"}, {"size": "2"}]}}}}}, {"name": "Const_123", "op": "Const", "attr": {"dtype": {"type": "DT_FLOAT"}, "value": {"tensor": {"dtype": "DT_FLOAT", "tensorShape": {"dim": [{"size": "3"}, {"size": "3"}, {"size": "192"}, {"size": "1"}]}}}}}, {"name": "Const_124", "op": "Const", "attr": {"value": {"tensor": {"dtype": "DT_FLOAT", "tensorShape": {"dim": [{"size": "192"}]}}}, "dtype": {"type": "DT_FLOAT"}}}, {"name": "Const_125", "op": "Const", "attr": {"value": {"tensor": {"dtype": "DT_FLOAT", "tensorShape": {"dim": [{"size": "1"}, {"size": "1"}, {"size": "192"}, {"size": "64"}]}}}, "dtype": {"type": "DT_FLOAT"}}}, {"name": "Const_126", "op": "Const", "attr": {"dtype": {"type": "DT_FLOAT"}, "value": {"tensor": {"dtype": "DT_FLOAT", "tensorShape": {"dim": [{"size": "64"}]}}}}}, {"name": "Const_127", "op": "Const", "attr": {"value": {"tensor": {"dtype": "DT_FLOAT", "tensorShape": {"dim": [{"size": "1"}, {"size": "1"}, {"size": "64"}, {"size": "384"}]}}}, "dtype": {"type": "DT_FLOAT"}}}, {"name": "Const_128", "op": "Const", "attr": {"value": {"tensor": {"dtype": "DT_FLOAT", "tensorShape": {"dim": [{"size": "384"}]}}}, "dtype": {"type": "DT_FLOAT"}}}, {"name": "Const_129", "op": "Const", "attr": {"value": {"tensor": {"dtype": "DT_INT32", "tensorShape": {"dim": [{"size": "4"}, {"size": "2"}]}}}, "dtype": {"type": "DT_INT32"}}}, {"name": "Const_130", "op": "Const", "attr": {"value": {"tensor": {"dtype": "DT_FLOAT", "tensorShape": {"dim": [{"size": "3"}, {"size": "3"}, {"size": "384"}, {"size": "1"}]}}}, "dtype": {"type": "DT_FLOAT"}}}, {"name": "Const_131", "op": "Const", "attr": {"dtype": {"type": "DT_FLOAT"}, "value": {"tensor": {"dtype": "DT_FLOAT", "tensorShape": {"dim": [{"size": "384"}]}}}}}, {"name": "Const_132", "op": "Const", "attr": {"dtype": {"type": "DT_FLOAT"}, "value": {"tensor": {"dtype": "DT_FLOAT", "tensorShape": {"dim": [{"size": "1"}, {"size": "1"}, {"size": "384"}, {"size": "64"}]}}}}}, {"name": "Const_133", "op": "Const", "attr": {"dtype": {"type": "DT_FLOAT"}, "value": {"tensor": {"dtype": "DT_FLOAT", "tensorShape": {"dim": [{"size": "64"}]}}}}}, {"name": "Const_134", "op": "Const", "attr": {"value": {"tensor": {"dtype": "DT_FLOAT", "tensorShape": {"dim": [{"size": "1"}, {"size": "1"}, {"size": "64"}, {"size": "384"}]}}}, "dtype": {"type": "DT_FLOAT"}}}, {"name": "Const_135", "op": "Const", "attr": {"value": {"tensor": {"dtype": "DT_FLOAT", "tensorShape": {"dim": [{"size": "384"}]}}}, "dtype": {"type": "DT_FLOAT"}}}, {"name": "Const_136", "op": "Const", "attr": {"value": {"tensor": {"dtype": "DT_INT32", "tensorShape": {"dim": [{"size": "4"}, {"size": "2"}]}}}, "dtype": {"type": "DT_INT32"}}}, {"name": "Const_137", "op": "Const", "attr": {"dtype": {"type": "DT_FLOAT"}, "value": {"tensor": {"dtype": "DT_FLOAT", "tensorShape": {"dim": [{"size": "3"}, {"size": "3"}, {"size": "384"}, {"size": "1"}]}}}}}, {"name": "Const_138", "op": "Const", "attr": {"value": {"tensor": {"dtype": "DT_FLOAT", "tensorShape": {"dim": [{"size": "384"}]}}}, "dtype": {"type": "DT_FLOAT"}}}, {"name": "Const_139", "op": "Const", "attr": {"value": {"tensor": {"dtype": "DT_FLOAT", "tensorShape": {"dim": [{"size": "1"}, {"size": "1"}, {"size": "384"}, {"size": "64"}]}}}, "dtype": {"type": "DT_FLOAT"}}}, {"name": "Const_140", "op": "Const", "attr": {"value": {"tensor": {"dtype": "DT_FLOAT", "tensorShape": {"dim": [{"size": "64"}]}}}, "dtype": {"type": "DT_FLOAT"}}}, {"name": "Const_141", "op": "Const", "attr": {"value": {"tensor": {"dtype": "DT_FLOAT", "tensorShape": {"dim": [{"size": "1"}, {"size": "1"}, {"size": "64"}, {"size": "384"}]}}}, "dtype": {"type": "DT_FLOAT"}}}, {"name": "Const_142", "op": "Const", "attr": {"value": {"tensor": {"dtype": "DT_FLOAT", "tensorShape": {"dim": [{"size": "384"}]}}}, "dtype": {"type": "DT_FLOAT"}}}, {"name": "Const_143", "op": "Const", "attr": {"value": {"tensor": {"dtype": "DT_INT32", "tensorShape": {"dim": [{"size": "4"}, {"size": "2"}]}}}, "dtype": {"type": "DT_INT32"}}}, {"name": "Const_144", "op": "Const", "attr": {"value": {"tensor": {"dtype": "DT_FLOAT", "tensorShape": {"dim": [{"size": "3"}, {"size": "3"}, {"size": "384"}, {"size": "1"}]}}}, "dtype": {"type": "DT_FLOAT"}}}, {"name": "Const_145", "op": "Const", "attr": {"dtype": {"type": "DT_FLOAT"}, "value": {"tensor": {"dtype": "DT_FLOAT", "tensorShape": {"dim": [{"size": "384"}]}}}}}, {"name": "Const_146", "op": "Const", "attr": {"value": {"tensor": {"dtype": "DT_FLOAT", "tensorShape": {"dim": [{"size": "1"}, {"size": "1"}, {"size": "384"}, {"size": "64"}]}}}, "dtype": {"type": "DT_FLOAT"}}}, {"name": "Const_147", "op": "Const", "attr": {"value": {"tensor": {"dtype": "DT_FLOAT", "tensorShape": {"dim": [{"size": "64"}]}}}, "dtype": {"type": "DT_FLOAT"}}}, {"name": "Const_148", "op": "Const", "attr": {"dtype": {"type": "DT_FLOAT"}, "value": {"tensor": {"dtype": "DT_FLOAT", "tensorShape": {"dim": [{"size": "1"}, {"size": "1"}, {"size": "64"}, {"size": "384"}]}}}}}, {"name": "Const_149", "op": "Const", "attr": {"value": {"tensor": {"dtype": "DT_FLOAT", "tensorShape": {"dim": [{"size": "384"}]}}}, "dtype": {"type": "DT_FLOAT"}}}, {"name": "Const_150", "op": "Const", "attr": {"dtype": {"type": "DT_INT32"}, "value": {"tensor": {"dtype": "DT_INT32", "tensorShape": {"dim": [{"size": "4"}, {"size": "2"}]}}}}}, {"name": "Const_151", "op": "Const", "attr": {"value": {"tensor": {"dtype": "DT_FLOAT", "tensorShape": {"dim": [{"size": "3"}, {"size": "3"}, {"size": "384"}, {"size": "1"}]}}}, "dtype": {"type": "DT_FLOAT"}}}, {"name": "Const_152", "op": "Const", "attr": {"value": {"tensor": {"dtype": "DT_FLOAT", "tensorShape": {"dim": [{"size": "384"}]}}}, "dtype": {"type": "DT_FLOAT"}}}, {"name": "Const_153", "op": "Const", "attr": {"dtype": {"type": "DT_FLOAT"}, "value": {"tensor": {"dtype": "DT_FLOAT", "tensorShape": {"dim": [{"size": "1"}, {"size": "1"}, {"size": "384"}, {"size": "96"}]}}}}}, {"name": "Const_154", "op": "Const", "attr": {"dtype": {"type": "DT_FLOAT"}, "value": {"tensor": {"dtype": "DT_FLOAT", "tensorShape": {"dim": [{"size": "96"}]}}}}}, {"name": "Const_155", "op": "Const", "attr": {"value": {"tensor": {"dtype": "DT_FLOAT", "tensorShape": {"dim": [{"size": "1"}, {"size": "1"}, {"size": "96"}, {"size": "576"}]}}}, "dtype": {"type": "DT_FLOAT"}}}, {"name": "Const_156", "op": "Const", "attr": {"dtype": {"type": "DT_FLOAT"}, "value": {"tensor": {"dtype": "DT_FLOAT", "tensorShape": {"dim": [{"size": "576"}]}}}}}, {"name": "Const_157", "op": "Const", "attr": {"dtype": {"type": "DT_INT32"}, "value": {"tensor": {"dtype": "DT_INT32", "tensorShape": {"dim": [{"size": "4"}, {"size": "2"}]}}}}}, {"name": "Const_158", "op": "Const", "attr": {"value": {"tensor": {"dtype": "DT_FLOAT", "tensorShape": {"dim": [{"size": "3"}, {"size": "3"}, {"size": "576"}, {"size": "1"}]}}}, "dtype": {"type": "DT_FLOAT"}}}, {"name": "Const_159", "op": "Const", "attr": {"value": {"tensor": {"dtype": "DT_FLOAT", "tensorShape": {"dim": [{"size": "576"}]}}}, "dtype": {"type": "DT_FLOAT"}}}, {"name": "Const_160", "op": "Const", "attr": {"value": {"tensor": {"dtype": "DT_FLOAT", "tensorShape": {"dim": [{"size": "1"}, {"size": "1"}, {"size": "576"}, {"size": "96"}]}}}, "dtype": {"type": "DT_FLOAT"}}}, {"name": "Const_161", "op": "Const", "attr": {"dtype": {"type": "DT_FLOAT"}, "value": {"tensor": {"dtype": "DT_FLOAT", "tensorShape": {"dim": [{"size": "96"}]}}}}}, {"name": "Const_162", "op": "Const", "attr": {"dtype": {"type": "DT_FLOAT"}, "value": {"tensor": {"dtype": "DT_FLOAT", "tensorShape": {"dim": [{"size": "1"}, {"size": "1"}, {"size": "96"}, {"size": "576"}]}}}}}, {"name": "Const_163", "op": "Const", "attr": {"value": {"tensor": {"dtype": "DT_FLOAT", "tensorShape": {"dim": [{"size": "576"}]}}}, "dtype": {"type": "DT_FLOAT"}}}, {"name": "Const_164", "op": "Const", "attr": {"dtype": {"type": "DT_INT32"}, "value": {"tensor": {"dtype": "DT_INT32", "tensorShape": {"dim": [{"size": "4"}, {"size": "2"}]}}}}}, {"name": "Const_165", "op": "Const", "attr": {"value": {"tensor": {"dtype": "DT_FLOAT", "tensorShape": {"dim": [{"size": "3"}, {"size": "3"}, {"size": "576"}, {"size": "1"}]}}}, "dtype": {"type": "DT_FLOAT"}}}, {"name": "Const_166", "op": "Const", "attr": {"dtype": {"type": "DT_FLOAT"}, "value": {"tensor": {"dtype": "DT_FLOAT", "tensorShape": {"dim": [{"size": "576"}]}}}}}, {"name": "Const_167", "op": "Const", "attr": {"value": {"tensor": {"dtype": "DT_FLOAT", "tensorShape": {"dim": [{"size": "1"}, {"size": "1"}, {"size": "576"}, {"size": "96"}]}}}, "dtype": {"type": "DT_FLOAT"}}}, {"name": "Const_168", "op": "Const", "attr": {"dtype": {"type": "DT_FLOAT"}, "value": {"tensor": {"dtype": "DT_FLOAT", "tensorShape": {"dim": [{"size": "96"}]}}}}}, {"name": "Const_169", "op": "Const", "attr": {"value": {"tensor": {"dtype": "DT_FLOAT", "tensorShape": {"dim": [{"size": "1"}, {"size": "1"}, {"size": "96"}, {"size": "48"}]}}}, "dtype": {"type": "DT_FLOAT"}}}, {"name": "Const_170", "op": "Const", "attr": {"value": {"tensor": {"dtype": "DT_FLOAT", "tensorShape": {"dim": [{"size": "48"}]}}}, "dtype": {"type": "DT_FLOAT"}}}, {"name": "Const_171", "op": "Const", "attr": {"dtype": {"type": "DT_INT32"}, "value": {"tensor": {"dtype": "DT_INT32", "tensorShape": {"dim": [{"size": "1"}]}}}}}, {"name": "Const_172", "op": "Const", "attr": {"dtype": {"type": "DT_INT32"}, "value": {"tensor": {"dtype": "DT_INT32", "tensorShape": {"dim": [{"size": "1"}]}}}}}, {"name": "Const_173", "op": "Const", "attr": {"value": {"tensor": {"dtype": "DT_INT32", "tensorShape": {"dim": [{"size": "1"}]}}}, "dtype": {"type": "DT_INT32"}}}, {"name": "Const_174", "op": "Const", "attr": {"value": {"tensor": {"dtype": "DT_INT32", "tensorShape": {"dim": [{"size": "4"}, {"size": "2"}]}}}, "dtype": {"type": "DT_INT32"}}}, {"name": "Const_175", "op": "Const", "attr": {"dtype": {"type": "DT_FLOAT"}, "value": {"tensor": {"dtype": "DT_FLOAT", "tensorShape": {"dim": [{"size": "3"}, {"size": "3"}, {"size": "48"}, {"size": "48"}]}}}}}, {"name": "Const_176", "op": "Const", "attr": {"dtype": {"type": "DT_FLOAT"}, "value": {"tensor": {"dtype": "DT_FLOAT", "tensorShape": {"dim": [{"size": "48"}]}}}}}, {"name": "Const_177", "op": "Const", "attr": {"dtype": {"type": "DT_FLOAT"}, "value": {"tensor": {"dtype": "DT_FLOAT", "tensorShape": {"dim": [{"size": "1"}, {"size": "1"}, {"size": "48"}, {"size": "3"}]}}}}}, {"name": "Const_178", "op": "Const", "attr": {"value": {"tensor": {"dtype": "DT_FLOAT", "tensorShape": {"dim": [{"size": "3"}]}}}, "dtype": {"type": "DT_FLOAT"}}}, {"name": "Const_179", "op": "Const", "attr": {"value": {"tensor": {"dtype": "DT_INT32", "tensorShape": {"dim": [{"size": "1"}]}}}, "dtype": {"type": "DT_INT32"}}}, {"name": "Const_180", "op": "Const", "attr": {"dtype": {"type": "DT_INT32"}, "value": {"tensor": {"dtype": "DT_INT32", "tensorShape": {"dim": [{"size": "1"}]}}}}}, {"name": "Const_181", "op": "Const", "attr": {"value": {"tensor": {"dtype": "DT_INT32", "tensorShape": {"dim": [{"size": "1"}]}}}, "dtype": {"type": "DT_INT32"}}}, {"name": "Const_182", "op": "Const", "attr": {"dtype": {"type": "DT_INT32"}, "value": {"tensor": {"dtype": "DT_INT32", "tensorShape": {"dim": [{"size": "1"}]}}}}}, {"name": "Const_183", "op": "Const", "attr": {"value": {"tensor": {"dtype": "DT_INT32", "tensorShape": {"dim": [{"size": "1"}]}}}, "dtype": {"type": "DT_INT32"}}}, {"name": "Const_184", "op": "Const", "attr": {"dtype": {"type": "DT_INT32"}, "value": {"tensor": {"dtype": "DT_INT32", "tensorShape": {"dim": [{"size": "1"}]}}}}}, {"name": "Const_185", "op": "Const", "attr": {"value": {"tensor": {"dtype": "DT_INT32", "tensorShape": {}}}, "dtype": {"type": "DT_INT32"}}}, {"name": "Const_186", "op": "Const", "attr": {"value": {"tensor": {"dtype": "DT_INT32", "tensorShape": {}}}, "dtype": {"type": "DT_INT32"}}}, {"name": "Const_187", "op": "Const", "attr": {"dtype": {"type": "DT_INT32"}, "value": {"tensor": {"dtype": "DT_INT32", "tensorShape": {}}}}}, {"name": "Const_188", "op": "Const", "attr": {"dtype": {"type": "DT_INT32"}, "value": {"tensor": {"dtype": "DT_INT32", "tensorShape": {}}}}}, {"name": "Cast", "op": "Const", "attr": {"value": {"tensor": {"dtype": "DT_DOUBLE", "tensorShape": {}}}, "dtype": {"type": "DT_DOUBLE"}}}, {"name": "Const_190", "op": "Const", "attr": {"dtype": {"type": "DT_FLOAT"}, "value": {"tensor": {"dtype": "DT_FLOAT", "tensorShape": {}}}}}, {"name": "Const_191", "op": "Const", "attr": {"value": {"tensor": {"dtype": "DT_INT32", "tensorShape": {}}}, "dtype": {"type": "DT_INT32"}}}, {"name": "Const_192", "op": "Const", "attr": {"dtype": {"type": "DT_INT32"}, "value": {"tensor": {"dtype": "DT_INT32", "tensorShape": {"dim": [{"size": "1"}]}}}}}, {"name": "Const_193", "op": "Const", "attr": {"value": {"tensor": {"dtype": "DT_INT32", "tensorShape": {"dim": [{"size": "1"}]}}}, "dtype": {"type": "DT_INT32"}}}, {"name": "Const_194", "op": "Const", "attr": {"dtype": {"type": "DT_INT32"}, "value": {"tensor": {"dtype": "DT_INT32", "tensorShape": {"dim": [{"size": "1"}]}}}}}, {"name": "Cast_1", "op": "Const", "attr": {"dtype": {"type": "DT_DOUBLE"}, "value": {"tensor": {"dtype": "DT_DOUBLE", "tensorShape": {}}}}}, {"name": "Const_196", "op": "Const", "attr": {"dtype": {"type": "DT_INT32"}, "value": {"tensor": {"dtype": "DT_INT32", "tensorShape": {"dim": [{"size": "1"}]}}}}}, {"name": "Const_197", "op": "Const", "attr": {"dtype": {"type": "DT_INT32"}, "value": {"tensor": {"dtype": "DT_INT32", "tensorShape": {"dim": [{"size": "1"}]}}}}}, {"name": "Const_198", "op": "Const", "attr": {"dtype": {"type": "DT_INT32"}, "value": {"tensor": {"dtype": "DT_INT32", "tensorShape": {"dim": [{"size": "1"}]}}}}}, {"name": "Const_199", "op": "Const", "attr": {"value": {"tensor": {"dtype": "DT_INT32", "tensorShape": {}}}, "dtype": {"type": "DT_INT32"}}}, {"name": "Const_230", "op": "Const", "attr": {"value": {"tensor": {"dtype": "DT_INT32", "tensorShape": {}}}, "dtype": {"type": "DT_INT32"}}}, {"name": "Const_220", "op": "Const", "attr": {"dtype": {"type": "DT_INT32"}, "value": {"tensor": {"dtype": "DT_INT32", "tensorShape": {}}}}}, {"name": "Const_210", "op": "Const", "attr": {"dtype": {"type": "DT_INT32"}, "value": {"tensor": {"dtype": "DT_INT32", "tensorShape": {}}}}}, {"name": "Const_200", "op": "Const", "attr": {"value": {"tensor": {"dtype": "DT_INT32", "tensorShape": {}}}, "dtype": {"type": "DT_INT32"}}}, {"name": "Const_209", "op": "Const", "attr": {"value": {"tensor": {"dtype": "DT_FLOAT", "tensorShape": {"dim": [{"size": "1"}, {"size": "1"}, {"size": "1"}, {"size": "1"}]}}}, "dtype": {"type": "DT_FLOAT"}}}, {"name": "Const_219", "op": "Const", "attr": {"value": {"tensor": {"dtype": "DT_FLOAT", "tensorShape": {"dim": [{"size": "3"}, {"size": "3"}, {"size": "1"}, {"size": "1"}]}}}, "dtype": {"type": "DT_FLOAT"}}}, {"name": "Const_229", "op": "Const", "attr": {"dtype": {"type": "DT_FLOAT"}, "value": {"tensor": {"dtype": "DT_FLOAT", "tensorShape": {"dim": [{"size": "5"}, {"size": "5"}, {"size": "1"}, {"size": "1"}]}}}}}, {"name": "Const_239", "op": "Const", "attr": {"value": {"tensor": {"dtype": "DT_FLOAT", "tensorShape": {"dim": [{"size": "9"}, {"size": "9"}, {"size": "1"}, {"size": "1"}]}}}, "dtype": {"type": "DT_FLOAT"}}}, {"name": "Const_250", "op": "Const", "attr": {"dtype": {"type": "DT_FLOAT"}, "value": {"tensor": {"dtype": "DT_FLOAT", "tensorShape": {"dim": [{"size": "17"}, {"size": "17"}, {"size": "1"}, {"size": "1"}]}}}}}, {"name": "Const_248", "op": "Const", "attr": {"dtype": {"type": "DT_FLOAT"}, "value": {"tensor": {"dtype": "DT_FLOAT", "tensorShape": {"dim": [{"size": "5"}, {"size": "5"}, {"size": "1"}, {"size": "1"}]}}}}}, {"name": "Const_201", "op": "Const", "attr": {"dtype": {"type": "DT_INT32"}, "value": {"tensor": {"dtype": "DT_INT32", "tensorShape": {}}}}}, {"name": "Const_211", "op": "Const", "attr": {"value": {"tensor": {"dtype": "DT_INT32", "tensorShape": {}}}, "dtype": {"type": "DT_INT32"}}}, {"name": "Const_221", "op": "Const", "attr": {"value": {"tensor": {"dtype": "DT_INT32", "tensorShape": {}}}, "dtype": {"type": "DT_INT32"}}}, {"name": "Const_231", "op": "Const", "attr": {"value": {"tensor": {"dtype": "DT_INT32", "tensorShape": {}}}, "dtype": {"type": "DT_INT32"}}}, {"name": "Const_251", "op": "Const", "attr": {"dtype": {"type": "DT_INT32"}, "value": {"tensor": {"dtype": "DT_INT32", "tensorShape": {}}}}}, {"name": "Const_240", "op": "Const", "attr": {"dtype": {"type": "DT_INT32"}, "value": {"tensor": {"dtype": "DT_INT32", "tensorShape": {}}}}}, {"name": "Const_202", "op": "Const", "attr": {"value": {"tensor": {"dtype": "DT_INT32", "tensorShape": {}}}, "dtype": {"type": "DT_INT32"}}}, {"name": "Const_212", "op": "Const", "attr": {"value": {"tensor": {"dtype": "DT_INT32", "tensorShape": {}}}, "dtype": {"type": "DT_INT32"}}}, {"name": "Const_222", "op": "Const", "attr": {"value": {"tensor": {"dtype": "DT_INT32", "tensorShape": {}}}, "dtype": {"type": "DT_INT32"}}}, {"name": "Const_232", "op": "Const", "attr": {"dtype": {"type": "DT_INT32"}, "value": {"tensor": {"dtype": "DT_INT32", "tensorShape": {}}}}}, {"name": "Const_252", "op": "Const", "attr": {"value": {"tensor": {"dtype": "DT_INT32", "tensorShape": {}}}, "dtype": {"type": "DT_INT32"}}}, {"name": "Const_241", "op": "Const", "attr": {"dtype": {"type": "DT_INT32"}, "value": {"tensor": {"dtype": "DT_INT32", "tensorShape": {}}}}}, {"name": "Const_203", "op": "Const", "attr": {"dtype": {"type": "DT_INT32"}, "value": {"tensor": {"dtype": "DT_INT32", "tensorShape": {}}}}}, {"name": "Const_213", "op": "Const", "attr": {"value": {"tensor": {"dtype": "DT_INT32", "tensorShape": {}}}, "dtype": {"type": "DT_INT32"}}}, {"name": "Const_223", "op": "Const", "attr": {"value": {"tensor": {"dtype": "DT_INT32", "tensorShape": {}}}, "dtype": {"type": "DT_INT32"}}}, {"name": "Const_233", "op": "Const", "attr": {"value": {"tensor": {"dtype": "DT_INT32", "tensorShape": {}}}, "dtype": {"type": "DT_INT32"}}}, {"name": "Const_253", "op": "Const", "attr": {"value": {"tensor": {"dtype": "DT_INT32", "tensorShape": {}}}, "dtype": {"type": "DT_INT32"}}}, {"name": "Const_242", "op": "Const", "attr": {"value": {"tensor": {"dtype": "DT_INT32", "tensorShape": {}}}, "dtype": {"type": "DT_INT32"}}}, {"name": "Const_204", "op": "Const", "attr": {"value": {"tensor": {"dtype": "DT_INT32", "tensorShape": {}}}, "dtype": {"type": "DT_INT32"}}}, {"name": "Const_214", "op": "Const", "attr": {"value": {"tensor": {"dtype": "DT_INT32", "tensorShape": {}}}, "dtype": {"type": "DT_INT32"}}}, {"name": "Const_224", "op": "Const", "attr": {"value": {"tensor": {"dtype": "DT_INT32", "tensorShape": {}}}, "dtype": {"type": "DT_INT32"}}}, {"name": "Const_234", "op": "Const", "attr": {"value": {"tensor": {"dtype": "DT_INT32", "tensorShape": {}}}, "dtype": {"type": "DT_INT32"}}}, {"name": "Const_254", "op": "Const", "attr": {"value": {"tensor": {"dtype": "DT_INT32", "tensorShape": {}}}, "dtype": {"type": "DT_INT32"}}}, {"name": "Const_243", "op": "Const", "attr": {"value": {"tensor": {"dtype": "DT_INT32", "tensorShape": {}}}, "dtype": {"type": "DT_INT32"}}}, {"name": "Const_205", "op": "Const", "attr": {"value": {"tensor": {"dtype": "DT_INT32", "tensorShape": {}}}, "dtype": {"type": "DT_INT32"}}}, {"name": "Const_215", "op": "Const", "attr": {"value": {"tensor": {"dtype": "DT_INT32", "tensorShape": {}}}, "dtype": {"type": "DT_INT32"}}}, {"name": "Const_225", "op": "Const", "attr": {"value": {"tensor": {"dtype": "DT_INT32", "tensorShape": {}}}, "dtype": {"type": "DT_INT32"}}}, {"name": "Const_235", "op": "Const", "attr": {"value": {"tensor": {"dtype": "DT_INT32", "tensorShape": {}}}, "dtype": {"type": "DT_INT32"}}}, {"name": "Const_255", "op": "Const", "attr": {"value": {"tensor": {"dtype": "DT_INT32", "tensorShape": {}}}, "dtype": {"type": "DT_INT32"}}}, {"name": "Const_244", "op": "Const", "attr": {"value": {"tensor": {"dtype": "DT_INT32", "tensorShape": {}}}, "dtype": {"type": "DT_INT32"}}}, {"name": "Const_206", "op": "Const", "attr": {"dtype": {"type": "DT_INT32"}, "value": {"tensor": {"dtype": "DT_INT32", "tensorShape": {}}}}}, {"name": "Const_216", "op": "Const", "attr": {"value": {"tensor": {"dtype": "DT_INT32", "tensorShape": {}}}, "dtype": {"type": "DT_INT32"}}}, {"name": "Const_226", "op": "Const", "attr": {"value": {"tensor": {"dtype": "DT_INT32", "tensorShape": {}}}, "dtype": {"type": "DT_INT32"}}}, {"name": "Const_236", "op": "Const", "attr": {"value": {"tensor": {"dtype": "DT_INT32", "tensorShape": {}}}, "dtype": {"type": "DT_INT32"}}}, {"name": "Const_256", "op": "Const", "attr": {"dtype": {"type": "DT_INT32"}, "value": {"tensor": {"dtype": "DT_INT32", "tensorShape": {}}}}}, {"name": "Const_245", "op": "Const", "attr": {"value": {"tensor": {"dtype": "DT_INT32", "tensorShape": {}}}, "dtype": {"type": "DT_INT32"}}}, {"name": "Const_207", "op": "Const", "attr": {"value": {"tensor": {"dtype": "DT_INT32", "tensorShape": {}}}, "dtype": {"type": "DT_INT32"}}}, {"name": "Const_217", "op": "Const", "attr": {"value": {"tensor": {"dtype": "DT_INT32", "tensorShape": {}}}, "dtype": {"type": "DT_INT32"}}}, {"name": "Const_227", "op": "Const", "attr": {"value": {"tensor": {"dtype": "DT_INT32", "tensorShape": {}}}, "dtype": {"type": "DT_INT32"}}}, {"name": "Const_237", "op": "Const", "attr": {"value": {"tensor": {"dtype": "DT_INT32", "tensorShape": {}}}, "dtype": {"type": "DT_INT32"}}}, {"name": "Const_257", "op": "Const", "attr": {"dtype": {"type": "DT_INT32"}, "value": {"tensor": {"dtype": "DT_INT32", "tensorShape": {}}}}}, {"name": "Const_246", "op": "Const", "attr": {"value": {"tensor": {"dtype": "DT_INT32", "tensorShape": {}}}, "dtype": {"type": "DT_INT32"}}}, {"name": "Const_208", "op": "Const", "attr": {"value": {"tensor": {"dtype": "DT_INT32", "tensorShape": {}}}, "dtype": {"type": "DT_INT32"}}}, {"name": "Const_218", "op": "Const", "attr": {"value": {"tensor": {"dtype": "DT_INT32", "tensorShape": {}}}, "dtype": {"type": "DT_INT32"}}}, {"name": "Const_228", "op": "Const", "attr": {"value": {"tensor": {"dtype": "DT_INT32", "tensorShape": {}}}, "dtype": {"type": "DT_INT32"}}}, {"name": "Const_238", "op": "Const", "attr": {"dtype": {"type": "DT_INT32"}, "value": {"tensor": {"dtype": "DT_INT32", "tensorShape": {}}}}}, {"name": "Const_249", "op": "Const", "attr": {"dtype": {"type": "DT_INT32"}, "value": {"tensor": {"dtype": "DT_INT32", "tensorShape": {}}}}}, {"name": "Const_247", "op": "Const", "attr": {"dtype": {"type": "DT_INT32"}, "value": {"tensor": {"dtype": "DT_INT32", "tensorShape": {}}}}}, {"name": "Const_7", "op": "Const", "attr": {"dtype": {"type": "DT_INT32"}, "value": {"tensor": {"dtype": "DT_INT32", "tensorShape": {}}}}}, {"name": "inputs_0", "op": "Placeholder", "attr": {"shape": {"shape": {"dim": [{"size": "-1"}, {"size": "-1"}, {"size": "-1"}, {"size": "-1"}]}}, "dtype": {"type": "DT_FLOAT"}}}, {"name": "inputs_1", "op": "Placeholder", "attr": {"shape": {"shape": {}}, "dtype": {"type": "DT_FLOAT"}}}, {"name": "PartitionedCall/PartitionedCall_1/cond/else/_13/cond/cond/else/_53/cond/cond/cond/else/_93/cond/cond/cond/cond/else/_133/cond/cond/cond/cond/cond/output/_177", "op": "Merge", "input": ["Const_250", "Const_248"], "attr": {"T": {"type": "DT_FLOAT"}, "N": {"i": "2"}}}, {"name": "PartitionedCall/PartitionedCall_1/cond/else/_13/cond/cond/else/_53/cond/cond/cond/else/_93/cond/cond/cond/cond/else/_133/cond/cond/cond/cond/cond/output/_178", "op": "Merge", "input": ["Const_251", "Const_240"], "attr": {"T": {"type": "DT_INT32"}, "N": {"i": "2"}}}, {"name": "PartitionedCall/PartitionedCall_1/cond/else/_13/cond/cond/else/_53/cond/cond/cond/else/_93/cond/cond/cond/cond/else/_133/cond/cond/cond/cond/cond/output/_179", "op": "Merge", "input": ["Const_252", "Const_241"], "attr": {"N": {"i": "2"}, "T": {"type": "DT_INT32"}}}, {"name": "PartitionedCall/PartitionedCall_1/cond/else/_13/cond/cond/else/_53/cond/cond/cond/else/_93/cond/cond/cond/cond/else/_133/cond/cond/cond/cond/cond/output/_180", "op": "Merge", "input": ["Const_253", "Const_242"], "attr": {"T": {"type": "DT_INT32"}, "N": {"i": "2"}}}, {"name": "PartitionedCall/PartitionedCall_1/cond/else/_13/cond/cond/else/_53/cond/cond/cond/else/_93/cond/cond/cond/cond/else/_133/cond/cond/cond/cond/cond/output/_181", "op": "Merge", "input": ["Const_254", "Const_243"], "attr": {"N": {"i": "2"}, "T": {"type": "DT_INT32"}}}, {"name": "PartitionedCall/PartitionedCall_1/cond/else/_13/cond/cond/else/_53/cond/cond/cond/else/_93/cond/cond/cond/cond/else/_133/cond/cond/cond/cond/cond/output/_182", "op": "Merge", "input": ["Const_255", "Const_244"], "attr": {"N": {"i": "2"}, "T": {"type": "DT_INT32"}}}, {"name": "PartitionedCall/PartitionedCall_1/cond/else/_13/cond/cond/else/_53/cond/cond/cond/else/_93/cond/cond/cond/cond/else/_133/cond/cond/cond/cond/cond/output/_183", "op": "Merge", "input": ["Const_256", "Const_245"], "attr": {"N": {"i": "2"}, "T": {"type": "DT_INT32"}}}, {"name": "PartitionedCall/PartitionedCall_1/cond/else/_13/cond/cond/else/_53/cond/cond/cond/else/_93/cond/cond/cond/cond/else/_133/cond/cond/cond/cond/cond/output/_184", "op": "Merge", "input": ["Const_257", "Const_246"], "attr": {"N": {"i": "2"}, "T": {"type": "DT_INT32"}}}, {"name": "PartitionedCall/PartitionedCall_1/cond/else/_13/cond/cond/else/_53/cond/cond/cond/else/_93/cond/cond/cond/cond/else/_133/cond/cond/cond/cond/cond/output/_185", "op": "Merge", "input": ["Const_249", "Const_247"], "attr": {"T": {"type": "DT_INT32"}, "N": {"i": "2"}}}, {"name": "PartitionedCall/sub_1", "op": "Sub", "input": ["inputs_0", "Const_3"], "attr": {"T": {"type": "DT_FLOAT"}}}, {"name": "PartitionedCall/Shape", "op": "Shape", "input": ["inputs_0"], "attr": {"out_type": {"type": "DT_INT32"}, "T": {"type": "DT_FLOAT"}}}, {"name": "PartitionedCall/PartitionedCall_1/Cast", "op": "Cast", "input": ["inputs_1"], "attr": {"DstT": {"type": "DT_INT32"}, "Truncate": {"b": false}, "SrcT": {"type": "DT_FLOAT"}}}, {"name": "ConstantFolding/PartitionedCall/PartitionedCall_1/cond/else/_13/cond/cond/else/_53/cond/cond/cond/else/_93/cond/cond/cond/cond/else/_133/cond/cond/cond/cond/cond/output/_177_const", "op": "Const", "input": ["^PartitionedCall/PartitionedCall_1/cond/else/_13/cond/cond/else/_53/cond/cond/cond/else/_93/cond/cond/cond/cond/else/_133/cond/cond/cond/cond/cond/output/_177"], "attr": {"value": {"tensor": {"dtype": "DT_FLOAT", "tensorShape": {"dim": [{"size": "17"}, {"size": "17"}, {"size": "1"}, {"size": "1"}]}}}, "dtype": {"type": "DT_FLOAT"}}}, {"name": "ConstantFolding/PartitionedCall/PartitionedCall_1/cond/else/_13/cond/cond/else/_53/cond/cond/cond/else/_93/cond/cond/cond/cond/else/_133/cond/cond/cond/cond/cond/output/_178_const", "op": "Const", "input": ["^PartitionedCall/PartitionedCall_1/cond/else/_13/cond/cond/else/_53/cond/cond/cond/else/_93/cond/cond/cond/cond/else/_133/cond/cond/cond/cond/cond/output/_178"], "attr": {"value": {"tensor": {"dtype": "DT_INT32", "tensorShape": {}}}, "dtype": {"type": "DT_INT32"}}}, {"name": "ConstantFolding/PartitionedCall/PartitionedCall_1/cond/else/_13/cond/cond/else/_53/cond/cond/cond/else/_93/cond/cond/cond/cond/else/_133/cond/cond/cond/cond/cond/output/_179_const", "op": "Const", "input": ["^PartitionedCall/PartitionedCall_1/cond/else/_13/cond/cond/else/_53/cond/cond/cond/else/_93/cond/cond/cond/cond/else/_133/cond/cond/cond/cond/cond/output/_179"], "attr": {"value": {"tensor": {"dtype": "DT_INT32", "tensorShape": {}}}, "dtype": {"type": "DT_INT32"}}}, {"name": "ConstantFolding/PartitionedCall/PartitionedCall_1/cond/else/_13/cond/cond/else/_53/cond/cond/cond/else/_93/cond/cond/cond/cond/else/_133/cond/cond/cond/cond/cond/output/_180_const", "op": "Const", "input": ["^PartitionedCall/PartitionedCall_1/cond/else/_13/cond/cond/else/_53/cond/cond/cond/else/_93/cond/cond/cond/cond/else/_133/cond/cond/cond/cond/cond/output/_180"], "attr": {"value": {"tensor": {"dtype": "DT_INT32", "tensorShape": {}}}, "dtype": {"type": "DT_INT32"}}}, {"name": "ConstantFolding/PartitionedCall/PartitionedCall_1/cond/else/_13/cond/cond/else/_53/cond/cond/cond/else/_93/cond/cond/cond/cond/else/_133/cond/cond/cond/cond/cond/output/_181_const", "op": "Const", "input": ["^PartitionedCall/PartitionedCall_1/cond/else/_13/cond/cond/else/_53/cond/cond/cond/else/_93/cond/cond/cond/cond/else/_133/cond/cond/cond/cond/cond/output/_181"], "attr": {"value": {"tensor": {"dtype": "DT_INT32", "tensorShape": {}}}, "dtype": {"type": "DT_INT32"}}}, {"name": "ConstantFolding/PartitionedCall/PartitionedCall_1/cond/else/_13/cond/cond/else/_53/cond/cond/cond/else/_93/cond/cond/cond/cond/else/_133/cond/cond/cond/cond/cond/output/_182_const", "op": "Const", "input": ["^PartitionedCall/PartitionedCall_1/cond/else/_13/cond/cond/else/_53/cond/cond/cond/else/_93/cond/cond/cond/cond/else/_133/cond/cond/cond/cond/cond/output/_182"], "attr": {"value": {"tensor": {"dtype": "DT_INT32", "tensorShape": {}}}, "dtype": {"type": "DT_INT32"}}}, {"name": "ConstantFolding/PartitionedCall/PartitionedCall_1/cond/else/_13/cond/cond/else/_53/cond/cond/cond/else/_93/cond/cond/cond/cond/else/_133/cond/cond/cond/cond/cond/output/_183_const", "op": "Const", "input": ["^PartitionedCall/PartitionedCall_1/cond/else/_13/cond/cond/else/_53/cond/cond/cond/else/_93/cond/cond/cond/cond/else/_133/cond/cond/cond/cond/cond/output/_183"], "attr": {"value": {"tensor": {"dtype": "DT_INT32", "tensorShape": {}}}, "dtype": {"type": "DT_INT32"}}}, {"name": "ConstantFolding/PartitionedCall/PartitionedCall_1/cond/else/_13/cond/cond/else/_53/cond/cond/cond/else/_93/cond/cond/cond/cond/else/_133/cond/cond/cond/cond/cond/output/_184_const", "op": "Const", "input": ["^PartitionedCall/PartitionedCall_1/cond/else/_13/cond/cond/else/_53/cond/cond/cond/else/_93/cond/cond/cond/cond/else/_133/cond/cond/cond/cond/cond/output/_184"], "attr": {"value": {"tensor": {"dtype": "DT_INT32", "tensorShape": {}}}, "dtype": {"type": "DT_INT32"}}}, {"name": "ConstantFolding/PartitionedCall/PartitionedCall_1/cond/else/_13/cond/cond/else/_53/cond/cond/cond/else/_93/cond/cond/cond/cond/else/_133/cond/cond/cond/cond/cond/output/_185_const", "op": "Const", "input": ["^PartitionedCall/PartitionedCall_1/cond/else/_13/cond/cond/else/_53/cond/cond/cond/else/_93/cond/cond/cond/cond/else/_133/cond/cond/cond/cond/cond/output/_185"], "attr": {"value": {"tensor": {"dtype": "DT_INT32", "tensorShape": {}}}, "dtype": {"type": "DT_INT32"}}}, {"name": "PartitionedCall/truediv_6", "op": "Mul", "input": ["PartitionedCall/sub_1", "Const_4"], "attr": {"T": {"type": "DT_FLOAT"}}}, {"name": "PartitionedCall/strided_slice", "op": "StridedSlice", "input": ["PartitionedCall/Shape", "Const_192", "Const_193", "Const_194"], "attr": {"new_axis_mask": {"i": "0"}, "T": {"type": "DT_INT32"}, "end_mask": {"i": "0"}, "Index": {"type": "DT_INT32"}, "begin_mask": {"i": "0"}, "ellipsis_mask": {"i": "0"}, "shrink_axis_mask": {"i": "0"}}}, {"name": "PartitionedCall/PartitionedCall_1/Equal", "op": "Equal", "input": ["PartitionedCall/PartitionedCall_1/Cast", "Const_7"], "attr": {"incompatible_shape_error": {"b": false}, "T": {"type": "DT_INT32"}}}, {"name": "PartitionedCall/PartitionedCall_1/cond/else/_13/cond/cond/else/_53/cond/cond/cond/else/_93/cond/cond/cond/cond/output/_138", "op": "Merge", "input": ["Const_239", "ConstantFolding/PartitionedCall/PartitionedCall_1/cond/else/_13/cond/cond/else/_53/cond/cond/cond/else/_93/cond/cond/cond/cond/else/_133/cond/cond/cond/cond/cond/output/_177_const"], "attr": {"T": {"type": "DT_FLOAT"}, "N": {"i": "2"}}}, {"name": "PartitionedCall/PartitionedCall_1/cond/else/_13/cond/cond/else/_53/cond/cond/cond/else/_93/cond/cond/cond/cond/output/_139", "op": "Merge", "input": ["Const_231", "ConstantFolding/PartitionedCall/PartitionedCall_1/cond/else/_13/cond/cond/else/_53/cond/cond/cond/else/_93/cond/cond/cond/cond/else/_133/cond/cond/cond/cond/cond/output/_178_const"], "attr": {"T": {"type": "DT_INT32"}, "N": {"i": "2"}}}, {"name": "PartitionedCall/PartitionedCall_1/cond/else/_13/cond/cond/else/_53/cond/cond/cond/else/_93/cond/cond/cond/cond/output/_140", "op": "Merge", "input": ["Const_232", "ConstantFolding/PartitionedCall/PartitionedCall_1/cond/else/_13/cond/cond/else/_53/cond/cond/cond/else/_93/cond/cond/cond/cond/else/_133/cond/cond/cond/cond/cond/output/_179_const"], "attr": {"T": {"type": "DT_INT32"}, "N": {"i": "2"}}}, {"name": "PartitionedCall/PartitionedCall_1/cond/else/_13/cond/cond/else/_53/cond/cond/cond/else/_93/cond/cond/cond/cond/output/_141", "op": "Merge", "input": ["Const_233", "ConstantFolding/PartitionedCall/PartitionedCall_1/cond/else/_13/cond/cond/else/_53/cond/cond/cond/else/_93/cond/cond/cond/cond/else/_133/cond/cond/cond/cond/cond/output/_180_const"], "attr": {"N": {"i": "2"}, "T": {"type": "DT_INT32"}}}, {"name": "PartitionedCall/PartitionedCall_1/cond/else/_13/cond/cond/else/_53/cond/cond/cond/else/_93/cond/cond/cond/cond/output/_142", "op": "Merge", "input": ["Const_234", "ConstantFolding/PartitionedCall/PartitionedCall_1/cond/else/_13/cond/cond/else/_53/cond/cond/cond/else/_93/cond/cond/cond/cond/else/_133/cond/cond/cond/cond/cond/output/_181_const"], "attr": {"N": {"i": "2"}, "T": {"type": "DT_INT32"}}}, {"name": "PartitionedCall/PartitionedCall_1/cond/else/_13/cond/cond/else/_53/cond/cond/cond/else/_93/cond/cond/cond/cond/output/_143", "op": "Merge", "input": ["Const_235", "ConstantFolding/PartitionedCall/PartitionedCall_1/cond/else/_13/cond/cond/else/_53/cond/cond/cond/else/_93/cond/cond/cond/cond/else/_133/cond/cond/cond/cond/cond/output/_182_const"], "attr": {"T": {"type": "DT_INT32"}, "N": {"i": "2"}}}, {"name": "PartitionedCall/PartitionedCall_1/cond/else/_13/cond/cond/else/_53/cond/cond/cond/else/_93/cond/cond/cond/cond/output/_144", "op": "Merge", "input": ["Const_236", "ConstantFolding/PartitionedCall/PartitionedCall_1/cond/else/_13/cond/cond/else/_53/cond/cond/cond/else/_93/cond/cond/cond/cond/else/_133/cond/cond/cond/cond/cond/output/_183_const"], "attr": {"T": {"type": "DT_INT32"}, "N": {"i": "2"}}}, {"name": "PartitionedCall/PartitionedCall_1/cond/else/_13/cond/cond/else/_53/cond/cond/cond/else/_93/cond/cond/cond/cond/output/_145", "op": "Merge", "input": ["Const_237", "ConstantFolding/PartitionedCall/PartitionedCall_1/cond/else/_13/cond/cond/else/_53/cond/cond/cond/else/_93/cond/cond/cond/cond/else/_133/cond/cond/cond/cond/cond/output/_184_const"], "attr": {"T": {"type": "DT_INT32"}, "N": {"i": "2"}}}, {"name": "PartitionedCall/PartitionedCall_1/cond/else/_13/cond/cond/else/_53/cond/cond/cond/else/_93/cond/cond/cond/cond/output/_146", "op": "Merge", "input": ["Const_238", "ConstantFolding/PartitionedCall/PartitionedCall_1/cond/else/_13/cond/cond/else/_53/cond/cond/cond/else/_93/cond/cond/cond/cond/else/_133/cond/cond/cond/cond/cond/output/_185_const"], "attr": {"N": {"i": "2"}, "T": {"type": "DT_INT32"}}}, {"name": "PartitionedCall/PartitionedCall_1/Mean", "op": "Mean", "input": ["PartitionedCall/truediv_6", "Const_5"], "attr": {"Tidx": {"type": "DT_INT32"}, "keep_dims": {"b": true}, "T": {"type": "DT_FLOAT"}}}, {"name": "PartitionedCall/unstack", "op": "Unpack", "input": ["PartitionedCall/strided_slice"], "attr": {"axis": {"i": "0"}, "num": {"i": "2"}, "T": {"type": "DT_INT32"}}}, {"name": "PartitionedCall/truediv_10/Cast", "op": "Cast", "input": ["PartitionedCall/strided_slice"], "attr": {"SrcT": {"type": "DT_INT32"}, "DstT": {"type": "DT_DOUBLE"}, "Truncate": {"b": false}}}, {"name": "PartitionedCall/PartitionedCall_1/cond/switch_pred/_14", "op": "Switch", "input": ["PartitionedCall/PartitionedCall_1/Equal", "PartitionedCall/PartitionedCall_1/Equal"], "attr": {"T": {"type": "DT_BOOL"}}}, {"name": "PartitionedCall/PartitionedCall_1/cond/PartitionedCall/PartitionedCall_1/Cast/_17", "op": "Switch", "input": ["PartitionedCall/PartitionedCall_1/Cast", "PartitionedCall/PartitionedCall_1/Equal"], "attr": {"T": {"type": "DT_INT32"}}}, {"name": "ConstantFolding/PartitionedCall/PartitionedCall_1/cond/else/_13/cond/cond/else/_53/cond/cond/cond/else/_93/cond/cond/cond/cond/output/_138_const", "op": "Const", "input": ["^PartitionedCall/PartitionedCall_1/cond/else/_13/cond/cond/else/_53/cond/cond/cond/else/_93/cond/cond/cond/cond/output/_138"], "attr": {"value": {"tensor": {"dtype": "DT_FLOAT", "tensorShape": {"dim": [{"size": "9"}, {"size": "9"}, {"size": "1"}, {"size": "1"}]}}}, "dtype": {"type": "DT_FLOAT"}}}, {"name": "ConstantFolding/PartitionedCall/PartitionedCall_1/cond/else/_13/cond/cond/else/_53/cond/cond/cond/else/_93/cond/cond/cond/cond/output/_139_const", "op": "Const", "input": ["^PartitionedCall/PartitionedCall_1/cond/else/_13/cond/cond/else/_53/cond/cond/cond/else/_93/cond/cond/cond/cond/output/_139"], "attr": {"dtype": {"type": "DT_INT32"}, "value": {"tensor": {"dtype": "DT_INT32", "tensorShape": {}}}}}, {"name": "ConstantFolding/PartitionedCall/PartitionedCall_1/cond/else/_13/cond/cond/else/_53/cond/cond/cond/else/_93/cond/cond/cond/cond/output/_140_const", "op": "Const", "input": ["^PartitionedCall/PartitionedCall_1/cond/else/_13/cond/cond/else/_53/cond/cond/cond/else/_93/cond/cond/cond/cond/output/_140"], "attr": {"value": {"tensor": {"dtype": "DT_INT32", "tensorShape": {}}}, "dtype": {"type": "DT_INT32"}}}, {"name": "ConstantFolding/PartitionedCall/PartitionedCall_1/cond/else/_13/cond/cond/else/_53/cond/cond/cond/else/_93/cond/cond/cond/cond/output/_141_const", "op": "Const", "input": ["^PartitionedCall/PartitionedCall_1/cond/else/_13/cond/cond/else/_53/cond/cond/cond/else/_93/cond/cond/cond/cond/output/_141"], "attr": {"dtype": {"type": "DT_INT32"}, "value": {"tensor": {"dtype": "DT_INT32", "tensorShape": {}}}}}, {"name": "ConstantFolding/PartitionedCall/PartitionedCall_1/cond/else/_13/cond/cond/else/_53/cond/cond/cond/else/_93/cond/cond/cond/cond/output/_142_const", "op": "Const", "input": ["^PartitionedCall/PartitionedCall_1/cond/else/_13/cond/cond/else/_53/cond/cond/cond/else/_93/cond/cond/cond/cond/output/_142"], "attr": {"value": {"tensor": {"dtype": "DT_INT32", "tensorShape": {}}}, "dtype": {"type": "DT_INT32"}}}, {"name": "ConstantFolding/PartitionedCall/PartitionedCall_1/cond/else/_13/cond/cond/else/_53/cond/cond/cond/else/_93/cond/cond/cond/cond/output/_143_const", "op": "Const", "input": ["^PartitionedCall/PartitionedCall_1/cond/else/_13/cond/cond/else/_53/cond/cond/cond/else/_93/cond/cond/cond/cond/output/_143"], "attr": {"dtype": {"type": "DT_INT32"}, "value": {"tensor": {"dtype": "DT_INT32", "tensorShape": {}}}}}, {"name": "ConstantFolding/PartitionedCall/PartitionedCall_1/cond/else/_13/cond/cond/else/_53/cond/cond/cond/else/_93/cond/cond/cond/cond/output/_144_const", "op": "Const", "input": ["^PartitionedCall/PartitionedCall_1/cond/else/_13/cond/cond/else/_53/cond/cond/cond/else/_93/cond/cond/cond/cond/output/_144"], "attr": {"dtype": {"type": "DT_INT32"}, "value": {"tensor": {"dtype": "DT_INT32", "tensorShape": {}}}}}, {"name": "ConstantFolding/PartitionedCall/PartitionedCall_1/cond/else/_13/cond/cond/else/_53/cond/cond/cond/else/_93/cond/cond/cond/cond/output/_145_const", "op": "Const", "input": ["^PartitionedCall/PartitionedCall_1/cond/else/_13/cond/cond/else/_53/cond/cond/cond/else/_93/cond/cond/cond/cond/output/_145"], "attr": {"dtype": {"type": "DT_INT32"}, "value": {"tensor": {"dtype": "DT_INT32", "tensorShape": {}}}}}, {"name": "ConstantFolding/PartitionedCall/PartitionedCall_1/cond/else/_13/cond/cond/else/_53/cond/cond/cond/else/_93/cond/cond/cond/cond/output/_146_const", "op": "Const", "input": ["^PartitionedCall/PartitionedCall_1/cond/else/_13/cond/cond/else/_53/cond/cond/cond/else/_93/cond/cond/cond/cond/output/_146"], "attr": {"value": {"tensor": {"dtype": "DT_INT32", "tensorShape": {}}}, "dtype": {"type": "DT_INT32"}}}, {"name": "PartitionedCall/Cast_4", "op": "Cast", "input": ["PartitionedCall/unstack"], "attr": {"DstT": {"type": "DT_FLOAT"}, "Truncate": {"b": false}, "SrcT": {"type": "DT_INT32"}}}, {"name": "PartitionedCall/Cast_1", "op": "Cast", "input": ["PartitionedCall/unstack"], "attr": {"DstT": {"type": "DT_FLOAT"}, "Truncate": {"b": false}, "SrcT": {"type": "DT_INT32"}}}, {"name": "PartitionedCall/Cast_3", "op": "Cast", "input": ["PartitionedCall/unstack:1"], "attr": {"Truncate": {"b": false}, "SrcT": {"type": "DT_INT32"}, "DstT": {"type": "DT_FLOAT"}}}, {"name": "PartitionedCall/Cast_6", "op": "Cast", "input": ["PartitionedCall/unstack:1"], "attr": {"Truncate": {"b": false}, "SrcT": {"type": "DT_INT32"}, "DstT": {"type": "DT_FLOAT"}}}, {"name": "PartitionedCall/truediv_10", "op": "Mul", "input": ["PartitionedCall/truediv_10/Cast", "Cast_1"], "attr": {"T": {"type": "DT_DOUBLE"}}}, {"name": "PartitionedCall/PartitionedCall_1/cond/pivot_f/_15", "op": "Identity", "input": ["PartitionedCall/PartitionedCall_1/cond/switch_pred/_14"], "attr": {"T": {"type": "DT_BOOL"}}}, {"name": "PartitionedCall/PartitionedCall_1/cond/pivot_t/_16", "op": "Identity", "input": ["PartitionedCall/PartitionedCall_1/cond/switch_pred/_14:1"], "attr": {"T": {"type": "DT_BOOL"}}}, {"name": "PartitionedCall/PartitionedCall_1/cond/else/_13/cond/Equal", "op": "Equal", "input": ["PartitionedCall/PartitionedCall_1/cond/PartitionedCall/PartitionedCall_1/Cast/_17", "Const_200"], "attr": {"incompatible_shape_error": {"b": false}, "T": {"type": "DT_INT32"}}}, {"name": "PartitionedCall/PartitionedCall_1/cond/else/_13/cond/cond/else/_53/cond/cond/cond/output/_98", "op": "Merge", "input": ["Const_229", "ConstantFolding/PartitionedCall/PartitionedCall_1/cond/else/_13/cond/cond/else/_53/cond/cond/cond/else/_93/cond/cond/cond/cond/output/_138_const"], "attr": {"T": {"type": "DT_FLOAT"}, "N": {"i": "2"}}}, {"name": "PartitionedCall/PartitionedCall_1/cond/else/_13/cond/cond/else/_53/cond/cond/cond/output/_99", "op": "Merge", "input": ["Const_221", "ConstantFolding/PartitionedCall/PartitionedCall_1/cond/else/_13/cond/cond/else/_53/cond/cond/cond/else/_93/cond/cond/cond/cond/output/_139_const"], "attr": {"N": {"i": "2"}, "T": {"type": "DT_INT32"}}}, {"name": "PartitionedCall/PartitionedCall_1/cond/else/_13/cond/cond/else/_53/cond/cond/cond/output/_100", "op": "Merge", "input": ["Const_222", "ConstantFolding/PartitionedCall/PartitionedCall_1/cond/else/_13/cond/cond/else/_53/cond/cond/cond/else/_93/cond/cond/cond/cond/output/_140_const"], "attr": {"N": {"i": "2"}, "T": {"type": "DT_INT32"}}}, {"name": "PartitionedCall/PartitionedCall_1/cond/else/_13/cond/cond/else/_53/cond/cond/cond/output/_101", "op": "Merge", "input": ["Const_223", "ConstantFolding/PartitionedCall/PartitionedCall_1/cond/else/_13/cond/cond/else/_53/cond/cond/cond/else/_93/cond/cond/cond/cond/output/_141_const"], "attr": {"T": {"type": "DT_INT32"}, "N": {"i": "2"}}}, {"name": "PartitionedCall/PartitionedCall_1/cond/else/_13/cond/cond/else/_53/cond/cond/cond/output/_102", "op": "Merge", "input": ["Const_224", "ConstantFolding/PartitionedCall/PartitionedCall_1/cond/else/_13/cond/cond/else/_53/cond/cond/cond/else/_93/cond/cond/cond/cond/output/_142_const"], "attr": {"N": {"i": "2"}, "T": {"type": "DT_INT32"}}}, {"name": "PartitionedCall/PartitionedCall_1/cond/else/_13/cond/cond/else/_53/cond/cond/cond/output/_103", "op": "Merge", "input": ["Const_225", "ConstantFolding/PartitionedCall/PartitionedCall_1/cond/else/_13/cond/cond/else/_53/cond/cond/cond/else/_93/cond/cond/cond/cond/output/_143_const"], "attr": {"T": {"type": "DT_INT32"}, "N": {"i": "2"}}}, {"name": "PartitionedCall/PartitionedCall_1/cond/else/_13/cond/cond/else/_53/cond/cond/cond/output/_104", "op": "Merge", "input": ["Const_226", "ConstantFolding/PartitionedCall/PartitionedCall_1/cond/else/_13/cond/cond/else/_53/cond/cond/cond/else/_93/cond/cond/cond/cond/output/_144_const"], "attr": {"N": {"i": "2"}, "T": {"type": "DT_INT32"}}}, {"name": "PartitionedCall/PartitionedCall_1/cond/else/_13/cond/cond/else/_53/cond/cond/cond/output/_105", "op": "Merge", "input": ["Const_227", "ConstantFolding/PartitionedCall/PartitionedCall_1/cond/else/_13/cond/cond/else/_53/cond/cond/cond/else/_93/cond/cond/cond/cond/output/_145_const"], "attr": {"T": {"type": "DT_INT32"}, "N": {"i": "2"}}}, {"name": "PartitionedCall/PartitionedCall_1/cond/else/_13/cond/cond/else/_53/cond/cond/cond/output/_106", "op": "Merge", "input": ["Const_228", "ConstantFolding/PartitionedCall/PartitionedCall_1/cond/else/_13/cond/cond/else/_53/cond/cond/cond/else/_93/cond/cond/cond/cond/output/_146_const"], "attr": {"T": {"type": "DT_INT32"}, "N": {"i": "2"}}}, {"name": "PartitionedCall/mul", "op": "Mul", "input": ["Const_68", "PartitionedCall/Cast_4"], "attr": {"_grappler_ArithmeticOptimizer_MinimizeBroadcasts": {"b": true}, "T": {"type": "DT_FLOAT"}}}, {"name": "PartitionedCall/truediv", "op": "RealDiv", "input": ["Const_70", "PartitionedCall/Cast_1"], "attr": {"T": {"type": "DT_FLOAT"}}}, {"name": "PartitionedCall/truediv_1", "op": "RealDiv", "input": ["Const_71", "PartitionedCall/Cast_3"], "attr": {"T": {"type": "DT_FLOAT"}}}, {"name": "PartitionedCall/mul_2", "op": "Mul", "input": ["Const_72", "PartitionedCall/Cast_6"], "attr": {"_grappler_ArithmeticOptimizer_MinimizeBroadcasts": {"b": true}, "T": {"type": "DT_FLOAT"}}}, {"name": "PartitionedCall/Cast_10", "op": "Cast", "input": ["PartitionedCall/truediv_10"], "attr": {"DstT": {"type": "DT_FLOAT"}, "Truncate": {"b": false}, "SrcT": {"type": "DT_DOUBLE"}}}, {"name": "PartitionedCall/PartitionedCall_1/cond/else/_13/cond/cond/switch_pred/_54", "op": "Switch", "input": ["PartitionedCall/PartitionedCall_1/cond/else/_13/cond/Equal", "PartitionedCall/PartitionedCall_1/cond/else/_13/cond/Equal"], "attr": {"T": {"type": "DT_BOOL"}}}, {"name": "PartitionedCall/PartitionedCall_1/cond/else/_13/cond/cond/Func/PartitionedCall/PartitionedCall_1/cond/else/_13/input/_41/_57", "op": "Switch", "input": ["PartitionedCall/PartitionedCall_1/cond/PartitionedCall/PartitionedCall_1/Cast/_17", "PartitionedCall/PartitionedCall_1/cond/else/_13/cond/Equal"], "attr": {"T": {"type": "DT_INT32"}}}, {"name": "ConstantFolding/PartitionedCall/PartitionedCall_1/cond/else/_13/cond/cond/else/_53/cond/cond/cond/output/_98_const", "op": "Const", "input": ["^PartitionedCall/PartitionedCall_1/cond/else/_13/cond/cond/else/_53/cond/cond/cond/output/_98"], "attr": {"dtype": {"type": "DT_FLOAT"}, "value": {"tensor": {"dtype": "DT_FLOAT", "tensorShape": {"dim": [{"size": "5"}, {"size": "5"}, {"size": "1"}, {"size": "1"}]}}}}}, {"name": "ConstantFolding/PartitionedCall/PartitionedCall_1/cond/else/_13/cond/cond/else/_53/cond/cond/cond/output/_99_const", "op": "Const", "input": ["^PartitionedCall/PartitionedCall_1/cond/else/_13/cond/cond/else/_53/cond/cond/cond/output/_99"], "attr": {"dtype": {"type": "DT_INT32"}, "value": {"tensor": {"dtype": "DT_INT32", "tensorShape": {}}}}}, {"name": "ConstantFolding/PartitionedCall/PartitionedCall_1/cond/else/_13/cond/cond/else/_53/cond/cond/cond/output/_100_const", "op": "Const", "input": ["^PartitionedCall/PartitionedCall_1/cond/else/_13/cond/cond/else/_53/cond/cond/cond/output/_100"], "attr": {"dtype": {"type": "DT_INT32"}, "value": {"tensor": {"dtype": "DT_INT32", "tensorShape": {}}}}}, {"name": "ConstantFolding/PartitionedCall/PartitionedCall_1/cond/else/_13/cond/cond/else/_53/cond/cond/cond/output/_101_const", "op": "Const", "input": ["^PartitionedCall/PartitionedCall_1/cond/else/_13/cond/cond/else/_53/cond/cond/cond/output/_101"], "attr": {"dtype": {"type": "DT_INT32"}, "value": {"tensor": {"dtype": "DT_INT32", "tensorShape": {}}}}}, {"name": "ConstantFolding/PartitionedCall/PartitionedCall_1/cond/else/_13/cond/cond/else/_53/cond/cond/cond/output/_102_const", "op": "Const", "input": ["^PartitionedCall/PartitionedCall_1/cond/else/_13/cond/cond/else/_53/cond/cond/cond/output/_102"], "attr": {"value": {"tensor": {"dtype": "DT_INT32", "tensorShape": {}}}, "dtype": {"type": "DT_INT32"}}}, {"name": "ConstantFolding/PartitionedCall/PartitionedCall_1/cond/else/_13/cond/cond/else/_53/cond/cond/cond/output/_103_const", "op": "Const", "input": ["^PartitionedCall/PartitionedCall_1/cond/else/_13/cond/cond/else/_53/cond/cond/cond/output/_103"], "attr": {"dtype": {"type": "DT_INT32"}, "value": {"tensor": {"dtype": "DT_INT32", "tensorShape": {}}}}}, {"name": "ConstantFolding/PartitionedCall/PartitionedCall_1/cond/else/_13/cond/cond/else/_53/cond/cond/cond/output/_104_const", "op": "Const", "input": ["^PartitionedCall/PartitionedCall_1/cond/else/_13/cond/cond/else/_53/cond/cond/cond/output/_104"], "attr": {"value": {"tensor": {"dtype": "DT_INT32", "tensorShape": {}}}, "dtype": {"type": "DT_INT32"}}}, {"name": "ConstantFolding/PartitionedCall/PartitionedCall_1/cond/else/_13/cond/cond/else/_53/cond/cond/cond/output/_105_const", "op": "Const", "input": ["^PartitionedCall/PartitionedCall_1/cond/else/_13/cond/cond/else/_53/cond/cond/cond/output/_105"], "attr": {"value": {"tensor": {"dtype": "DT_INT32", "tensorShape": {}}}, "dtype": {"type": "DT_INT32"}}}, {"name": "ConstantFolding/PartitionedCall/PartitionedCall_1/cond/else/_13/cond/cond/else/_53/cond/cond/cond/output/_106_const", "op": "Const", "input": ["^PartitionedCall/PartitionedCall_1/cond/else/_13/cond/cond/else/_53/cond/cond/cond/output/_106"], "attr": {"dtype": {"type": "DT_INT32"}, "value": {"tensor": {"dtype": "DT_INT32", "tensorShape": {}}}}}, {"name": "PartitionedCall/Maximum", "op": "Maximum", "input": ["PartitionedCall/truediv", "PartitionedCall/truediv_1"], "attr": {"T": {"type": "DT_FLOAT"}}}, {"name": "PartitionedCall/strided_slice_2", "op": "StridedSlice", "input": ["PartitionedCall/Cast_10", "Const_63", "Const_64", "Const_65"], "attr": {"new_axis_mask": {"i": "0"}, "T": {"type": "DT_FLOAT"}, "shrink_axis_mask": {"i": "1"}, "ellipsis_mask": {"i": "0"}, "begin_mask": {"i": "0"}, "end_mask": {"i": "0"}, "Index": {"type": "DT_INT32"}}}, {"name": "PartitionedCall/strided_slice_3", "op": "StridedSlice", "input": ["PartitionedCall/Cast_10", "Const_196", "Const_197", "Const_198"], "attr": {"Index": {"type": "DT_INT32"}, "end_mask": {"i": "0"}, "new_axis_mask": {"i": "0"}, "T": {"type": "DT_FLOAT"}, "ellipsis_mask": {"i": "0"}, "shrink_axis_mask": {"i": "1"}, "begin_mask": {"i": "0"}}}, {"name": "PartitionedCall/PartitionedCall_1/cond/else/_13/cond/cond/pivot_f/_55", "op": "Identity", "input": ["PartitionedCall/PartitionedCall_1/cond/else/_13/cond/cond/switch_pred/_54"], "attr": {"T": {"type": "DT_BOOL"}}}, {"name": "PartitionedCall/PartitionedCall_1/cond/else/_13/cond/cond/pivot_t/_56", "op": "Identity", "input": ["PartitionedCall/PartitionedCall_1/cond/else/_13/cond/cond/switch_pred/_54:1"], "attr": {"T": {"type": "DT_BOOL"}}}, {"name": "PartitionedCall/PartitionedCall_1/cond/else/_13/cond/cond/else/_53/cond/cond/Equal", "op": "Equal", "input": ["PartitionedCall/PartitionedCall_1/cond/else/_13/cond/cond/Func/PartitionedCall/PartitionedCall_1/cond/else/_13/input/_41/_57", "Const_210"], "attr": {"incompatible_shape_error": {"b": false}, "T": {"type": "DT_INT32"}}}, {"name": "PartitionedCall/PartitionedCall_1/cond/else/_13/cond/cond/output/_58", "op": "Merge", "input": ["Const_219", "ConstantFolding/PartitionedCall/PartitionedCall_1/cond/else/_13/cond/cond/else/_53/cond/cond/cond/output/_98_const"], "attr": {"T": {"type": "DT_FLOAT"}, "N": {"i": "2"}}}, {"name": "PartitionedCall/PartitionedCall_1/cond/else/_13/cond/cond/output/_59", "op": "Merge", "input": ["Const_211", "ConstantFolding/PartitionedCall/PartitionedCall_1/cond/else/_13/cond/cond/else/_53/cond/cond/cond/output/_99_const"], "attr": {"N": {"i": "2"}, "T": {"type": "DT_INT32"}}}, {"name": "PartitionedCall/PartitionedCall_1/cond/else/_13/cond/cond/output/_60", "op": "Merge", "input": ["Const_212", "ConstantFolding/PartitionedCall/PartitionedCall_1/cond/else/_13/cond/cond/else/_53/cond/cond/cond/output/_100_const"], "attr": {"N": {"i": "2"}, "T": {"type": "DT_INT32"}}}, {"name": "PartitionedCall/PartitionedCall_1/cond/else/_13/cond/cond/output/_61", "op": "Merge", "input": ["Const_213", "ConstantFolding/PartitionedCall/PartitionedCall_1/cond/else/_13/cond/cond/else/_53/cond/cond/cond/output/_101_const"], "attr": {"T": {"type": "DT_INT32"}, "N": {"i": "2"}}}, {"name": "PartitionedCall/PartitionedCall_1/cond/else/_13/cond/cond/output/_62", "op": "Merge", "input": ["Const_214", "ConstantFolding/PartitionedCall/PartitionedCall_1/cond/else/_13/cond/cond/else/_53/cond/cond/cond/output/_102_const"], "attr": {"T": {"type": "DT_INT32"}, "N": {"i": "2"}}}, {"name": "PartitionedCall/PartitionedCall_1/cond/else/_13/cond/cond/output/_63", "op": "Merge", "input": ["Const_215", "ConstantFolding/PartitionedCall/PartitionedCall_1/cond/else/_13/cond/cond/else/_53/cond/cond/cond/output/_103_const"], "attr": {"T": {"type": "DT_INT32"}, "N": {"i": "2"}}}, {"name": "PartitionedCall/PartitionedCall_1/cond/else/_13/cond/cond/output/_64", "op": "Merge", "input": ["Const_216", "ConstantFolding/PartitionedCall/PartitionedCall_1/cond/else/_13/cond/cond/else/_53/cond/cond/cond/output/_104_const"], "attr": {"T": {"type": "DT_INT32"}, "N": {"i": "2"}}}, {"name": "PartitionedCall/PartitionedCall_1/cond/else/_13/cond/cond/output/_65", "op": "Merge", "input": ["Const_217", "ConstantFolding/PartitionedCall/PartitionedCall_1/cond/else/_13/cond/cond/else/_53/cond/cond/cond/output/_105_const"], "attr": {"N": {"i": "2"}, "T": {"type": "DT_INT32"}}}, {"name": "PartitionedCall/PartitionedCall_1/cond/else/_13/cond/cond/output/_66", "op": "Merge", "input": ["Const_218", "ConstantFolding/PartitionedCall/PartitionedCall_1/cond/else/_13/cond/cond/else/_53/cond/cond/cond/output/_106_const"], "attr": {"T": {"type": "DT_INT32"}, "N": {"i": "2"}}}, {"name": "PartitionedCall/truediv_2", "op": "Mul", "input": ["PartitionedCall/Maximum", "PartitionedCall/mul"], "attr": {"T": {"type": "DT_FLOAT"}, "_grappler_ArithmeticOptimizer_MinimizeBroadcasts": {"b": true}}}, {"name": "PartitionedCall/truediv_3", "op": "Mul", "input": ["PartitionedCall/Maximum", "PartitionedCall/mul_2"], "attr": {"_grappler_ArithmeticOptimizer_MinimizeBroadcasts": {"b": true}, "T": {"type": "DT_FLOAT"}}}, {"name": "PartitionedCall/PartitionedCall_1/cond/else/_13/cond/cond/else/_53/cond/cond/cond/switch_pred/_94", "op": "Switch", "input": ["PartitionedCall/PartitionedCall_1/cond/else/_13/cond/cond/else/_53/cond/cond/Equal", "PartitionedCall/PartitionedCall_1/cond/else/_13/cond/cond/else/_53/cond/cond/Equal"], "attr": {"T": {"type": "DT_BOOL"}}}, {"name": "PartitionedCall/PartitionedCall_1/cond/else/_13/cond/cond/else/_53/cond/cond/cond/Func/PartitionedCall/PartitionedCall_1/cond/else/_13/cond/cond/else/_53/input/_81/_97", "op": "Switch", "input": ["PartitionedCall/PartitionedCall_1/cond/else/_13/cond/cond/Func/PartitionedCall/PartitionedCall_1/cond/else/_13/input/_41/_57", "PartitionedCall/PartitionedCall_1/cond/else/_13/cond/cond/else/_53/cond/cond/Equal"], "attr": {"T": {"type": "DT_INT32"}}}, {"name": "ConstantFolding/PartitionedCall/PartitionedCall_1/cond/else/_13/cond/cond/output/_58_const", "op": "Const", "input": ["^PartitionedCall/PartitionedCall_1/cond/else/_13/cond/cond/output/_58"], "attr": {"value": {"tensor": {"dtype": "DT_FLOAT", "tensorShape": {"dim": [{"size": "3"}, {"size": "3"}, {"size": "1"}, {"size": "1"}]}}}, "dtype": {"type": "DT_FLOAT"}}}, {"name": "ConstantFolding/PartitionedCall/PartitionedCall_1/cond/else/_13/cond/cond/output/_59_const", "op": "Const", "input": ["^PartitionedCall/PartitionedCall_1/cond/else/_13/cond/cond/output/_59"], "attr": {"value": {"tensor": {"dtype": "DT_INT32", "tensorShape": {}}}, "dtype": {"type": "DT_INT32"}}}, {"name": "ConstantFolding/PartitionedCall/PartitionedCall_1/cond/else/_13/cond/cond/output/_60_const", "op": "Const", "input": ["^PartitionedCall/PartitionedCall_1/cond/else/_13/cond/cond/output/_60"], "attr": {"dtype": {"type": "DT_INT32"}, "value": {"tensor": {"dtype": "DT_INT32", "tensorShape": {}}}}}, {"name": "ConstantFolding/PartitionedCall/PartitionedCall_1/cond/else/_13/cond/cond/output/_61_const", "op": "Const", "input": ["^PartitionedCall/PartitionedCall_1/cond/else/_13/cond/cond/output/_61"], "attr": {"value": {"tensor": {"dtype": "DT_INT32", "tensorShape": {}}}, "dtype": {"type": "DT_INT32"}}}, {"name": "ConstantFolding/PartitionedCall/PartitionedCall_1/cond/else/_13/cond/cond/output/_62_const", "op": "Const", "input": ["^PartitionedCall/PartitionedCall_1/cond/else/_13/cond/cond/output/_62"], "attr": {"value": {"tensor": {"dtype": "DT_INT32", "tensorShape": {}}}, "dtype": {"type": "DT_INT32"}}}, {"name": "ConstantFolding/PartitionedCall/PartitionedCall_1/cond/else/_13/cond/cond/output/_63_const", "op": "Const", "input": ["^PartitionedCall/PartitionedCall_1/cond/else/_13/cond/cond/output/_63"], "attr": {"value": {"tensor": {"dtype": "DT_INT32", "tensorShape": {}}}, "dtype": {"type": "DT_INT32"}}}, {"name": "ConstantFolding/PartitionedCall/PartitionedCall_1/cond/else/_13/cond/cond/output/_64_const", "op": "Const", "input": ["^PartitionedCall/PartitionedCall_1/cond/else/_13/cond/cond/output/_64"], "attr": {"value": {"tensor": {"dtype": "DT_INT32", "tensorShape": {}}}, "dtype": {"type": "DT_INT32"}}}, {"name": "ConstantFolding/PartitionedCall/PartitionedCall_1/cond/else/_13/cond/cond/output/_65_const", "op": "Const", "input": ["^PartitionedCall/PartitionedCall_1/cond/else/_13/cond/cond/output/_65"], "attr": {"dtype": {"type": "DT_INT32"}, "value": {"tensor": {"dtype": "DT_INT32", "tensorShape": {}}}}}, {"name": "ConstantFolding/PartitionedCall/PartitionedCall_1/cond/else/_13/cond/cond/output/_66_const", "op": "Const", "input": ["^PartitionedCall/PartitionedCall_1/cond/else/_13/cond/cond/output/_66"], "attr": {"dtype": {"type": "DT_INT32"}, "value": {"tensor": {"dtype": "DT_INT32", "tensorShape": {}}}}}, {"name": "PartitionedCall/Round", "op": "Round", "input": ["PartitionedCall/truediv_2"], "attr": {"T": {"type": "DT_FLOAT"}}}, {"name": "PartitionedCall/Round_1", "op": "Round", "input": ["PartitionedCall/truediv_3"], "attr": {"T": {"type": "DT_FLOAT"}}}, {"name": "PartitionedCall/PartitionedCall_1/cond/else/_13/cond/cond/else/_53/cond/cond/cond/pivot_f/_95", "op": "Identity", "input": ["PartitionedCall/PartitionedCall_1/cond/else/_13/cond/cond/else/_53/cond/cond/cond/switch_pred/_94"], "attr": {"T": {"type": "DT_BOOL"}}}, {"name": "PartitionedCall/PartitionedCall_1/cond/else/_13/cond/cond/else/_53/cond/cond/cond/pivot_t/_96", "op": "Identity", "input": ["PartitionedCall/PartitionedCall_1/cond/else/_13/cond/cond/else/_53/cond/cond/cond/switch_pred/_94:1"], "attr": {"T": {"type": "DT_BOOL"}}}, {"name": "PartitionedCall/PartitionedCall_1/cond/else/_13/cond/cond/else/_53/cond/cond/cond/else/_93/cond/cond/cond/Equal", "op": "Equal", "input": ["PartitionedCall/PartitionedCall_1/cond/else/_13/cond/cond/else/_53/cond/cond/cond/Func/PartitionedCall/PartitionedCall_1/cond/else/_13/cond/cond/else/_53/input/_81/_97", "Const_220"], "attr": {"T": {"type": "DT_INT32"}, "incompatible_shape_error": {"b": false}}}, {"name": "PartitionedCall/PartitionedCall_1/cond/output/_18", "op": "Merge", "input": ["Const_209", "ConstantFolding/PartitionedCall/PartitionedCall_1/cond/else/_13/cond/cond/output/_58_const"], "attr": {"N": {"i": "2"}, "T": {"type": "DT_FLOAT"}}}, {"name": "PartitionedCall/PartitionedCall_1/cond/output/_19", "op": "Merge", "input": ["Const_201", "ConstantFolding/PartitionedCall/PartitionedCall_1/cond/else/_13/cond/cond/output/_59_const"], "attr": {"N": {"i": "2"}, "T": {"type": "DT_INT32"}}}, {"name": "PartitionedCall/PartitionedCall_1/cond/output/_20", "op": "Merge", "input": ["Const_202", "ConstantFolding/PartitionedCall/PartitionedCall_1/cond/else/_13/cond/cond/output/_60_const"], "attr": {"T": {"type": "DT_INT32"}, "N": {"i": "2"}}}, {"name": "PartitionedCall/PartitionedCall_1/cond/output/_21", "op": "Merge", "input": ["Const_203", "ConstantFolding/PartitionedCall/PartitionedCall_1/cond/else/_13/cond/cond/output/_61_const"], "attr": {"N": {"i": "2"}, "T": {"type": "DT_INT32"}}}, {"name": "PartitionedCall/PartitionedCall_1/cond/output/_22", "op": "Merge", "input": ["Const_204", "ConstantFolding/PartitionedCall/PartitionedCall_1/cond/else/_13/cond/cond/output/_62_const"], "attr": {"T": {"type": "DT_INT32"}, "N": {"i": "2"}}}, {"name": "PartitionedCall/PartitionedCall_1/cond/output/_23", "op": "Merge", "input": ["Const_205", "ConstantFolding/PartitionedCall/PartitionedCall_1/cond/else/_13/cond/cond/output/_63_const"], "attr": {"N": {"i": "2"}, "T": {"type": "DT_INT32"}}}, {"name": "PartitionedCall/PartitionedCall_1/cond/output/_24", "op": "Merge", "input": ["Const_206", "ConstantFolding/PartitionedCall/PartitionedCall_1/cond/else/_13/cond/cond/output/_64_const"], "attr": {"N": {"i": "2"}, "T": {"type": "DT_INT32"}}}, {"name": "PartitionedCall/PartitionedCall_1/cond/output/_25", "op": "Merge", "input": ["Const_207", "ConstantFolding/PartitionedCall/PartitionedCall_1/cond/else/_13/cond/cond/output/_65_const"], "attr": {"N": {"i": "2"}, "T": {"type": "DT_INT32"}}}, {"name": "PartitionedCall/PartitionedCall_1/cond/output/_26", "op": "Merge", "input": ["Const_208", "ConstantFolding/PartitionedCall/PartitionedCall_1/cond/else/_13/cond/cond/output/_66_const"], "attr": {"N": {"i": "2"}, "T": {"type": "DT_INT32"}}}, {"name": "PartitionedCall/mul_1", "op": "Mul", "input": ["PartitionedCall/Round", "Const_69"], "attr": {"T": {"type": "DT_FLOAT"}}}, {"name": "PartitionedCall/mul_3", "op": "Mul", "input": ["PartitionedCall/Round_1", "Const_73"], "attr": {"T": {"type": "DT_FLOAT"}}}, {"name": "PartitionedCall/PartitionedCall_1/cond/else/_13/cond/cond/else/_53/cond/cond/cond/else/_93/cond/cond/cond/cond/switch_pred/_134", "op": "Switch", "input": ["PartitionedCall/PartitionedCall_1/cond/else/_13/cond/cond/else/_53/cond/cond/cond/else/_93/cond/cond/cond/Equal", "PartitionedCall/PartitionedCall_1/cond/else/_13/cond/cond/else/_53/cond/cond/cond/else/_93/cond/cond/cond/Equal"], "attr": {"T": {"type": "DT_BOOL"}}}, {"name": "PartitionedCall/PartitionedCall_1/cond/else/_13/cond/cond/else/_53/cond/cond/cond/else/_93/cond/cond/cond/cond/Func/PartitionedCall/PartitionedCall_1/cond/else/_13/cond/cond/else/_53/cond/cond/cond/else/_93/input/_121/_137", "op": "Switch", "input": ["PartitionedCall/PartitionedCall_1/cond/else/_13/cond/cond/else/_53/cond/cond/cond/Func/PartitionedCall/PartitionedCall_1/cond/else/_13/cond/cond/else/_53/input/_81/_97", "PartitionedCall/PartitionedCall_1/cond/else/_13/cond/cond/else/_53/cond/cond/cond/else/_93/cond/cond/cond/Equal"], "attr": {"T": {"type": "DT_INT32"}}}, {"name": "ConstantFolding/PartitionedCall/PartitionedCall_1/cond/output/_18_const", "op": "Const", "input": ["^PartitionedCall/PartitionedCall_1/cond/output/_18"], "attr": {"value": {"tensor": {"dtype": "DT_FLOAT", "tensorShape": {"dim": [{"size": "1"}, {"size": "1"}, {"size": "1"}, {"size": "1"}]}}}, "dtype": {"type": "DT_FLOAT"}}}, {"name": "PartitionedCall/PartitionedCall_1/MirrorPad_4/paddings", "op": "Const", "input": ["^PartitionedCall/PartitionedCall_1/cond/output/_19", "^PartitionedCall/PartitionedCall_1/cond/output/_20", "^PartitionedCall/PartitionedCall_1/cond/output/_21", "^PartitionedCall/PartitionedCall_1/cond/output/_22", "^PartitionedCall/PartitionedCall_1/cond/output/_23", "^PartitionedCall/PartitionedCall_1/cond/output/_24", "^PartitionedCall/PartitionedCall_1/cond/output/_25", "^PartitionedCall/PartitionedCall_1/cond/output/_26"], "attr": {"value": {"tensor": {"dtype": "DT_INT32", "tensorShape": {"dim": [{"size": "4"}, {"size": "2"}]}}}, "dtype": {"type": "DT_INT32"}}}, {"name": "PartitionedCall/PartitionedCall_1/MirrorPad_3/paddings", "op": "Const", "input": ["^PartitionedCall/PartitionedCall_1/cond/output/_19", "^PartitionedCall/PartitionedCall_1/cond/output/_20", "^PartitionedCall/PartitionedCall_1/cond/output/_21", "^PartitionedCall/PartitionedCall_1/cond/output/_22", "^PartitionedCall/PartitionedCall_1/cond/output/_23", "^PartitionedCall/PartitionedCall_1/cond/output/_24", "^PartitionedCall/PartitionedCall_1/cond/output/_25", "^PartitionedCall/PartitionedCall_1/cond/output/_26"], "attr": {"dtype": {"type": "DT_INT32"}, "value": {"tensor": {"dtype": "DT_INT32", "tensorShape": {"dim": [{"size": "4"}, {"size": "2"}]}}}}}, {"name": "PartitionedCall/PartitionedCall_1/MirrorPad_1/paddings", "op": "Const", "input": ["^PartitionedCall/PartitionedCall_1/cond/output/_19", "^PartitionedCall/PartitionedCall_1/cond/output/_20", "^PartitionedCall/PartitionedCall_1/cond/output/_21", "^PartitionedCall/PartitionedCall_1/cond/output/_22", "^PartitionedCall/PartitionedCall_1/cond/output/_23", "^PartitionedCall/PartitionedCall_1/cond/output/_24", "^PartitionedCall/PartitionedCall_1/cond/output/_25", "^PartitionedCall/PartitionedCall_1/cond/output/_26"], "attr": {"dtype": {"type": "DT_INT32"}, "value": {"tensor": {"dtype": "DT_INT32", "tensorShape": {"dim": [{"size": "4"}, {"size": "2"}]}}}}}, {"name": "PartitionedCall/PartitionedCall_1/MirrorPad_2/paddings", "op": "Const", "input": ["^PartitionedCall/PartitionedCall_1/cond/output/_19", "^PartitionedCall/PartitionedCall_1/cond/output/_20", "^PartitionedCall/PartitionedCall_1/cond/output/_21", "^PartitionedCall/PartitionedCall_1/cond/output/_22", "^PartitionedCall/PartitionedCall_1/cond/output/_23", "^PartitionedCall/PartitionedCall_1/cond/output/_24", "^PartitionedCall/PartitionedCall_1/cond/output/_25", "^PartitionedCall/PartitionedCall_1/cond/output/_26"], "attr": {"dtype": {"type": "DT_INT32"}, "value": {"tensor": {"dtype": "DT_INT32", "tensorShape": {"dim": [{"size": "4"}, {"size": "2"}]}}}}}, {"name": "PartitionedCall/PartitionedCall_1/MirrorPad/paddings", "op": "Const", "input": ["^PartitionedCall/PartitionedCall_1/cond/output/_19", "^PartitionedCall/PartitionedCall_1/cond/output/_20", "^PartitionedCall/PartitionedCall_1/cond/output/_21", "^PartitionedCall/PartitionedCall_1/cond/output/_22", "^PartitionedCall/PartitionedCall_1/cond/output/_23", "^PartitionedCall/PartitionedCall_1/cond/output/_24", "^PartitionedCall/PartitionedCall_1/cond/output/_25", "^PartitionedCall/PartitionedCall_1/cond/output/_26"], "attr": {"dtype": {"type": "DT_INT32"}, "value": {"tensor": {"dtype": "DT_INT32", "tensorShape": {"dim": [{"size": "4"}, {"size": "2"}]}}}}}, {"name": "PartitionedCall/PartitionedCall_1/MirrorPad_5/paddings", "op": "Const", "input": ["^PartitionedCall/PartitionedCall_1/cond/output/_19", "^PartitionedCall/PartitionedCall_1/cond/output/_20", "^PartitionedCall/PartitionedCall_1/cond/output/_21", "^PartitionedCall/PartitionedCall_1/cond/output/_22", "^PartitionedCall/PartitionedCall_1/cond/output/_23", "^PartitionedCall/PartitionedCall_1/cond/output/_24", "^PartitionedCall/PartitionedCall_1/cond/output/_25", "^PartitionedCall/PartitionedCall_1/cond/output/_26"], "attr": {"value": {"tensor": {"dtype": "DT_INT32", "tensorShape": {"dim": [{"size": "4"}, {"size": "2"}]}}}, "dtype": {"type": "DT_INT32"}}}, {"name": "PartitionedCall/Cast_5", "op": "Cast", "input": ["PartitionedCall/mul_1"], "attr": {"DstT": {"type": "DT_INT32"}, "Truncate": {"b": false}, "SrcT": {"type": "DT_FLOAT"}}}, {"name": "PartitionedCall/Cast_7", "op": "Cast", "input": ["PartitionedCall/mul_3"], "attr": {"DstT": {"type": "DT_INT32"}, "Truncate": {"b": false}, "SrcT": {"type": "DT_FLOAT"}}}, {"name": "PartitionedCall/PartitionedCall_1/cond/else/_13/cond/cond/else/_53/cond/cond/cond/else/_93/cond/cond/cond/cond/pivot_f/_135", "op": "Identity", "input": ["PartitionedCall/PartitionedCall_1/cond/else/_13/cond/cond/else/_53/cond/cond/cond/else/_93/cond/cond/cond/cond/switch_pred/_134"], "attr": {"T": {"type": "DT_BOOL"}}}, {"name": "PartitionedCall/PartitionedCall_1/cond/else/_13/cond/cond/else/_53/cond/cond/cond/else/_93/cond/cond/cond/cond/pivot_t/_136", "op": "Identity", "input": ["PartitionedCall/PartitionedCall_1/cond/else/_13/cond/cond/else/_53/cond/cond/cond/else/_93/cond/cond/cond/cond/switch_pred/_134:1"], "attr": {"T": {"type": "DT_BOOL"}}}, {"name": "PartitionedCall/PartitionedCall_1/cond/else/_13/cond/cond/else/_53/cond/cond/cond/else/_93/cond/cond/cond/cond/else/_133/cond/cond/cond/cond/Equal", "op": "Equal", "input": ["PartitionedCall/PartitionedCall_1/cond/else/_13/cond/cond/else/_53/cond/cond/cond/else/_93/cond/cond/cond/cond/Func/PartitionedCall/PartitionedCall_1/cond/else/_13/cond/cond/else/_53/cond/cond/cond/else/_93/input/_121/_137", "Const_230"], "attr": {"incompatible_shape_error": {"b": false}, "T": {"type": "DT_INT32"}}}, {"name": "PartitionedCall/resize/size", "op": "Pack", "input": ["PartitionedCall/Cast_5", "PartitionedCall/Cast_7"], "attr": {"N": {"i": "2"}, "axis": {"i": "0"}, "T": {"type": "DT_INT32"}}}, {"name": "PartitionedCall/PartitionedCall_1/cond/else/_13/cond/cond/else/_53/cond/cond/cond/else/_93/cond/cond/cond/cond/else/_133/cond/cond/cond/cond/cond/switch_pred/_174", "op": "Switch", "input": ["PartitionedCall/PartitionedCall_1/cond/else/_13/cond/cond/else/_53/cond/cond/cond/else/_93/cond/cond/cond/cond/else/_133/cond/cond/cond/cond/Equal", "PartitionedCall/PartitionedCall_1/cond/else/_13/cond/cond/else/_53/cond/cond/cond/else/_93/cond/cond/cond/cond/else/_133/cond/cond/cond/cond/Equal"], "attr": {"T": {"type": "DT_BOOL"}}}, {"name": "PartitionedCall/resize/ResizeBilinear", "op": "ResizeBilinear", "input": ["inputs_0", "PartitionedCall/resize/size"], "attr": {"T": {"type": "DT_FLOAT"}, "align_corners": {"b": false}, "half_pixel_centers": {"b": true}}}, {"name": "PartitionedCall/PartitionedCall_1/cond/else/_13/cond/cond/else/_53/cond/cond/cond/else/_93/cond/cond/cond/cond/else/_133/cond/cond/cond/cond/cond/pivot_f/_175", "op": "Identity", "input": ["PartitionedCall/PartitionedCall_1/cond/else/_13/cond/cond/else/_53/cond/cond/cond/else/_93/cond/cond/cond/cond/else/_133/cond/cond/cond/cond/cond/switch_pred/_174"], "attr": {"T": {"type": "DT_BOOL"}}}, {"name": "PartitionedCall/PartitionedCall_1/cond/else/_13/cond/cond/else/_53/cond/cond/cond/else/_93/cond/cond/cond/cond/else/_133/cond/cond/cond/cond/cond/pivot_t/_176", "op": "Identity", "input": ["PartitionedCall/PartitionedCall_1/cond/else/_13/cond/cond/else/_53/cond/cond/cond/else/_93/cond/cond/cond/cond/else/_133/cond/cond/cond/cond/cond/switch_pred/_174:1"], "attr": {"T": {"type": "DT_BOOL"}}}, {"name": "PartitionedCall/truediv_4", "op": "Mul", "input": ["PartitionedCall/resize/ResizeBilinear", "Const_74"], "attr": {"T": {"type": "DT_FLOAT"}}}, {"name": "PartitionedCall/Sub", "op": "Sub", "input": ["PartitionedCall/truediv_4", "Const_75"], "attr": {"T": {"type": "DT_FLOAT"}}}, {"name": "PartitionedCall/truediv_5", "op": "Mul", "input": ["PartitionedCall/Sub", "Const_76"], "attr": {"T": {"type": "DT_FLOAT"}}}, {"name": "PartitionedCall/PartitionedCall/Pad", "op": "Pad", "input": ["PartitionedCall/truediv_5", "Const_77"], "attr": {"Tpaddings": {"type": "DT_INT32"}, "T": {"type": "DT_FLOAT"}}}, {"name": "PartitionedCall/PartitionedCall/Relu6", "op": "_FusedConv2D", "input": ["PartitionedCall/PartitionedCall/Pad", "Const_78", "Const_79"], "device": "/device:CPU:0", "attr": {"leakyrelu_alpha": {"f": 0.2}, "num_args": {"i": "1"}, "explicit_paddings": {"list": {}}, "T": {"type": "DT_FLOAT"}, "strides": {"list": {"i": ["1", "2", "2", "1"]}}, "data_format": {"s": "TkhXQw=="}, "fused_ops": {"list": {"s": ["Qmlhc0FkZA==", "UmVsdTY="]}}, "dilations": {"list": {"i": ["1", "1", "1", "1"]}}, "use_cudnn_on_gpu": {"b": true}, "padding": {"s": "VkFMSUQ="}, "epsilon": {"f": 0.0}}}, {"name": "PartitionedCall/PartitionedCall/Pad_1", "op": "Pad", "input": ["PartitionedCall/PartitionedCall/Relu6", "Const_80"], "attr": {"T": {"type": "DT_FLOAT"}, "Tpaddings": {"type": "DT_INT32"}}}, {"name": "PartitionedCall/PartitionedCall/depthwise/conv2d", "op": "FusedDepthwiseConv2dNative", "input": ["PartitionedCall/PartitionedCall/Pad_1", "Const_81", "Const_82"], "attr": {"padding": {"s": "VkFMSUQ="}, "num_args": {"i": "1"}, "T": {"type": "DT_FLOAT"}, "data_format": {"s": "TkhXQw=="}, "strides": {"list": {"i": ["1", "1", "1", "1"]}}, "dilations": {"list": {"i": ["1", "1", "1", "1"]}}, "fused_ops": {"list": {"s": ["Qmlhc0FkZA==", "UmVsdTY="]}}, "explicit_paddings": {"list": {}}}}, {"name": "PartitionedCall/PartitionedCall/BiasAdd_2", "op": "_FusedConv2D", "input": ["PartitionedCall/PartitionedCall/depthwise/conv2d", "Const_83", "Const_84"], "device": "/device:CPU:0", "attr": {"fused_ops": {"list": {"s": ["Qmlhc0FkZA=="]}}, "dilations": {"list": {"i": ["1", "1", "1", "1"]}}, "num_args": {"i": "1"}, "explicit_paddings": {"list": {}}, "epsilon": {"f": 0.0}, "use_cudnn_on_gpu": {"b": true}, "T": {"type": "DT_FLOAT"}, "strides": {"list": {"i": ["1", "1", "1", "1"]}}, "leakyrelu_alpha": {"f": 0.2}, "padding": {"s": "VkFMSUQ="}, "data_format": {"s": "TkhXQw=="}}}, {"name": "PartitionedCall/PartitionedCall/Conv2D_30", "op": "Conv2D", "input": ["PartitionedCall/PartitionedCall/BiasAdd_2", "Const_38"], "device": "/device:CPU:0", "attr": {"T": {"type": "DT_FLOAT"}, "use_cudnn_on_gpu": {"b": true}, "padding": {"s": "VkFMSUQ="}, "explicit_paddings": {"list": {}}, "strides": {"list": {"i": ["1", "1", "1", "1"]}}, "data_format": {"s": "TkhXQw=="}, "dilations": {"list": {"i": ["1", "1", "1", "1"]}}}}, {"name": "PartitionedCall/PartitionedCall/Relu6_2", "op": "_FusedConv2D", "input": ["PartitionedCall/PartitionedCall/BiasAdd_2", "Const_85", "Const_86"], "device": "/device:CPU:0", "attr": {"padding": {"s": "VkFMSUQ="}, "epsilon": {"f": 0.0}, "fused_ops": {"list": {"s": ["Qmlhc0FkZA==", "UmVsdTY="]}}, "dilations": {"list": {"i": ["1", "1", "1", "1"]}}, "T": {"type": "DT_FLOAT"}, "use_cudnn_on_gpu": {"b": true}, "explicit_paddings": {"list": {}}, "strides": {"list": {"i": ["1", "1", "1", "1"]}}, "data_format": {"s": "TkhXQw=="}, "leakyrelu_alpha": {"f": 0.2}, "num_args": {"i": "1"}}}, {"name": "PartitionedCall/PartitionedCall/Pad_2", "op": "Pad", "input": ["PartitionedCall/PartitionedCall/Relu6_2", "Const_87"], "attr": {"T": {"type": "DT_FLOAT"}, "Tpaddings": {"type": "DT_INT32"}}}, {"name": "PartitionedCall/PartitionedCall/depthwise_1/conv2d", "op": "FusedDepthwiseConv2dNative", "input": ["PartitionedCall/PartitionedCall/Pad_2", "Const_88", "Const_89"], "attr": {"T": {"type": "DT_FLOAT"}, "num_args": {"i": "1"}, "explicit_paddings": {"list": {}}, "data_format": {"s": "TkhXQw=="}, "dilations": {"list": {"i": ["1", "1", "1", "1"]}}, "padding": {"s": "VkFMSUQ="}, "fused_ops": {"list": {"s": ["Qmlhc0FkZA==", "UmVsdTY="]}}, "strides": {"list": {"i": ["1", "2", "2", "1"]}}}}, {"name": "PartitionedCall/PartitionedCall/BiasAdd_5", "op": "_FusedConv2D", "input": ["PartitionedCall/PartitionedCall/depthwise_1/conv2d", "Const_90", "Const_91"], "device": "/device:CPU:0", "attr": {"data_format": {"s": "TkhXQw=="}, "padding": {"s": "VkFMSUQ="}, "strides": {"list": {"i": ["1", "1", "1", "1"]}}, "T": {"type": "DT_FLOAT"}, "epsilon": {"f": 0.0}, "dilations": {"list": {"i": ["1", "1", "1", "1"]}}, "explicit_paddings": {"list": {}}, "use_cudnn_on_gpu": {"b": true}, "leakyrelu_alpha": {"f": 0.2}, "fused_ops": {"list": {"s": ["Qmlhc0FkZA=="]}}, "num_args": {"i": "1"}}}, {"name": "PartitionedCall/PartitionedCall/Relu6_4", "op": "_FusedConv2D", "input": ["PartitionedCall/PartitionedCall/BiasAdd_5", "Const_92", "Const_93"], "device": "/device:CPU:0", "attr": {"dilations": {"list": {"i": ["1", "1", "1", "1"]}}, "fused_ops": {"list": {"s": ["Qmlhc0FkZA==", "UmVsdTY="]}}, "explicit_paddings": {"list": {}}, "padding": {"s": "VkFMSUQ="}, "use_cudnn_on_gpu": {"b": true}, "T": {"type": "DT_FLOAT"}, "epsilon": {"f": 0.0}, "strides": {"list": {"i": ["1", "1", "1", "1"]}}, "leakyrelu_alpha": {"f": 0.2}, "num_args": {"i": "1"}, "data_format": {"s": "TkhXQw=="}}}, {"name": "PartitionedCall/PartitionedCall/Pad_3", "op": "Pad", "input": ["PartitionedCall/PartitionedCall/Relu6_4", "Const_94"], "attr": {"Tpaddings": {"type": "DT_INT32"}, "T": {"type": "DT_FLOAT"}}}, {"name": "PartitionedCall/PartitionedCall/depthwise_2/conv2d", "op": "FusedDepthwiseConv2dNative", "input": ["PartitionedCall/PartitionedCall/Pad_3", "Const_95", "Const_96"], "attr": {"padding": {"s": "VkFMSUQ="}, "fused_ops": {"list": {"s": ["Qmlhc0FkZA==", "UmVsdTY="]}}, "strides": {"list": {"i": ["1", "1", "1", "1"]}}, "num_args": {"i": "1"}, "T": {"type": "DT_FLOAT"}, "explicit_paddings": {"list": {}}, "data_format": {"s": "TkhXQw=="}, "dilations": {"list": {"i": ["1", "1", "1", "1"]}}}}, {"name": "PartitionedCall/PartitionedCall/BiasAdd_8", "op": "_FusedConv2D", "input": ["PartitionedCall/PartitionedCall/depthwise_2/conv2d", "Const_97", "Const_98"], "device": "/device:CPU:0", "attr": {"leakyrelu_alpha": {"f": 0.2}, "data_format": {"s": "TkhXQw=="}, "epsilon": {"f": 0.0}, "num_args": {"i": "1"}, "T": {"type": "DT_FLOAT"}, "strides": {"list": {"i": ["1", "1", "1", "1"]}}, "fused_ops": {"list": {"s": ["Qmlhc0FkZA=="]}}, "dilations": {"list": {"i": ["1", "1", "1", "1"]}}, "padding": {"s": "VkFMSUQ="}, "explicit_paddings": {"list": {}}, "use_cudnn_on_gpu": {"b": true}}}, {"name": "PartitionedCall/PartitionedCall/Add", "op": "AddV2", "input": ["PartitionedCall/PartitionedCall/BiasAdd_5", "PartitionedCall/PartitionedCall/BiasAdd_8"], "attr": {"T": {"type": "DT_FLOAT"}}}, {"name": "PartitionedCall/PartitionedCall/Conv2D_28", "op": "Conv2D", "input": ["PartitionedCall/PartitionedCall/Add", "Const_29"], "device": "/device:CPU:0", "attr": {"explicit_paddings": {"list": {}}, "use_cudnn_on_gpu": {"b": true}, "data_format": {"s": "TkhXQw=="}, "padding": {"s": "VkFMSUQ="}, "strides": {"list": {"i": ["1", "1", "1", "1"]}}, "T": {"type": "DT_FLOAT"}, "dilations": {"list": {"i": ["1", "1", "1", "1"]}}}}, {"name": "PartitionedCall/PartitionedCall/Relu6_6", "op": "_FusedConv2D", "input": ["PartitionedCall/PartitionedCall/Add", "Const_99", "Const_100"], "device": "/device:CPU:0", "attr": {"use_cudnn_on_gpu": {"b": true}, "T": {"type": "DT_FLOAT"}, "strides": {"list": {"i": ["1", "1", "1", "1"]}}, "epsilon": {"f": 0.0}, "leakyrelu_alpha": {"f": 0.2}, "num_args": {"i": "1"}, "explicit_paddings": {"list": {}}, "padding": {"s": "VkFMSUQ="}, "data_format": {"s": "TkhXQw=="}, "fused_ops": {"list": {"s": ["Qmlhc0FkZA==", "UmVsdTY="]}}, "dilations": {"list": {"i": ["1", "1", "1", "1"]}}}}, {"name": "PartitionedCall/PartitionedCall/Pad_4", "op": "Pad", "input": ["PartitionedCall/PartitionedCall/Relu6_6", "Const_101"], "attr": {"T": {"type": "DT_FLOAT"}, "Tpaddings": {"type": "DT_INT32"}}}, {"name": "PartitionedCall/PartitionedCall/depthwise_3/conv2d", "op": "FusedDepthwiseConv2dNative", "input": ["PartitionedCall/PartitionedCall/Pad_4", "Const_102", "Const_103"], "attr": {"T": {"type": "DT_FLOAT"}, "padding": {"s": "VkFMSUQ="}, "data_format": {"s": "TkhXQw=="}, "dilations": {"list": {"i": ["1", "1", "1", "1"]}}, "num_args": {"i": "1"}, "explicit_paddings": {"list": {}}, "strides": {"list": {"i": ["1", "2", "2", "1"]}}, "fused_ops": {"list": {"s": ["Qmlhc0FkZA==", "UmVsdTY="]}}}}, {"name": "PartitionedCall/PartitionedCall/BiasAdd_11", "op": "_FusedConv2D", "input": ["PartitionedCall/PartitionedCall/depthwise_3/conv2d", "Const_104", "Const_105"], "device": "/device:CPU:0", "attr": {"num_args": {"i": "1"}, "leakyrelu_alpha": {"f": 0.2}, "padding": {"s": "VkFMSUQ="}, "epsilon": {"f": 0.0}, "dilations": {"list": {"i": ["1", "1", "1", "1"]}}, "strides": {"list": {"i": ["1", "1", "1", "1"]}}, "T": {"type": "DT_FLOAT"}, "explicit_paddings": {"list": {}}, "use_cudnn_on_gpu": {"b": true}, "fused_ops": {"list": {"s": ["Qmlhc0FkZA=="]}}, "data_format": {"s": "TkhXQw=="}}}, {"name": "PartitionedCall/PartitionedCall/Relu6_8", "op": "_FusedConv2D", "input": ["PartitionedCall/PartitionedCall/BiasAdd_11", "Const_106", "Const_107"], "device": "/device:CPU:0", "attr": {"T": {"type": "DT_FLOAT"}, "use_cudnn_on_gpu": {"b": true}, "strides": {"list": {"i": ["1", "1", "1", "1"]}}, "leakyrelu_alpha": {"f": 0.2}, "padding": {"s": "VkFMSUQ="}, "data_format": {"s": "TkhXQw=="}, "epsilon": {"f": 0.0}, "num_args": {"i": "1"}, "fused_ops": {"list": {"s": ["Qmlhc0FkZA==", "UmVsdTY="]}}, "dilations": {"list": {"i": ["1", "1", "1", "1"]}}, "explicit_paddings": {"list": {}}}}, {"name": "PartitionedCall/PartitionedCall/Pad_5", "op": "Pad", "input": ["PartitionedCall/PartitionedCall/Relu6_8", "Const_108"], "attr": {"T": {"type": "DT_FLOAT"}, "Tpaddings": {"type": "DT_INT32"}}}, {"name": "PartitionedCall/PartitionedCall/depthwise_4/conv2d", "op": "FusedDepthwiseConv2dNative", "input": ["PartitionedCall/PartitionedCall/Pad_5", "Const_109", "Const_110"], "attr": {"padding": {"s": "VkFMSUQ="}, "num_args": {"i": "1"}, "strides": {"list": {"i": ["1", "1", "1", "1"]}}, "data_format": {"s": "TkhXQw=="}, "explicit_paddings": {"list": {}}, "T": {"type": "DT_FLOAT"}, "dilations": {"list": {"i": ["1", "1", "1", "1"]}}, "fused_ops": {"list": {"s": ["Qmlhc0FkZA==", "UmVsdTY="]}}}}, {"name": "PartitionedCall/PartitionedCall/BiasAdd_14", "op": "_FusedConv2D", "input": ["PartitionedCall/PartitionedCall/depthwise_4/conv2d", "Const_111", "Const_112"], "device": "/device:CPU:0", "attr": {"padding": {"s": "VkFMSUQ="}, "num_args": {"i": "1"}, "explicit_paddings": {"list": {}}, "strides": {"list": {"i": ["1", "1", "1", "1"]}}, "data_format": {"s": "TkhXQw=="}, "dilations": {"list": {"i": ["1", "1", "1", "1"]}}, "T": {"type": "DT_FLOAT"}, "fused_ops": {"list": {"s": ["Qmlhc0FkZA=="]}}, "use_cudnn_on_gpu": {"b": true}, "epsilon": {"f": 0.0}, "leakyrelu_alpha": {"f": 0.2}}}, {"name": "PartitionedCall/PartitionedCall/Add_1", "op": "AddV2", "input": ["PartitionedCall/PartitionedCall/BiasAdd_11", "PartitionedCall/PartitionedCall/BiasAdd_14"], "attr": {"T": {"type": "DT_FLOAT"}}}, {"name": "PartitionedCall/PartitionedCall/Relu6_10", "op": "_FusedConv2D", "input": ["PartitionedCall/PartitionedCall/Add_1", "Const_113", "Const_114"], "device": "/device:CPU:0", "attr": {"use_cudnn_on_gpu": {"b": true}, "padding": {"s": "VkFMSUQ="}, "epsilon": {"f": 0.0}, "leakyrelu_alpha": {"f": 0.2}, "num_args": {"i": "1"}, "explicit_paddings": {"list": {}}, "T": {"type": "DT_FLOAT"}, "strides": {"list": {"i": ["1", "1", "1", "1"]}}, "data_format": {"s": "TkhXQw=="}, "fused_ops": {"list": {"s": ["Qmlhc0FkZA==", "UmVsdTY="]}}, "dilations": {"list": {"i": ["1", "1", "1", "1"]}}}}, {"name": "PartitionedCall/PartitionedCall/Pad_6", "op": "Pad", "input": ["PartitionedCall/PartitionedCall/Relu6_10", "Const_115"], "attr": {"Tpaddings": {"type": "DT_INT32"}, "T": {"type": "DT_FLOAT"}}}, {"name": "PartitionedCall/PartitionedCall/depthwise_5/conv2d", "op": "FusedDepthwiseConv2dNative", "input": ["PartitionedCall/PartitionedCall/Pad_6", "Const_116", "Const_117"], "attr": {"dilations": {"list": {"i": ["1", "1", "1", "1"]}}, "fused_ops": {"list": {"s": ["Qmlhc0FkZA==", "UmVsdTY="]}}, "data_format": {"s": "TkhXQw=="}, "num_args": {"i": "1"}, "strides": {"list": {"i": ["1", "1", "1", "1"]}}, "explicit_paddings": {"list": {}}, "T": {"type": "DT_FLOAT"}, "padding": {"s": "VkFMSUQ="}}}, {"name": "PartitionedCall/PartitionedCall/BiasAdd_17", "op": "_FusedConv2D", "input": ["PartitionedCall/PartitionedCall/depthwise_5/conv2d", "Const_118", "Const_119"], "device": "/device:CPU:0", "attr": {"leakyrelu_alpha": {"f": 0.2}, "num_args": {"i": "1"}, "T": {"type": "DT_FLOAT"}, "data_format": {"s": "TkhXQw=="}, "strides": {"list": {"i": ["1", "1", "1", "1"]}}, "explicit_paddings": {"list": {}}, "fused_ops": {"list": {"s": ["Qmlhc0FkZA=="]}}, "dilations": {"list": {"i": ["1", "1", "1", "1"]}}, "epsilon": {"f": 0.0}, "use_cudnn_on_gpu": {"b": true}, "padding": {"s": "VkFMSUQ="}}}, {"name": "PartitionedCall/PartitionedCall/Add_2", "op": "AddV2", "input": ["PartitionedCall/PartitionedCall/Add_1", "PartitionedCall/PartitionedCall/BiasAdd_17"], "attr": {"T": {"type": "DT_FLOAT"}}}, {"name": "PartitionedCall/PartitionedCall/Conv2D_26", "op": "Conv2D", "input": ["PartitionedCall/PartitionedCall/Add_2", "Const_20"], "device": "/device:CPU:0", "attr": {"padding": {"s": "VkFMSUQ="}, "strides": {"list": {"i": ["1", "1", "1", "1"]}}, "use_cudnn_on_gpu": {"b": true}, "dilations": {"list": {"i": ["1", "1", "1", "1"]}}, "T": {"type": "DT_FLOAT"}, "data_format": {"s": "TkhXQw=="}, "explicit_paddings": {"list": {}}}}, {"name": "PartitionedCall/PartitionedCall/Relu6_12", "op": "_FusedConv2D", "input": ["PartitionedCall/PartitionedCall/Add_2", "Const_120", "Const_121"], "device": "/device:CPU:0", "attr": {"T": {"type": "DT_FLOAT"}, "strides": {"list": {"i": ["1", "1", "1", "1"]}}, "use_cudnn_on_gpu": {"b": true}, "leakyrelu_alpha": {"f": 0.2}, "padding": {"s": "VkFMSUQ="}, "fused_ops": {"list": {"s": ["Qmlhc0FkZA==", "UmVsdTY="]}}, "dilations": {"list": {"i": ["1", "1", "1", "1"]}}, "data_format": {"s": "TkhXQw=="}, "num_args": {"i": "1"}, "explicit_paddings": {"list": {}}, "epsilon": {"f": 0.0}}}, {"name": "PartitionedCall/PartitionedCall/Pad_7", "op": "Pad", "input": ["PartitionedCall/PartitionedCall/Relu6_12", "Const_122"], "attr": {"T": {"type": "DT_FLOAT"}, "Tpaddings": {"type": "DT_INT32"}}}, {"name": "PartitionedCall/PartitionedCall/depthwise_6/conv2d", "op": "FusedDepthwiseConv2dNative", "input": ["PartitionedCall/PartitionedCall/Pad_7", "Const_123", "Const_124"], "attr": {"dilations": {"list": {"i": ["1", "1", "1", "1"]}}, "strides": {"list": {"i": ["1", "2", "2", "1"]}}, "fused_ops": {"list": {"s": ["Qmlhc0FkZA==", "UmVsdTY="]}}, "explicit_paddings": {"list": {}}, "padding": {"s": "VkFMSUQ="}, "data_format": {"s": "TkhXQw=="}, "num_args": {"i": "1"}, "T": {"type": "DT_FLOAT"}}}, {"name": "PartitionedCall/PartitionedCall/BiasAdd_20", "op": "_FusedConv2D", "input": ["PartitionedCall/PartitionedCall/depthwise_6/conv2d", "Const_125", "Const_126"], "device": "/device:CPU:0", "attr": {"epsilon": {"f": 0.0}, "dilations": {"list": {"i": ["1", "1", "1", "1"]}}, "padding": {"s": "VkFMSUQ="}, "explicit_paddings": {"list": {}}, "use_cudnn_on_gpu": {"b": true}, "fused_ops": {"list": {"s": ["Qmlhc0FkZA=="]}}, "strides": {"list": {"i": ["1", "1", "1", "1"]}}, "data_format": {"s": "TkhXQw=="}, "T": {"type": "DT_FLOAT"}, "leakyrelu_alpha": {"f": 0.2}, "num_args": {"i": "1"}}}, {"name": "PartitionedCall/PartitionedCall/Relu6_14", "op": "_FusedConv2D", "input": ["PartitionedCall/PartitionedCall/BiasAdd_20", "Const_127", "Const_128"], "device": "/device:CPU:0", "attr": {"epsilon": {"f": 0.0}, "fused_ops": {"list": {"s": ["Qmlhc0FkZA==", "UmVsdTY="]}}, "dilations": {"list": {"i": ["1", "1", "1", "1"]}}, "explicit_paddings": {"list": {}}, "use_cudnn_on_gpu": {"b": true}, "padding": {"s": "VkFMSUQ="}, "leakyrelu_alpha": {"f": 0.2}, "num_args": {"i": "1"}, "T": {"type": "DT_FLOAT"}, "data_format": {"s": "TkhXQw=="}, "strides": {"list": {"i": ["1", "1", "1", "1"]}}}}, {"name": "PartitionedCall/PartitionedCall/Pad_8", "op": "Pad", "input": ["PartitionedCall/PartitionedCall/Relu6_14", "Const_129"], "attr": {"Tpaddings": {"type": "DT_INT32"}, "T": {"type": "DT_FLOAT"}}}, {"name": "PartitionedCall/PartitionedCall/depthwise_7/conv2d", "op": "FusedDepthwiseConv2dNative", "input": ["PartitionedCall/PartitionedCall/Pad_8", "Const_130", "Const_131"], "attr": {"fused_ops": {"list": {"s": ["Qmlhc0FkZA==", "UmVsdTY="]}}, "T": {"type": "DT_FLOAT"}, "padding": {"s": "VkFMSUQ="}, "data_format": {"s": "TkhXQw=="}, "num_args": {"i": "1"}, "dilations": {"list": {"i": ["1", "1", "1", "1"]}}, "explicit_paddings": {"list": {}}, "strides": {"list": {"i": ["1", "1", "1", "1"]}}}}, {"name": "PartitionedCall/PartitionedCall/BiasAdd_23", "op": "_FusedConv2D", "input": ["PartitionedCall/PartitionedCall/depthwise_7/conv2d", "Const_132", "Const_133"], "device": "/device:CPU:0", "attr": {"padding": {"s": "VkFMSUQ="}, "leakyrelu_alpha": {"f": 0.2}, "num_args": {"i": "1"}, "epsilon": {"f": 0.0}, "dilations": {"list": {"i": ["1", "1", "1", "1"]}}, "strides": {"list": {"i": ["1", "1", "1", "1"]}}, "T": {"type": "DT_FLOAT"}, "explicit_paddings": {"list": {}}, "use_cudnn_on_gpu": {"b": true}, "fused_ops": {"list": {"s": ["Qmlhc0FkZA=="]}}, "data_format": {"s": "TkhXQw=="}}}, {"name": "PartitionedCall/PartitionedCall/Add_3", "op": "AddV2", "input": ["PartitionedCall/PartitionedCall/BiasAdd_20", "PartitionedCall/PartitionedCall/BiasAdd_23"], "attr": {"T": {"type": "DT_FLOAT"}}}, {"name": "PartitionedCall/PartitionedCall/Relu6_16", "op": "_FusedConv2D", "input": ["PartitionedCall/PartitionedCall/Add_3", "Const_134", "Const_135"], "device": "/device:CPU:0", "attr": {"fused_ops": {"list": {"s": ["Qmlhc0FkZA==", "UmVsdTY="]}}, "strides": {"list": {"i": ["1", "1", "1", "1"]}}, "padding": {"s": "VkFMSUQ="}, "use_cudnn_on_gpu": {"b": true}, "explicit_paddings": {"list": {}}, "data_format": {"s": "TkhXQw=="}, "leakyrelu_alpha": {"f": 0.2}, "num_args": {"i": "1"}, "T": {"type": "DT_FLOAT"}, "epsilon": {"f": 0.0}, "dilations": {"list": {"i": ["1", "1", "1", "1"]}}}}, {"name": "PartitionedCall/PartitionedCall/Pad_9", "op": "Pad", "input": ["PartitionedCall/PartitionedCall/Relu6_16", "Const_136"], "attr": {"Tpaddings": {"type": "DT_INT32"}, "T": {"type": "DT_FLOAT"}}}, {"name": "PartitionedCall/PartitionedCall/depthwise_8/conv2d", "op": "FusedDepthwiseConv2dNative", "input": ["PartitionedCall/PartitionedCall/Pad_9", "Const_137", "Const_138"], "attr": {"data_format": {"s": "TkhXQw=="}, "padding": {"s": "VkFMSUQ="}, "dilations": {"list": {"i": ["1", "1", "1", "1"]}}, "T": {"type": "DT_FLOAT"}, "fused_ops": {"list": {"s": ["Qmlhc0FkZA==", "UmVsdTY="]}}, "explicit_paddings": {"list": {}}, "strides": {"list": {"i": ["1", "1", "1", "1"]}}, "num_args": {"i": "1"}}}, {"name": "PartitionedCall/PartitionedCall/BiasAdd_26", "op": "_FusedConv2D", "input": ["PartitionedCall/PartitionedCall/depthwise_8/conv2d", "Const_139", "Const_140"], "device": "/device:CPU:0", "attr": {"explicit_paddings": {"list": {}}, "use_cudnn_on_gpu": {"b": true}, "fused_ops": {"list": {"s": ["Qmlhc0FkZA=="]}}, "padding": {"s": "VkFMSUQ="}, "data_format": {"s": "TkhXQw=="}, "leakyrelu_alpha": {"f": 0.2}, "num_args": {"i": "1"}, "epsilon": {"f": 0.0}, "dilations": {"list": {"i": ["1", "1", "1", "1"]}}, "strides": {"list": {"i": ["1", "1", "1", "1"]}}, "T": {"type": "DT_FLOAT"}}}, {"name": "PartitionedCall/PartitionedCall/Add_4", "op": "AddV2", "input": ["PartitionedCall/PartitionedCall/Add_3", "PartitionedCall/PartitionedCall/BiasAdd_26"], "attr": {"T": {"type": "DT_FLOAT"}}}, {"name": "PartitionedCall/PartitionedCall/Relu6_18", "op": "_FusedConv2D", "input": ["PartitionedCall/PartitionedCall/Add_4", "Const_141", "Const_142"], "device": "/device:CPU:0", "attr": {"data_format": {"s": "TkhXQw=="}, "leakyrelu_alpha": {"f": 0.2}, "num_args": {"i": "1"}, "T": {"type": "DT_FLOAT"}, "fused_ops": {"list": {"s": ["Qmlhc0FkZA==", "UmVsdTY="]}}, "epsilon": {"f": 0.0}, "dilations": {"list": {"i": ["1", "1", "1", "1"]}}, "strides": {"list": {"i": ["1", "1", "1", "1"]}}, "explicit_paddings": {"list": {}}, "padding": {"s": "VkFMSUQ="}, "use_cudnn_on_gpu": {"b": true}}}, {"name": "PartitionedCall/PartitionedCall/Pad_10", "op": "Pad", "input": ["PartitionedCall/PartitionedCall/Relu6_18", "Const_143"], "attr": {"Tpaddings": {"type": "DT_INT32"}, "T": {"type": "DT_FLOAT"}}}, {"name": "PartitionedCall/PartitionedCall/depthwise_9/conv2d", "op": "FusedDepthwiseConv2dNative", "input": ["PartitionedCall/PartitionedCall/Pad_10", "Const_144", "Const_145"], "attr": {"padding": {"s": "VkFMSUQ="}, "num_args": {"i": "1"}, "fused_ops": {"list": {"s": ["Qmlhc0FkZA==", "UmVsdTY="]}}, "dilations": {"list": {"i": ["1", "1", "1", "1"]}}, "explicit_paddings": {"list": {}}, "T": {"type": "DT_FLOAT"}, "strides": {"list": {"i": ["1", "1", "1", "1"]}}, "data_format": {"s": "TkhXQw=="}}}, {"name": "PartitionedCall/PartitionedCall/BiasAdd_29", "op": "_FusedConv2D", "input": ["PartitionedCall/PartitionedCall/depthwise_9/conv2d", "Const_146", "Const_147"], "device": "/device:CPU:0", "attr": {"epsilon": {"f": 0.0}, "T": {"type": "DT_FLOAT"}, "strides": {"list": {"i": ["1", "1", "1", "1"]}}, "use_cudnn_on_gpu": {"b": true}, "leakyrelu_alpha": {"f": 0.2}, "num_args": {"i": "1"}, "explicit_paddings": {"list": {}}, "data_format": {"s": "TkhXQw=="}, "padding": {"s": "VkFMSUQ="}, "dilations": {"list": {"i": ["1", "1", "1", "1"]}}, "fused_ops": {"list": {"s": ["Qmlhc0FkZA=="]}}}}, {"name": "PartitionedCall/PartitionedCall/Add_5", "op": "AddV2", "input": ["PartitionedCall/PartitionedCall/Add_4", "PartitionedCall/PartitionedCall/BiasAdd_29"], "attr": {"T": {"type": "DT_FLOAT"}}}, {"name": "PartitionedCall/PartitionedCall/Relu6_20", "op": "_FusedConv2D", "input": ["PartitionedCall/PartitionedCall/Add_5", "Const_148", "Const_149"], "device": "/device:CPU:0", "attr": {"fused_ops": {"list": {"s": ["Qmlhc0FkZA==", "UmVsdTY="]}}, "use_cudnn_on_gpu": {"b": true}, "padding": {"s": "VkFMSUQ="}, "strides": {"list": {"i": ["1", "1", "1", "1"]}}, "epsilon": {"f": 0.0}, "leakyrelu_alpha": {"f": 0.2}, "T": {"type": "DT_FLOAT"}, "num_args": {"i": "1"}, "data_format": {"s": "TkhXQw=="}, "explicit_paddings": {"list": {}}, "dilations": {"list": {"i": ["1", "1", "1", "1"]}}}}, {"name": "PartitionedCall/PartitionedCall/Pad_11", "op": "Pad", "input": ["PartitionedCall/PartitionedCall/Relu6_20", "Const_150"], "attr": {"Tpaddings": {"type": "DT_INT32"}, "T": {"type": "DT_FLOAT"}}}, {"name": "PartitionedCall/PartitionedCall/depthwise_10/conv2d", "op": "FusedDepthwiseConv2dNative", "input": ["PartitionedCall/PartitionedCall/Pad_11", "Const_151", "Const_152"], "attr": {"fused_ops": {"list": {"s": ["Qmlhc0FkZA==", "UmVsdTY="]}}, "strides": {"list": {"i": ["1", "1", "1", "1"]}}, "explicit_paddings": {"list": {}}, "padding": {"s": "VkFMSUQ="}, "T": {"type": "DT_FLOAT"}, "data_format": {"s": "TkhXQw=="}, "num_args": {"i": "1"}, "dilations": {"list": {"i": ["1", "1", "1", "1"]}}}}, {"name": "PartitionedCall/PartitionedCall/BiasAdd_32", "op": "_FusedConv2D", "input": ["PartitionedCall/PartitionedCall/depthwise_10/conv2d", "Const_153", "Const_154"], "device": "/device:CPU:0", "attr": {"strides": {"list": {"i": ["1", "1", "1", "1"]}}, "epsilon": {"f": 0.0}, "leakyrelu_alpha": {"f": 0.2}, "num_args": {"i": "1"}, "fused_ops": {"list": {"s": ["Qmlhc0FkZA=="]}}, "data_format": {"s": "TkhXQw=="}, "explicit_paddings": {"list": {}}, "dilations": {"list": {"i": ["1", "1", "1", "1"]}}, "padding": {"s": "VkFMSUQ="}, "use_cudnn_on_gpu": {"b": true}, "T": {"type": "DT_FLOAT"}}}, {"name": "PartitionedCall/PartitionedCall/Relu6_22", "op": "_FusedConv2D", "input": ["PartitionedCall/PartitionedCall/BiasAdd_32", "Const_155", "Const_156"], "device": "/device:CPU:0", "attr": {"padding": {"s": "VkFMSUQ="}, "num_args": {"i": "1"}, "leakyrelu_alpha": {"f": 0.2}, "explicit_paddings": {"list": {}}, "strides": {"list": {"i": ["1", "1", "1", "1"]}}, "fused_ops": {"list": {"s": ["Qmlhc0FkZA==", "UmVsdTY="]}}, "T": {"type": "DT_FLOAT"}, "epsilon": {"f": 0.0}, "use_cudnn_on_gpu": {"b": true}, "dilations": {"list": {"i": ["1", "1", "1", "1"]}}, "data_format": {"s": "TkhXQw=="}}}, {"name": "PartitionedCall/PartitionedCall/Pad_12", "op": "Pad", "input": ["PartitionedCall/PartitionedCall/Relu6_22", "Const_157"], "attr": {"Tpaddings": {"type": "DT_INT32"}, "T": {"type": "DT_FLOAT"}}}, {"name": "PartitionedCall/PartitionedCall/depthwise_11/conv2d", "op": "FusedDepthwiseConv2dNative", "input": ["PartitionedCall/PartitionedCall/Pad_12", "Const_158", "Const_159"], "attr": {"explicit_paddings": {"list": {}}, "strides": {"list": {"i": ["1", "1", "1", "1"]}}, "padding": {"s": "VkFMSUQ="}, "dilations": {"list": {"i": ["1", "1", "1", "1"]}}, "data_format": {"s": "TkhXQw=="}, "fused_ops": {"list": {"s": ["Qmlhc0FkZA==", "UmVsdTY="]}}, "num_args": {"i": "1"}, "T": {"type": "DT_FLOAT"}}}, {"name": "PartitionedCall/PartitionedCall/BiasAdd_35", "op": "_FusedConv2D", "input": ["PartitionedCall/PartitionedCall/depthwise_11/conv2d", "Const_160", "Const_161"], "device": "/device:CPU:0", "attr": {"padding": {"s": "VkFMSUQ="}, "T": {"type": "DT_FLOAT"}, "fused_ops": {"list": {"s": ["Qmlhc0FkZA=="]}}, "use_cudnn_on_gpu": {"b": true}, "strides": {"list": {"i": ["1", "1", "1", "1"]}}, "leakyrelu_alpha": {"f": 0.2}, "num_args": {"i": "1"}, "data_format": {"s": "TkhXQw=="}, "explicit_paddings": {"list": {}}, "dilations": {"list": {"i": ["1", "1", "1", "1"]}}, "epsilon": {"f": 0.0}}}, {"name": "PartitionedCall/PartitionedCall/Add_6", "op": "AddV2", "input": ["PartitionedCall/PartitionedCall/BiasAdd_32", "PartitionedCall/PartitionedCall/BiasAdd_35"], "attr": {"T": {"type": "DT_FLOAT"}}}, {"name": "PartitionedCall/PartitionedCall/Relu6_24", "op": "_FusedConv2D", "input": ["PartitionedCall/PartitionedCall/Add_6", "Const_162", "Const_163"], "device": "/device:CPU:0", "attr": {"T": {"type": "DT_FLOAT"}, "use_cudnn_on_gpu": {"b": true}, "strides": {"list": {"i": ["1", "1", "1", "1"]}}, "leakyrelu_alpha": {"f": 0.2}, "padding": {"s": "VkFMSUQ="}, "dilations": {"list": {"i": ["1", "1", "1", "1"]}}, "data_format": {"s": "TkhXQw=="}, "fused_ops": {"list": {"s": ["Qmlhc0FkZA==", "UmVsdTY="]}}, "num_args": {"i": "1"}, "epsilon": {"f": 0.0}, "explicit_paddings": {"list": {}}}}, {"name": "PartitionedCall/PartitionedCall/Pad_13", "op": "Pad", "input": ["PartitionedCall/PartitionedCall/Relu6_24", "Const_164"], "attr": {"Tpaddings": {"type": "DT_INT32"}, "T": {"type": "DT_FLOAT"}}}, {"name": "PartitionedCall/PartitionedCall/depthwise_12/conv2d", "op": "FusedDepthwiseConv2dNative", "input": ["PartitionedCall/PartitionedCall/Pad_13", "Const_165", "Const_166"], "attr": {"fused_ops": {"list": {"s": ["Qmlhc0FkZA==", "UmVsdTY="]}}, "strides": {"list": {"i": ["1", "1", "1", "1"]}}, "T": {"type": "DT_FLOAT"}, "num_args": {"i": "1"}, "explicit_paddings": {"list": {}}, "dilations": {"list": {"i": ["1", "1", "1", "1"]}}, "data_format": {"s": "TkhXQw=="}, "padding": {"s": "VkFMSUQ="}}}, {"name": "PartitionedCall/PartitionedCall/BiasAdd_38", "op": "_FusedConv2D", "input": ["PartitionedCall/PartitionedCall/depthwise_12/conv2d", "Const_167", "Const_168"], "device": "/device:CPU:0", "attr": {"epsilon": {"f": 0.0}, "use_cudnn_on_gpu": {"b": true}, "T": {"type": "DT_FLOAT"}, "strides": {"list": {"i": ["1", "1", "1", "1"]}}, "dilations": {"list": {"i": ["1", "1", "1", "1"]}}, "data_format": {"s": "TkhXQw=="}, "fused_ops": {"list": {"s": ["Qmlhc0FkZA=="]}}, "num_args": {"i": "1"}, "leakyrelu_alpha": {"f": 0.2}, "padding": {"s": "VkFMSUQ="}, "explicit_paddings": {"list": {}}}}, {"name": "PartitionedCall/PartitionedCall/Add_7", "op": "AddV2", "input": ["PartitionedCall/PartitionedCall/Add_6", "PartitionedCall/PartitionedCall/BiasAdd_38"], "attr": {"T": {"type": "DT_FLOAT"}}}, {"name": "PartitionedCall/PartitionedCall/Shape_39", "op": "Shape", "input": ["PartitionedCall/PartitionedCall/Add_7"], "attr": {"T": {"type": "DT_FLOAT"}, "out_type": {"type": "DT_INT32"}}}, {"name": "PartitionedCall/PartitionedCall/BiasAdd_50", "op": "_FusedConv2D", "input": ["PartitionedCall/PartitionedCall/Add_7", "Const_169", "Const_170"], "device": "/device:CPU:0", "attr": {"dilations": {"list": {"i": ["1", "1", "1", "1"]}}, "epsilon": {"f": 0.0}, "num_args": {"i": "1"}, "explicit_paddings": {"list": {}}, "padding": {"s": "VkFMSUQ="}, "fused_ops": {"list": {"s": ["Qmlhc0FkZA=="]}}, "strides": {"list": {"i": ["1", "1", "1", "1"]}}, "use_cudnn_on_gpu": {"b": true}, "T": {"type": "DT_FLOAT"}, "leakyrelu_alpha": {"f": 0.2}, "data_format": {"s": "TkhXQw=="}}}, {"name": "PartitionedCall/PartitionedCall/strided_slice_1", "op": "StridedSlice", "input": ["PartitionedCall/PartitionedCall/Shape_39", "Const_17", "Const_18", "Const_19"], "attr": {"end_mask": {"i": "0"}, "T": {"type": "DT_INT32"}, "ellipsis_mask": {"i": "0"}, "begin_mask": {"i": "0"}, "new_axis_mask": {"i": "0"}, "Index": {"type": "DT_INT32"}, "shrink_axis_mask": {"i": "0"}}}, {"name": "PartitionedCall/PartitionedCall/Shape_58", "op": "Shape", "input": ["PartitionedCall/PartitionedCall/BiasAdd_50"], "attr": {"out_type": {"type": "DT_INT32"}, "T": {"type": "DT_FLOAT"}}}, {"name": "PartitionedCall/PartitionedCall/Cast", "op": "Cast", "input": ["PartitionedCall/PartitionedCall/strided_slice_1"], "attr": {"Truncate": {"b": false}, "DstT": {"type": "DT_FLOAT"}, "SrcT": {"type": "DT_INT32"}}}, {"name": "PartitionedCall/PartitionedCall/strided_slice_9", "op": "StridedSlice", "input": ["PartitionedCall/PartitionedCall/Shape_58", "Const_171", "Const_172", "Const_173"], "attr": {"ellipsis_mask": {"i": "0"}, "Index": {"type": "DT_INT32"}, "begin_mask": {"i": "0"}, "new_axis_mask": {"i": "0"}, "T": {"type": "DT_INT32"}, "end_mask": {"i": "0"}, "shrink_axis_mask": {"i": "0"}}}, {"name": "PartitionedCall/PartitionedCall/mul", "op": "Mul", "input": ["Const_16", "PartitionedCall/PartitionedCall/Cast"], "attr": {"T": {"type": "DT_FLOAT"}}}, {"name": "PartitionedCall/PartitionedCall/Cast_8", "op": "Cast", "input": ["PartitionedCall/PartitionedCall/strided_slice_9"], "attr": {"DstT": {"type": "DT_FLOAT"}, "Truncate": {"b": false}, "SrcT": {"type": "DT_INT32"}}}, {"name": "PartitionedCall/PartitionedCall/Cast_1", "op": "Cast", "input": ["PartitionedCall/PartitionedCall/mul"], "attr": {"DstT": {"type": "DT_INT32"}, "Truncate": {"b": false}, "SrcT": {"type": "DT_FLOAT"}}}, {"name": "PartitionedCall/PartitionedCall/mul_4", "op": "Mul", "input": ["Const_67", "PartitionedCall/PartitionedCall/Cast_8"], "attr": {"T": {"type": "DT_FLOAT"}}}, {"name": "PartitionedCall/PartitionedCall/resize/ResizeBilinear", "op": "ResizeBilinear", "input": ["PartitionedCall/PartitionedCall/Add_7", "PartitionedCall/PartitionedCall/Cast_1"], "attr": {"align_corners": {"b": false}, "T": {"type": "DT_FLOAT"}, "half_pixel_centers": {"b": true}}}, {"name": "PartitionedCall/PartitionedCall/Cast_9", "op": "Cast", "input": ["PartitionedCall/PartitionedCall/mul_4"], "attr": {"DstT": {"type": "DT_INT32"}, "Truncate": {"b": false}, "SrcT": {"type": "DT_FLOAT"}}}, {"name": "PartitionedCall/PartitionedCall/Add_8", "op": "AddV2", "input": ["PartitionedCall/PartitionedCall/resize/ResizeBilinear", "PartitionedCall/PartitionedCall/Conv2D_26"], "attr": {"T": {"type": "DT_FLOAT"}}}, {"name": "PartitionedCall/PartitionedCall/resize_4/ResizeBilinear", "op": "ResizeBilinear", "input": ["PartitionedCall/PartitionedCall/BiasAdd_50", "PartitionedCall/PartitionedCall/Cast_9"], "attr": {"T": {"type": "DT_FLOAT"}, "half_pixel_centers": {"b": true}, "align_corners": {"b": false}}}, {"name": "PartitionedCall/PartitionedCall/Pad_14", "op": "Pad", "input": ["PartitionedCall/PartitionedCall/Add_8", "Const_21"], "attr": {"Tpaddings": {"type": "DT_INT32"}, "T": {"type": "DT_FLOAT"}}}, {"name": "PartitionedCall/PartitionedCall/Pad_19", "op": "Pad", "input": ["PartitionedCall/PartitionedCall/resize_4/ResizeBilinear", "Const_174"], "attr": {"T": {"type": "DT_FLOAT"}, "Tpaddings": {"type": "DT_INT32"}}}, {"name": "PartitionedCall/PartitionedCall/depthwise_13/conv2d", "op": "FusedDepthwiseConv2dNative", "input": ["PartitionedCall/PartitionedCall/Pad_14", "Const_22", "Const_23"], "attr": {"explicit_paddings": {"list": {}}, "data_format": {"s": "TkhXQw=="}, "dilations": {"list": {"i": ["1", "1", "1", "1"]}}, "padding": {"s": "VkFMSUQ="}, "T": {"type": "DT_FLOAT"}, "fused_ops": {"list": {"s": ["Qmlhc0FkZA==", "UmVsdQ=="]}}, "strides": {"list": {"i": ["1", "1", "1", "1"]}}, "num_args": {"i": "1"}}}, {"name": "PartitionedCall/PartitionedCall/Relu_10", "op": "_FusedConv2D", "input": ["PartitionedCall/PartitionedCall/Pad_19", "Const_175", "Const_176"], "device": "/device:CPU:0", "attr": {"num_args": {"i": "1"}, "data_format": {"s": "TkhXQw=="}, "explicit_paddings": {"list": {}}, "padding": {"s": "VkFMSUQ="}, "epsilon": {"f": 0.0}, "dilations": {"list": {"i": ["1", "1", "1", "1"]}}, "T": {"type": "DT_FLOAT"}, "fused_ops": {"list": {"s": ["Qmlhc0FkZA==", "UmVsdQ=="]}}, "use_cudnn_on_gpu": {"b": true}, "strides": {"list": {"i": ["1", "1", "1", "1"]}}, "leakyrelu_alpha": {"f": 0.2}}}, {"name": "PartitionedCall/PartitionedCall/BiasAdd_52", "op": "_FusedConv2D", "input": ["PartitionedCall/PartitionedCall/Relu_10", "Const_177", "Const_178"], "device": "/device:CPU:0", "attr": {"use_cudnn_on_gpu": {"b": true}, "fused_ops": {"list": {"s": ["Qmlhc0FkZA=="]}}, "epsilon": {"f": 0.0}, "leakyrelu_alpha": {"f": 0.2}, "num_args": {"i": "1"}, "data_format": {"s": "TkhXQw=="}, "padding": {"s": "VkFMSUQ="}, "dilations": {"list": {"i": ["1", "1", "1", "1"]}}, "explicit_paddings": {"list": {}}, "strides": {"list": {"i": ["1", "1", "1", "1"]}}, "T": {"type": "DT_FLOAT"}}}, {"name": "PartitionedCall/PartitionedCall/Shape_61", "op": "Shape", "input": ["PartitionedCall/PartitionedCall/BiasAdd_52"], "attr": {"out_type": {"type": "DT_INT32"}, "T": {"type": "DT_FLOAT"}}}, {"name": "PartitionedCall/PartitionedCall/Relu_1", "op": "_FusedConv2D", "input": ["PartitionedCall/PartitionedCall/depthwise_13/conv2d", "Const_24", "Const_25"], "device": "/device:CPU:0", "attr": {"use_cudnn_on_gpu": {"b": true}, "T": {"type": "DT_FLOAT"}, "strides": {"list": {"i": ["1", "1", "1", "1"]}}, "leakyrelu_alpha": {"f": 0.2}, "data_format": {"s": "TkhXQw=="}, "dilations": {"list": {"i": ["1", "1", "1", "1"]}}, "num_args": {"i": "1"}, "epsilon": {"f": 0.0}, "explicit_paddings": {"list": {}}, "padding": {"s": "VkFMSUQ="}, "fused_ops": {"list": {"s": ["Qmlhc0FkZA==", "UmVsdQ=="]}}}}, {"name": "PartitionedCall/PartitionedCall/strided_slice_11", "op": "StridedSlice", "input": ["PartitionedCall/PartitionedCall/Shape_61", "Const_179", "Const_180", "Const_181"], "attr": {"T": {"type": "DT_INT32"}, "ellipsis_mask": {"i": "0"}, "end_mask": {"i": "0"}, "begin_mask": {"i": "0"}, "shrink_axis_mask": {"i": "0"}, "Index": {"type": "DT_INT32"}, "new_axis_mask": {"i": "0"}}}, {"name": "PartitionedCall/PartitionedCall/Shape_43", "op": "Shape", "input": ["PartitionedCall/PartitionedCall/Relu_1"], "attr": {"out_type": {"type": "DT_INT32"}, "T": {"type": "DT_FLOAT"}}}, {"name": "PartitionedCall/PartitionedCall/Cast_10", "op": "Cast", "input": ["PartitionedCall/PartitionedCall/strided_slice_11"], "attr": {"SrcT": {"type": "DT_INT32"}, "DstT": {"type": "DT_FLOAT"}, "Truncate": {"b": false}}}, {"name": "PartitionedCall/PartitionedCall/strided_slice_3", "op": "StridedSlice", "input": ["PartitionedCall/PartitionedCall/Shape_43", "Const_26", "Const_27", "Const_28"], "attr": {"T": {"type": "DT_INT32"}, "ellipsis_mask": {"i": "0"}, "Index": {"type": "DT_INT32"}, "shrink_axis_mask": {"i": "0"}, "begin_mask": {"i": "0"}, "end_mask": {"i": "0"}, "new_axis_mask": {"i": "0"}}}, {"name": "PartitionedCall/PartitionedCall/mul_5", "op": "Mul", "input": ["Const_66", "PartitionedCall/PartitionedCall/Cast_10"], "attr": {"T": {"type": "DT_FLOAT"}}}, {"name": "PartitionedCall/PartitionedCall/Cast_2", "op": "Cast", "input": ["PartitionedCall/PartitionedCall/strided_slice_3"], "attr": {"DstT": {"type": "DT_FLOAT"}, "Truncate": {"b": false}, "SrcT": {"type": "DT_INT32"}}}, {"name": "PartitionedCall/PartitionedCall/Cast_11", "op": "Cast", "input": ["PartitionedCall/PartitionedCall/mul_5"], "attr": {"DstT": {"type": "DT_INT32"}, "Truncate": {"b": false}, "SrcT": {"type": "DT_FLOAT"}}}, {"name": "PartitionedCall/PartitionedCall/mul_1", "op": "Mul", "input": ["Const_15", "PartitionedCall/PartitionedCall/Cast_2"], "attr": {"T": {"type": "DT_FLOAT"}}}, {"name": "PartitionedCall/PartitionedCall/resize_5/ResizeBilinear", "op": "ResizeBilinear", "input": ["PartitionedCall/PartitionedCall/BiasAdd_52", "PartitionedCall/PartitionedCall/Cast_11"], "attr": {"T": {"type": "DT_FLOAT"}, "align_corners": {"b": false}, "half_pixel_centers": {"b": true}}}, {"name": "PartitionedCall/PartitionedCall/Cast_3", "op": "Cast", "input": ["PartitionedCall/PartitionedCall/mul_1"], "attr": {"Truncate": {"b": false}, "SrcT": {"type": "DT_FLOAT"}, "DstT": {"type": "DT_INT32"}}}, {"name": "PartitionedCall/Shape_1", "op": "Shape", "input": ["PartitionedCall/PartitionedCall/resize_5/ResizeBilinear"], "attr": {"out_type": {"type": "DT_INT32"}, "T": {"type": "DT_FLOAT"}}}, {"name": "PartitionedCall/PartitionedCall/resize_1/ResizeBilinear", "op": "ResizeBilinear", "input": ["PartitionedCall/PartitionedCall/Relu_1", "PartitionedCall/PartitionedCall/Cast_3"], "attr": {"T": {"type": "DT_FLOAT"}, "half_pixel_centers": {"b": true}, "align_corners": {"b": false}}}, {"name": "PartitionedCall/strided_slice_1", "op": "StridedSlice", "input": ["PartitionedCall/Shape_1", "Const_182", "Const_183", "Const_184"], "attr": {"end_mask": {"i": "0"}, "begin_mask": {"i": "0"}, "T": {"type": "DT_INT32"}, "Index": {"type": "DT_INT32"}, "new_axis_mask": {"i": "0"}, "ellipsis_mask": {"i": "0"}, "shrink_axis_mask": {"i": "1"}}}, {"name": "PartitionedCall/PartitionedCall/Add_9", "op": "AddV2", "input": ["PartitionedCall/PartitionedCall/resize_1/ResizeBilinear", "PartitionedCall/PartitionedCall/Conv2D_28"], "attr": {"T": {"type": "DT_FLOAT"}}}, {"name": "PartitionedCall/Reshape/shape", "op": "Pack", "input": ["PartitionedCall/strided_slice_1", "Const_185", "Const_186"], "attr": {"axis": {"i": "0"}, "T": {"type": "DT_INT32"}, "N": {"i": "3"}}}, {"name": "PartitionedCall/PartitionedCall/Pad_15", "op": "Pad", "input": ["PartitionedCall/PartitionedCall/Add_9", "Const_30"], "attr": {"Tpaddings": {"type": "DT_INT32"}, "T": {"type": "DT_FLOAT"}}}, {"name": "PartitionedCall/Reshape", "op": "Reshape", "input": ["PartitionedCall/PartitionedCall/resize_5/ResizeBilinear", "PartitionedCall/Reshape/shape"], "attr": {"T": {"type": "DT_FLOAT"}, "Tshape": {"type": "DT_INT32"}}}, {"name": "PartitionedCall/PartitionedCall/depthwise_14/conv2d", "op": "FusedDepthwiseConv2dNative", "input": ["PartitionedCall/PartitionedCall/Pad_15", "Const_31", "Const_32"], "attr": {"num_args": {"i": "1"}, "dilations": {"list": {"i": ["1", "1", "1", "1"]}}, "explicit_paddings": {"list": {}}, "padding": {"s": "VkFMSUQ="}, "fused_ops": {"list": {"s": ["Qmlhc0FkZA==", "UmVsdQ=="]}}, "T": {"type": "DT_FLOAT"}, "strides": {"list": {"i": ["1", "1", "1", "1"]}}, "data_format": {"s": "TkhXQw=="}}}, {"name": "PartitionedCall/ArgMax", "op": "ArgMax", "input": ["PartitionedCall/Reshape", "Const_187"], "attr": {"T": {"type": "DT_FLOAT"}, "Tidx": {"type": "DT_INT32"}, "output_type": {"type": "DT_INT32"}}}, {"name": "PartitionedCall/FloorMod", "op": "FloorMod", "input": ["PartitionedCall/ArgMax", "Const_188"], "attr": {"T": {"type": "DT_INT32"}}}, {"name": "PartitionedCall/Cast_8", "op": "Cast", "input": ["PartitionedCall/FloorMod"], "attr": {"Truncate": {"b": false}, "SrcT": {"type": "DT_INT32"}, "DstT": {"type": "DT_FLOAT"}}}, {"name": "PartitionedCall/sub_2", "op": "Sub", "input": ["PartitionedCall/ArgMax", "PartitionedCall/FloorMod"], "attr": {"T": {"type": "DT_INT32"}}}, {"name": "PartitionedCall/PartitionedCall/Relu_3", "op": "_FusedConv2D", "input": ["PartitionedCall/PartitionedCall/depthwise_14/conv2d", "Const_33", "Const_34"], "device": "/device:CPU:0", "attr": {"fused_ops": {"list": {"s": ["Qmlhc0FkZA==", "UmVsdQ=="]}}, "use_cudnn_on_gpu": {"b": true}, "leakyrelu_alpha": {"f": 0.2}, "padding": {"s": "VkFMSUQ="}, "data_format": {"s": "TkhXQw=="}, "num_args": {"i": "1"}, "epsilon": {"f": 0.0}, "dilations": {"list": {"i": ["1", "1", "1", "1"]}}, "T": {"type": "DT_FLOAT"}, "explicit_paddings": {"list": {}}, "strides": {"list": {"i": ["1", "1", "1", "1"]}}}}, {"name": "PartitionedCall/add", "op": "AddV2", "input": ["PartitionedCall/Cast_8", "Const_61"], "attr": {"T": {"type": "DT_FLOAT"}}}, {"name": "PartitionedCall/truediv_9/Cast", "op": "Cast", "input": ["PartitionedCall/sub_2"], "attr": {"Truncate": {"b": false}, "SrcT": {"type": "DT_INT32"}, "DstT": {"type": "DT_DOUBLE"}}}, {"name": "PartitionedCall/PartitionedCall/Shape_47", "op": "Shape", "input": ["PartitionedCall/PartitionedCall/Relu_3"], "attr": {"out_type": {"type": "DT_INT32"}, "T": {"type": "DT_FLOAT"}}}, {"name": "PartitionedCall/ExpandDims", "op": "ExpandDims", "input": ["PartitionedCall/add", "Const_62"], "attr": {"T": {"type": "DT_FLOAT"}, "Tdim": {"type": "DT_INT32"}}}, {"name": "PartitionedCall/truediv_9", "op": "Mul", "input": ["PartitionedCall/truediv_9/Cast", "Cast"], "attr": {"T": {"type": "DT_DOUBLE"}}}, {"name": "PartitionedCall/PartitionedCall/strided_slice_5", "op": "StridedSlice", "input": ["PartitionedCall/PartitionedCall/Shape_47", "Const_35", "Const_36", "Const_37"], "attr": {"new_axis_mask": {"i": "0"}, "T": {"type": "DT_INT32"}, "ellipsis_mask": {"i": "0"}, "end_mask": {"i": "0"}, "shrink_axis_mask": {"i": "0"}, "begin_mask": {"i": "0"}, "Index": {"type": "DT_INT32"}}}, {"name": "PartitionedCall/mul_6", "op": "Mul", "input": ["PartitionedCall/ExpandDims", "PartitionedCall/strided_slice_2"], "attr": {"T": {"type": "DT_FLOAT"}}}, {"name": "PartitionedCall/Floor", "op": "Floor", "input": ["PartitionedCall/truediv_9"], "attr": {"T": {"type": "DT_DOUBLE"}}}, {"name": "PartitionedCall/PartitionedCall/Cast_4", "op": "Cast", "input": ["PartitionedCall/PartitionedCall/strided_slice_5"], "attr": {"DstT": {"type": "DT_FLOAT"}, "Truncate": {"b": false}, "SrcT": {"type": "DT_INT32"}}}, {"name": "PartitionedCall/Cast_9", "op": "Cast", "input": ["PartitionedCall/Floor"], "attr": {"SrcT": {"type": "DT_DOUBLE"}, "DstT": {"type": "DT_FLOAT"}, "Truncate": {"b": false}}}, {"name": "PartitionedCall/PartitionedCall/mul_2", "op": "Mul", "input": ["Const_14", "PartitionedCall/PartitionedCall/Cast_4"], "attr": {"T": {"type": "DT_FLOAT"}}}, {"name": "PartitionedCall/add_1", "op": "AddV2", "input": ["PartitionedCall/Cast_9", "Const_190"], "attr": {"T": {"type": "DT_FLOAT"}}}, {"name": "PartitionedCall/PartitionedCall/Cast_5", "op": "Cast", "input": ["PartitionedCall/PartitionedCall/mul_2"], "attr": {"Truncate": {"b": false}, "SrcT": {"type": "DT_FLOAT"}, "DstT": {"type": "DT_INT32"}}}, {"name": "PartitionedCall/ExpandDims_1", "op": "ExpandDims", "input": ["PartitionedCall/add_1", "Const_191"], "attr": {"T": {"type": "DT_FLOAT"}, "Tdim": {"type": "DT_INT32"}}}, {"name": "PartitionedCall/PartitionedCall/resize_2/ResizeBilinear", "op": "ResizeBilinear", "input": ["PartitionedCall/PartitionedCall/Relu_3", "PartitionedCall/PartitionedCall/Cast_5"], "attr": {"align_corners": {"b": false}, "T": {"type": "DT_FLOAT"}, "half_pixel_centers": {"b": true}}}, {"name": "PartitionedCall/mul_7", "op": "Mul", "input": ["PartitionedCall/ExpandDims_1", "PartitionedCall/strided_slice_3"], "attr": {"T": {"type": "DT_FLOAT"}}}, {"name": "PartitionedCall/PartitionedCall/Add_10", "op": "AddV2", "input": ["PartitionedCall/Partitioned…
"}, "new_axis_mask": {"i": "0"}, "end_mask": {"i": "0"}, "Index": {"type": "DT_INT32"}, "begin_mask": {"i": "0"}}}, {"name": "PartitionedCall/Sigmoid", "op": "Sigmoid", "input": ["PartitionedCall/truediv_7"], "attr": {"T": {"type": "DT_FLOAT"}}}, {"name": "PartitionedCall/PartitionedCall_1/floordiv", "op": "FloorDiv", "input": ["PartitionedCall/PartitionedCall_1/strided_slice", "Const_6"], "attr": {"T": {"type": "DT_INT32"}}}, {"name": "PartitionedCall/mul_4", "op": "Mul", "input": ["PartitionedCall/Sigmoid", "Const_60"], "attr": {"T": {"type": "DT_FLOAT"}}}, {"name": "PartitionedCall/PartitionedCall_1/resize/ResizeBilinear", "op": "ResizeBilinear", "input": ["PartitionedCall/PartitionedCall_1/Mean", "PartitionedCall/PartitionedCall_1/floordiv"], "attr": {"T": {"type": "DT_FLOAT"}, "half_pixel_centers": {"b": true}, "align_corners": {"b": false}}}, {"name": "PartitionedCall/PartitionedCall_1/resize_1/ResizeBilinear", "op": "ResizeBilinear", "input": ["PartitionedCall/resize_1/ResizeBilinear", "PartitionedCall/PartitionedCall_1/floordiv"], "attr": {"T": {"type": "DT_FLOAT"}, "align_corners": {"b": false}, "half_pixel_centers": {"b": true}}}, {"name": "Identity_1", "op": "Identity", "input": ["PartitionedCall/mul_4"], "attr": {"T": {"type": "DT_FLOAT"}}}, {"name": "PartitionedCall/PartitionedCall_1/pow", "op": "Square", "input": ["PartitionedCall/PartitionedCall_1/resize/ResizeBilinear"], "attr": {"T": {"type": "DT_FLOAT"}}}, {"name": "PartitionedCall/PartitionedCall_1/MirrorPad", "op": "MirrorPad", "input": ["PartitionedCall/PartitionedCall_1/resize/ResizeBilinear", "PartitionedCall/PartitionedCall_1/MirrorPad/paddings"], "attr": {"Tpaddings": {"type": "DT_INT32"}, "mode": {"s": "UkVGTEVDVA=="}, "T": {"type": "DT_FLOAT"}}}, {"name": "PartitionedCall/PartitionedCall_1/MirrorPad_1", "op": "MirrorPad", "input": ["PartitionedCall/PartitionedCall_1/resize_1/ResizeBilinear", "PartitionedCall/PartitionedCall_1/MirrorPad_1/paddings"], "attr": {"mode": {"s": "UkVGTEVDVA=="}, "Tpaddings": {"type": "DT_INT32"}, "T": {"type": "DT_FLOAT"}}}, {"name": "PartitionedCall/PartitionedCall_1/mul", "op": "Mul", "input": ["PartitionedCall/PartitionedCall_1/resize/ResizeBilinear", "PartitionedCall/PartitionedCall_1/resize_1/ResizeBilinear"], "attr": {"T": {"type": "DT_FLOAT"}}}, {"name": "PartitionedCall/PartitionedCall_1/MirrorPad_2", "op": "MirrorPad", "input": ["PartitionedCall/PartitionedCall_1/pow", "PartitionedCall/PartitionedCall_1/MirrorPad_2/paddings"], "attr": {"mode": {"s": "UkVGTEVDVA=="}, "Tpaddings": {"type": "DT_INT32"}, "T": {"type": "DT_FLOAT"}}}, {"name": "PartitionedCall/PartitionedCall_1/Conv2D", "op": "Conv2D", "input": ["PartitionedCall/PartitionedCall_1/MirrorPad", "ConstantFolding/PartitionedCall/PartitionedCall_1/cond/output/_18_const"], "device": "/device:CPU:0", "attr": {"use_cudnn_on_gpu": {"b": true}, "strides": {"list": {"i": ["1", "1", "1", "1"]}}, "data_format": {"s": "TkhXQw=="}, "dilations": {"list": {"i": ["1", "1", "1", "1"]}}, "padding": {"s": "VkFMSUQ="}, "explicit_paddings": {"list": {}}, "T": {"type": "DT_FLOAT"}}}, {"name": "PartitionedCall/PartitionedCall_1/Conv2D_1", "op": "Conv2D", "input": ["PartitionedCall/PartitionedCall_1/MirrorPad_1", "ConstantFolding/PartitionedCall/PartitionedCall_1/cond/output/_18_const"], "device": "/device:CPU:0", "attr": {"use_cudnn_on_gpu": {"b": true}, "strides": {"list": {"i": ["1", "1", "1", "1"]}}, "dilations": {"list": {"i": ["1", "1", "1", "1"]}}, "data_format": {"s": "TkhXQw=="}, "explicit_paddings": {"list": {}}, "T": {"type": "DT_FLOAT"}, "padding": {"s": "VkFMSUQ="}}}, {"name": "PartitionedCall/PartitionedCall_1/MirrorPad_3", "op": "MirrorPad", "input": ["PartitionedCall/PartitionedCall_1/mul", "PartitionedCall/PartitionedCall_1/MirrorPad_3/paddings"], "attr": {"T": {"type": "DT_FLOAT"}, "Tpaddings": {"type": "DT_INT32"}, "mode": {"s": "UkVGTEVDVA=="}}}, {"name": "PartitionedCall/PartitionedCall_1/Conv2D_2", "op": "Conv2D", "input": ["PartitionedCall/PartitionedCall_1/MirrorPad_2", "ConstantFolding/PartitionedCall/PartitionedCall_1/cond/output/_18_const"], "device": "/device:CPU:0", "attr": {"use_cudnn_on_gpu": {"b": true}, "T": {"type": "DT_FLOAT"}, "padding": {"s": "VkFMSUQ="}, "dilations": {"list": {"i": ["1", "1", "1", "1"]}}, "data_format": {"s": "TkhXQw=="}, "strides": {"list": {"i": ["1", "1", "1", "1"]}}, "explicit_paddings": {"list": {}}}}, {"name": "PartitionedCall/PartitionedCall_1/pow_1", "op": "Square", "input": ["PartitionedCall/PartitionedCall_1/Conv2D"], "attr": {"T": {"type": "DT_FLOAT"}}}, {"name": "PartitionedCall/PartitionedCall_1/mul_1", "op": "Mul", "input": ["PartitionedCall/PartitionedCall_1/Conv2D", "PartitionedCall/PartitionedCall_1/Conv2D_1"], "attr": {"T": {"type": "DT_FLOAT"}}}, {"name": "PartitionedCall/PartitionedCall_1/Conv2D_3", "op": "Conv2D", "input": ["PartitionedCall/PartitionedCall_1/MirrorPad_3", "ConstantFolding/PartitionedCall/PartitionedCall_1/cond/output/_18_const"], "device": "/device:CPU:0", "attr": {"use_cudnn_on_gpu": {"b": true}, "dilations": {"list": {"i": ["1", "1", "1", "1"]}}, "strides": {"list": {"i": ["1", "1", "1", "1"]}}, "padding": {"s": "VkFMSUQ="}, "data_format": {"s": "TkhXQw=="}, "T": {"type": "DT_FLOAT"}, "explicit_paddings": {"list": {}}}}, {"name": "PartitionedCall/PartitionedCall_1/sub", "op": "Sub", "input": ["PartitionedCall/PartitionedCall_1/Conv2D_2", "PartitionedCall/PartitionedCall_1/pow_1"], "attr": {"T": {"type": "DT_FLOAT"}}}, {"name": "PartitionedCall/PartitionedCall_1/sub_1", "op": "Sub", "input": ["PartitionedCall/PartitionedCall_1/Conv2D_3", "PartitionedCall/PartitionedCall_1/mul_1"], "attr": {"T": {"type": "DT_FLOAT"}}}, {"name": "PartitionedCall/PartitionedCall_1/clip_by_value/Minimum", "op": "Minimum", "input": ["PartitionedCall/PartitionedCall_1/sub", "Const"], "attr": {"T": {"type": "DT_FLOAT"}}}, {"name": "PartitionedCall/PartitionedCall_1/clip_by_value", "op": "Maximum", "input": ["PartitionedCall/PartitionedCall_1/clip_by_value/Minimum", "Const_1"], "attr": {"T": {"type": "DT_FLOAT"}}}, {"name": "PartitionedCall/PartitionedCall_1/add", "op": "AddV2", "input": ["PartitionedCall/PartitionedCall_1/clip_by_value", "Const_2"], "attr": {"T": {"type": "DT_FLOAT"}}}, {"name": "PartitionedCall/PartitionedCall_1/truediv", "op": "RealDiv", "input": ["PartitionedCall/PartitionedCall_1/sub_1", "PartitionedCall/PartitionedCall_1/add"], "attr": {"T": {"type": "DT_FLOAT"}}}, {"name": "PartitionedCall/PartitionedCall_1/MirrorPad_4", "op": "MirrorPad", "input": ["PartitionedCall/PartitionedCall_1/truediv", "PartitionedCall/PartitionedCall_1/MirrorPad_4/paddings"], "attr": {"Tpaddings": {"type": "DT_INT32"}, "T": {"type": "DT_FLOAT"}, "mode": {"s": "UkVGTEVDVA=="}}}, {"name": "PartitionedCall/PartitionedCall_1/mul_2", "op": "Mul", "input": ["PartitionedCall/PartitionedCall_1/truediv", "PartitionedCall/PartitionedCall_1/Conv2D"], "attr": {"T": {"type": "DT_FLOAT"}}}, {"name": "PartitionedCall/PartitionedCall_1/Conv2D_4", "op": "Conv2D", "input": ["PartitionedCall/PartitionedCall_1/MirrorPad_4", "ConstantFolding/PartitionedCall/PartitionedCall_1/cond/output/_18_const"], "device": "/device:CPU:0", "attr": {"T": {"type": "DT_FLOAT"}, "explicit_paddings": {"list": {}}, "use_cudnn_on_gpu": {"b": true}, "dilations": {"list": {"i": ["1", "1", "1", "1"]}}, "strides": {"list": {"i": ["1", "1", "1", "1"]}}, "data_format": {"s": "TkhXQw=="}, "padding": {"s": "VkFMSUQ="}}}, {"name": "PartitionedCall/PartitionedCall_1/sub_2", "op": "Sub", "input": ["PartitionedCall/PartitionedCall_1/Conv2D_1", "PartitionedCall/PartitionedCall_1/mul_2"], "attr": {"T": {"type": "DT_FLOAT"}}}, {"name": "PartitionedCall/PartitionedCall_1/resize_2/ResizeBilinear", "op": "ResizeBilinear", "input": ["PartitionedCall/PartitionedCall_1/Conv2D_4", "PartitionedCall/PartitionedCall_1/strided_slice"], "attr": {"half_pixel_centers": {"b": true}, "align_corners": {"b": false}, "T": {"type": "DT_FLOAT"}}}, {"name": "PartitionedCall/PartitionedCall_1/MirrorPad_5", "op": "MirrorPad", "input": ["PartitionedCall/PartitionedCall_1/sub_2", "PartitionedCall/PartitionedCall_1/MirrorPad_5/paddings"], "attr": {"T": {"type": "DT_FLOAT"}, "Tpaddings": {"type": "DT_INT32"}, "mode": {"s": "UkVGTEVDVA=="}}}, {"name": "PartitionedCall/PartitionedCall_1/mul_3", "op": "Mul", "input": ["PartitionedCall/PartitionedCall_1/resize_2/ResizeBilinear", "PartitionedCall/PartitionedCall_1/Mean"], "attr": {"T": {"type": "DT_FLOAT"}}}, {"name": "PartitionedCall/PartitionedCall_1/Conv2D_5", "op": "Conv2D", "input": ["PartitionedCall/PartitionedCall_1/MirrorPad_5", "ConstantFolding/PartitionedCall/PartitionedCall_1/cond/output/_18_const"], "device": "/device:CPU:0", "attr": {"strides": {"list": {"i": ["1", "1", "1", "1"]}}, "padding": {"s": "VkFMSUQ="}, "explicit_paddings": {"list": {}}, "use_cudnn_on_gpu": {"b": true}, "dilations": {"list": {"i": ["1", "1", "1", "1"]}}, "data_format": {"s": "TkhXQw=="}, "T": {"type": "DT_FLOAT"}}}, {"name": "PartitionedCall/PartitionedCall_1/resize_3/ResizeBilinear", "op": "ResizeBilinear", "input": ["PartitionedCall/PartitionedCall_1/Conv2D_5", "PartitionedCall/PartitionedCall_1/strided_slice"], "attr": {"T": {"type": "DT_FLOAT"}, "half_pixel_centers": {"b": true}, "align_corners": {"b": false}}}, {"name": "PartitionedCall/PartitionedCall_1/add_1", "op": "AddV2", "input": ["PartitionedCall/PartitionedCall_1/mul_3", "PartitionedCall/PartitionedCall_1/resize_3/ResizeBilinear"], "attr": {"T": {"type": "DT_FLOAT"}}}, {"name": "PartitionedCall/truediv_8", "op": "Mul", "input": ["PartitionedCall/PartitionedCall_1/add_1", "Const_11"], "attr": {"T": {"type": "DT_FLOAT"}}}, {"name": "PartitionedCall/Sigmoid_1", "op": "Sigmoid", "input": ["PartitionedCall/truediv_8"], "attr": {"T": {"type": "DT_FLOAT"}}}, {"name": "PartitionedCall/mul_5", "op": "Mul", "input": ["PartitionedCall/Sigmoid_1", "Const_12"], "attr": {"T": {"type": "DT_FLOAT"}}}, {"name": "Identity", "op": "Identity", "input": ["PartitionedCall/mul_5"], "attr": {"T": {"type": "DT_FLOAT"}}}], "library": {}, "versions": {"producer": 987}}, "weightsManifest": [{"paths": ["group1-shard1of1.bin"], "weights": [{"name": "Const", "shape": [], "dtype": "float32", "quantization": {"dtype": "uint16", "min": Infinity, "scale": 1.0, "original_dtype": "float32"}}, {"name": "Const_1", "shape": [], "dtype": "float32", "quantization": {"dtype": "uint16", "min": 0.0, "scale": 1.0, "original_dtype": "float32"}}, {"name": "Const_2", "shape": [], "dtype": "float32", "quantization": {"dtype": "uint16", "min": 0.0010004043579101562, "scale": 1.0, "original_dtype": "float32"}}, {"name": "Const_3", "shape": [], "dtype": "float32", "quantization": {"dtype": "uint16", "min": 128.0, "scale": 1.0, "original_dtype": "float32"}}, {"name": "Const_4", "shape": [], "dtype": "float32", "quantization": {"dtype": "uint16", "min": 0.015625, "scale": 1.0, "original_dtype": "float32"}}, {"name": "Const_5", "shape": [], "dtype": "int32"}, {"name": "Const_6", "shape": [], "dtype": "int32"}, {"name": "Const_8", "shape": [1], "dtype": "int32"}, {"name": "Const_9", "shape": [1], "dtype": "int32"}, {"name": "Const_10", "shape": [1], "dtype": "int32"}, {"name": "Const_11", "shape": [], "dtype": "float32", "quantization": {"dtype": "uint16", "min": 0.333251953125, "scale": 1.0, "original_dtype": "float32"}}, {"name": "Const_12", "shape": [], "dtype": "float32", "quantization": {"dtype": "uint16", "min": 255.0, "scale": 1.0, "original_dtype": "float32"}}, {"name": "Const_13", "shape": [2], "dtype": "float32", "quantization": {"dtype": "uint16", "min": 2.0, "scale": 1.0, "original_dtype": "float32"}}, {"name": "Const_14", "shape": [2], "dtype": "float32", "quantization": {"dtype": "uint16", "min": 2.0, "scale": 1.0, "original_dtype": "float32"}}, {"name": "Const_15", "shape": [2], "dtype": "float32", "quantization": {"dtype": "uint16", "min": 2.0, "scale": 1.0, "original_dtype": "float32"}}, {"name": "Const_16", "shape": [2], "dtype": "float32", "quantization": {"dtype": "uint16", "min": 2.0, "scale": 1.0, "original_dtype": "float32"}}, {"name": "Const_17", "shape": [1], "dtype": "int32"}, {"name": "Const_18", "shape": [1], "dtype": "int32"}, {"name": "Const_19", "shape": [1], "dtype": "int32"}, {"name": "Const_20", "shape": [1, 1, 32, 96], "dtype": "float32", "quantization": {"dtype": "uint16", "min": -0.7304645180056459, "scale": 2.062352178225376e-05, "original_dtype": "float32"}}, {"name": "Const_21", "shape": [4, 2], "dtype": "int32"}, {"name": "Const_22", "shape": [3, 3, 96, 1], "dtype": "float32", "quantization": {"dtype": "uint16", "min": -1.0029167083905548, "scale": 3.351322289616236e-05, "original_dtype": "float32"}}, {"name": "Const_23", "shape": [96], "dtype": "float32", "quantization": {"dtype": "uint16", "min": -0.9287247510872052, "scale": 3.1114099336232545e-05, "original_dtype": "float32"}}, {"name": "Const_24", "shape": [1, 1, 96, 32], "dtype": "float32", "quantization": {"dtype": "uint16", "min": -0.6162157431978141, "scale": 2.107801413366903e-05, "original_dtype": "float32"}}, {"name": "Const_25", "shape": [32], "dtype": "float32", "quantization": {"dtype": "uint16", "min": -1.410153925383383, "scale": 5.6714684901197835e-05, "original_dtype": "float32"}}, {"name": "Const_26", "shape": [1], "dtype": "int32"}, {"name": "Const_27", "shape": [1], "dtype": "int32"}, {"name": "Const_28", "shape": [1], "dtype": "int32"}, {"name": "Const_29", "shape": [1, 1, 24, 32], "dtype": "float32", "quantization": {"dtype": "uint16", "min": -0.6079179459508756, "scale": 1.6022718060959793e-05, "original_dtype": "float32"}}, {"name": "Const_30", "shape": [4, 2], "dtype": "int32"}, {"name": "Const_31", "shape": [3, 3, 32, 1], "dtype": "float32", "quantization": {"dtype": "uint16", "min": -0.7646622510872053, "scale": 3.455632009613184e-05, "original_dtype": "float32"}}, {"name": "Const_32", "shape": [32], "dtype": "float32", "quantization": {"dtype": "uint16", "min": -1.352518185654612, "scale": 5.279561970702678e-05, "original_dtype": "float32"}}, {"name": "Const_33", "shape": [1, 1, 32, 24], "dtype": "float32", "quantization": {"dtype": "uint16", "min": -0.8291019052319372, "scale": 3.0234917410543985e-05, "original_dtype": "float32"}}, {"name": "Const_34", "shape": [24], "dtype": "float32", "quantization": {"dtype": "uint16", "min": -2.6952936497434576, "scale": 6.400146391241322e-05, "original_dtype": "float32"}}, {"name": "Const_35", "shape": [1], "dtype": "int32"}, {"name": "Const_36", "shape": [1], "dtype": "int32"}, {"name": "Const_37", "shape": [1], "dtype": "int32"}, {"name": "Const_38", "shape": [1, 1, 16, 24], "dtype": "float32", "quantization": {"dtype": "uint16", "min": -0.5502871199549859, "scale": 1.675661144808118e-05, "original_dtype": "float32"}}, {"name": "Const_39", "shape": [4, 2], "dtype": "int32"}, {"name": "Const_40", "shape": [3, 3, 24, 1], "dtype": "float32", "quantization": {"dtype": "uint16", "min": -0.827628992380026, "scale": 3.228385833905547e-05, "original_dtype": "float32"}}, {"name": "Const_41", "shape": [24], "dtype": "float32", "quantization": {"dtype": "uint16", "min": -1.604504838778897, "scale": 3.738013323033494e-05, "original_dtype": "float32"}}, {"name": "Const_42", "shape": [1, 1, 24, 16], "dtype": "float32", "quantization": {"dtype": "uint16", "min": -1.2363279759861143, "scale": 3.680642977035172e-05, "original_dtype": "float32"}}, {"name": "Const_43", "shape": [16], "dtype": "float32", "quantization": {"dtype": "uint16", "min": -1.2060616315470742, "scale": 3.7447189478904405e-05, "original_dtype": "float32"}}, {"name": "Const_44", "shape": [1], "dtype": "int32"}, {"name": "Const_45", "shape": [1], "dtype": "int32"}, {"name": "Const_46", "shape": [1], "dtype": "int32"}, {"name": "Const_47", "shape": [4, 2], "dtype": "int32"}, {"name": "Const_48", "shape": [3, 3, 16, 1], "dtype": "float32", "quantization": {"dtype": "uint16", "min": -2.958985179674983, "scale": 6.812914854657817e-05, "original_dtype": "float32"}}, {"name": "Const_49", "shape": [16], "dtype": "float32", "quantization": {"dtype": "uint16", "min": -1.214825927939269, "scale": 4.096391718165865e-05, "original_dtype": "float32"}}, {"name": "Const_50", "shape": [1, 1, 16, 16], "dtype": "float32", "quantization": {"dtype": "uint16", "min": -2.376939490229457, "scale": 6.236231116960402e-05, "original_dtype": "float32"}}, {"name": "Const_51", "shape": [16], "dtype": "float32", "quantization": {"dtype": "uint16", "min": -0.7495121285381857, "scale": 2.464689669642176e-05, "original_dtype": "float32"}}, {"name": "Const_52", "shape": [4, 2], "dtype": "int32"}, {"name": "Const_53", "shape": [3, 3, 16, 1], "dtype": "float32", "quantization": {"dtype": "uint16", "min": -1.5459136369163424, "scale": 6.96639915693904e-05, "original_dtype": "float32"}}, {"name": "Const_54", "shape": [16], "dtype": "float32", "quantization": {"dtype": "uint16", "min": -5.777369678416114, "scale": 0.00010371366445410849, "original_dtype": "float32"}}, {"name": "Const_55", "shape": [1, 1, 16, 16], "dtype": "float32", "quantization": {"dtype": "uint16", "min": -2.97461292153048, "scale": 7.95436121919585e-05, "original_dtype": "float32"}}, {"name": "Const_56", "shape": [16], "dtype": "float32", "quantization": {"dtype": "uint16", "min": -2.3554651140611886, "scale": 8.01396677347982e-05, "original_dtype": "float32"}}, {"name": "Const_57", "shape": [1, 1, 16, 1], "dtype": "float32", "quantization": {"dtype": "uint16", "min": -0.7968783528124285, "scale": 2.0169029430838483e-05, "original_dtype": "float32"}}, {"name": "Const_58", "shape": [1], "dtype": "float32", "quantization": {"dtype": "uint16", "min": -0.3828125, "scale": 1.0, "original_dtype": "float32"}}, {"name": "Const_59", "shape": [], "dtype": "float32", "quantization": {"dtype": "uint16", "min": 0.333251953125, "scale": 1.0, "original_dtype": "float32"}}, {"name": "Const_60", "shape": [], "dtype": "float32", "quantization": {"dtype": "uint16", "min": 255.0, "scale": 1.0, "original_dtype": "float32"}}, {"name": "Const_61", "shape": [], "dtype": "float32", "quantization": {"dtype": "uint16", "min": 0.5, "scale": 1.0, "original_dtype": "float32"}}, {"name": "Const_62", "shape": [], "dtype": "int32"}, {"name": "Const_63", "shape": [1], "dtype": "int32"}, {"name": "Const_64", "shape": [1], "dtype": "int32"}, {"name": "Const_65", "shape": [1], "dtype": "int32"}, {"name": "Const_66", "shape": [2], "dtype": "float32", "quantization": {"dtype": "uint16", "min": 2.0, "scale": 1.0, "original_dtype": "float32"}}, {"name": "Const_67", "shape": [2], "dtype": "float32", "quantization": {"dtype": "uint16", "min": 2.0, "scale": 1.0, "original_dtype": "float32"}}, {"name": "Const_68", "shape": [], "dtype": "float32", "quantization": {"dtype": "uint16", "min": 0.03125, "scale": 1.0, "original_dtype": "float32"}}, {"name": "Const_69", "shape": [], "dtype": "float32", "quantization": {"dtype": "uint16", "min": 32.0, "scale": 1.0, "original_dtype": "float32"}}, {"name": "Const_70", "shape": [], "dtype": "float32", "quantization": {"dtype": "uint16", "min": 224.0, "scale": 1.0, "original_dtype": "float32"}}, {"name": "Const_71", "shape": [], "dtype": "float32", "quantization": {"dtype": "uint16", "min": 224.0, "scale": 1.0, "original_dtype": "float32"}}, {"name": "Const_72", "shape": [], "dtype": "float32", "quantization": {"dtype": "uint16", "min": 0.03125, "scale": 1.0, "original_dtype": "float32"}}, {"name": "Const_73", "shape": [], "dtype": "float32", "quantization": {"dtype": "uint16", "min": 32.0, "scale": 1.0, "original_dtype": "float32"}}, {"name": "Const_74", "shape": [], "dtype": "float32", "quantization": {"dtype": "uint16", "min": 0.0039215087890625, "scale": 1.0, "original_dtype": "float32"}}, {"name": "Const_75", "shape": [1, 1, 1, 3], "dtype": "float32", "quantization": {"dtype": "uint16", "min": 0.406005859375, "scale": 1.2070124742504005e-06, "original_dtype": "float32"}}, {"name": "Const_76", "shape": [1, 1, 1, 3], "dtype": "float32", "quantization": {"dtype": "uint16", "min": 4.3671875, "scale": 1.49013885709926e-06, "original_dtype": "float32"}}, {"name": "Const_77", "shape": [4, 2], "dtype": "int32"}, {"name": "Const_78", "shape": [3, 3, 3, 32], "dtype": "float32", "quantization": {"dtype": "uint16", "min": -0.3918495514085985, "scale": 1.2655004243915466e-05, "original_dtype": "float32"}}, {"name": "Const_79", "shape": [32], "dtype": "float32", "quantization": {"dtype": "uint16", "min": -0.3042008579027428, "scale": 1.9930607213702602e-05, "original_dtype": "float32"}}, {"name": "Const_80", "shape": [4, 2], "dtype": "int32"}, {"name": "Const_81", "shape": [3, 3, 32, 1], "dtype": "float32", "quantization": {"dtype": "uint16", "min": -9.211020590142672, "scale": 0.00024116407263294424, "original_dtype": "float32"}}, {"name": "Const_82", "shape": [32], "dtype": "float32", "quantization": {"dtype": "uint16", "min": -0.3559621349755856, "scale": 3.4161433299000535e-05, "original_dtype": "float32"}}, {"name": "Const_83", "shape": [1, 1, 32, 16], "dtype": "float32", "quantization": {"dtype": "uint16", "min": -0.8188520447089341, "scale": 2.297049048218509e-05, "original_dtype": "float32"}}, {"name": "Const_84", "shape": [16], "dtype": "float32", "quantization": {"dtype": "uint16", "min": -2.345715418645571, "scale": 6.1021186198214694e-05, "original_dtype": "float32"}}, {"name": "Const_85", "shape": [1, 1, 16, 96], "dtype": "float32", "quantization": {"dtype": "uint16", "min": -0.993156127510586, "scale": 2.7530315384908828e-05, "original_dtype": "float32"}}, {"name": "Const_86", "shape": [96], "dtype": "float32", "quantization": {"dtype": "uint16", "min": -1.2490278930151826, "scale": 3.708955615320058e-05, "original_dtype": "float32"}}, {"name": "Const_87", "shape": [4, 2], "dtype": "int32"}, {"name": "Const_88", "shape": [3, 3, 96, 1], "dtype": "float32", "quantization": {"dtype": "uint16", "min": -6.269465803101396, "scale": 0.0001361092832074464, "original_dtype": "float32"}}, {"name": "Const_89", "shape": [96], "dtype": "float32", "quantization": {"dtype": "uint16", "min": -0.5991125105501831, "scale": 3.413163052185855e-05, "original_dtype": "float32"}}, {"name": "Const_90", "shape": [1, 1, 96, 24], "dtype": "float32", "quantization": {"dtype": "uint16", "min": -0.6533114461738002, "scale": 2.0265888456549934e-05, "original_dtype": "float32"}}, {"name": "Const_91", "shape": [24], "dtype": "float32", "quantization": {"dtype": "uint16", "min": -0.9970786721789884, "scale": 3.191877431906615e-05, "original_dtype": "float32"}}, {"name": "Const_92", "shape": [1, 1, 24, 144], "dtype": "float32", "quantization": {"dtype": "uint16", "min": -0.43726248676756696, "scale": 1.5411761129549095e-05, "original_dtype": "float32"}}, {"name": "Const_93", "shape": [144], "dtype": "float32", "quantization": {"dtype": "uint16", "min": -0.8457122148470283, "scale": 3.0100804913405052e-05, "original_dtype": "float32"}}, {"name": "Const_94", "shape": [4, 2], "dtype": "int32"}, {"name": "Const_95", "shape": [3, 3, 144, 1], "dtype": "float32", "quantization": {"dtype": "uint16", "min": -4.472597389515145, "scale": 0.000128897011139086, "original_dtype": "float32"}}, {"name": "Const_96", "shape": [144], "dtype": "float32", "quantization": {"dtype": "uint16", "min": -1.040048375867857, "scale": 5.640175574120699e-05, "original_dtype": "float32"}}, {"name": "Const_97", "shape": [1, 1, 144, 24], "dtype": "float32", "quantization": {"dtype": "uint16", "min": -0.6074206381847487, "scale": 2.2478744659342338e-05, "original_dtype": "float32"}}, {"name": "Const_98", "shape": [24], "dtype": "float32", "quantization": {"dtype": "uint16", "min": -1.879899934195468, "scale": 4.905537117570764e-05, "original_dtype": "float32"}}, {"name": "Const_99", "shape": [1, 1, 24, 144], "dtype": "float32", "quantization": {"dtype": "uint16", "min": -0.3891554176084345, "scale": 1.1723667458228428e-05, "original_dtype": "float32"}}, {"name": "Const_100", "shape": [144], "dtype": "float32", "quantization": {"dtype": "uint16", "min": -0.767078466539826, "scale": 2.3529292553597316e-05, "original_dtype": "float32"}}, {"name": "Const_101", "shape": [4, 2], "dtype": "int32"}, {"name": "Const_102", "shape": [3, 3, 144, 1], "dtype": "float32", "quantization": {"dtype": "uint16", "min": -9.4844682230869, "scale": 0.00035667963683527884, "original_dtype": "float32"}}, {"name": "Const_103", "shape": [144], "dtype": "float32", "quantization": {"dtype": "uint16", "min": -0.5507903696498054, "scale": 3.191877431906615e-05, "original_dtype": "float32"}}, {"name": "Const_104", "shape": [1, 1, 144, 32], "dtype": "float32", "quantization": {"dtype": "uint16", "min": -0.51415926961738, "scale": 1.5326078145265888e-05, "original_dtype": "float32"}}, {"name": "Const_105", "shape": [32], "dtype": "float32", "quantization": {"dtype": "uint16", "min": -1.4833819565642405, "scale": 4.1410958838788436e-05, "original_dtype": "float32"}}, {"name": "Const_106", "shape": [1, 1, 32, 192], "dtype": "float32", "quantization": {"dtype": "uint16", "min": -0.30932588502327, "scale": 1.0267056725413902e-05, "original_dtype": "float32"}}, {"name": "Const_107", "shape": [192], "dtype": "float32", "quantization": {"dtype": "uint16", "min": -0.2582968025792515, "scale": 1.137721017395285e-05, "original_dtype": "float32"}}, {"name": "Const_108", "shape": [4, 2], "dtype": "int32"}, {"name": "Const_109", "shape": [3, 3, 192, 1], "dtype": "float32", "quantization": {"dtype": "uint16", "min": -7.511462684538796, "scale": 0.0006038638704509041, "original_dtype": "float32"}}, {"name": "Const_110", "shape": [192], "dtype": "float32", "quantization": {"dtype": "uint16", "min": -0.8925718664168001, "scale": 3.5182178416113524e-05, "original_dtype": "float32"}}, {"name": "Const_111", "shape": [1, 1, 192, 32], "dtype": "float32", "quantization": {"dtype": "uint16", "min": -0.5542061404449912, "scale": 1.7330314908064392e-05, "original_dtype": "float32"}}, {"name": "Const_112", "shape": [32], "dtype": "float32", "quantization": {"dtype": "uint16", "min": -0.6987317279173343, "scale": 1.894711556801709e-05, "original_dtype": "float32"}}, {"name": "Const_113", "shape": [1, 1, 32, 192], "dtype": "float32", "quantization": {"dtype": "uint16", "min": -0.26977544650520713, "scale": 8.0542005226215e-06, "original_dtype": "float32"}}, {"name": "Const_114", "shape": [192], "dtype": "float32", "quantization": {"dtype": "uint16", "min": -0.29614311830033574, "scale": 1.1213294899671932e-05, "original_dtype": "float32"}}, {"name": "Const_115", "shape": [4, 2], "dtype": "int32"}, {"name": "Const_116", "shape": [3, 3, 192, 1], "dtype": "float32", "quantization": {"dtype": "uint16", "min": -10.375016927977416, "scale": 0.0006392099641412985, "original_dtype": "float32"}}, {"name": "Const_117", "shape": [192], "dtype": "float32", "quantization": {"dtype": "uint16", "min": -0.8505775778210116, "scale": 3.1412127107652396e-05, "original_dtype": "float32"}}, {"name": "Const_118", "shape": [1, 1, 192, 32], "dtype": "float32", "quantization": {"dtype": "uint16", "min": -0.5610309764105058, "scale": 1.7002484359502556e-05, "original_dtype": "float32"}}, {"name": "Const_119", "shape": [32], "dtype": "float32", "quantization": {"dtype": "uint16", "min": -0.7539107204165713, "scale": 2.6762893873502708e-05, "original_dtype": "float32"}}, {"name": "Const_120", "shape": [1, 1, 32, 192], "dtype": "float32", "quantization": {"dtype": "uint16", "min": -0.30615081635767144, "scale": 8.702410925459678e-06, "original_dtype": "float32"}}, {"name": "Const_121", "shape": [192], "dtype": "float32", "quantization": {"dtype": "uint16", "min": -0.466057877887293, "scale": 1.344850318532082e-05, "original_dtype": "float32"}}, {"name": "Const_122", "shape": [4, 2], "dtype": "int32"}, {"name": "Const_123", "shape": [3, 3, 192, 1], "dtype": "float32", "quantization": {"dtype": "uint16", "min": -17.734491826886398, "scale": 0.0006334878309300374, "original_dtype": "float32"}}, {"name": "Const_124", "shape": [192], "dtype": "float32", "quantization": {"dtype": "uint16", "min": -0.22632719217307545, "scale": 2.4315340800717172e-05, "original_dtype": "float32"}}, {"name": "Const_125", "shape": [1, 1, 192, 64], "dtype": "float32", "quantization": {"dtype": "uint16", "min": -0.5165997594319829, "scale": 1.4972170166704814e-05, "original_dtype": "float32"}}, {"name": "Const_126", "shape": [64], "dtype": "float32", "quantization": {"dtype": "uint16", "min": -1.8359158184796291, "scale": 4.9666328107118333e-05, "original_dtype": "float32"}}, {"name": "Const_127", "shape": [1, 1, 64, 384], "dtype": "float32", "quantization": {"dtype": "uint16", "min": -0.2258313410176814, "scale": 6.932871032654307e-06, "original_dtype": "float32"}}, {"name": "Const_128", "shape": [384], "dtype": "float32", "quantization": {"dtype": "uint16", "min": -0.3239713832243744, "scale": 9.995106383993286e-06, "original_dtype": "float32"}}, {"name": "Const_129", "shape": [4, 2], "dtype": "int32"}, {"name": "Const_130", "shape": [3, 3, 384, 1], "dtype": "float32", "quantization": {"dtype": "uint16", "min": -10.132721303501945, "scale": 0.00035262645914396887, "original_dtype": "float32"}}, {"name": "Const_131", "shape": [384], "dtype": "float32", "quantization": {"dtype": "uint16", "min": -1.1982433051041428, "scale": 2.8759679942015716e-05, "original_dtype": "float32"}}, {"name": "Const_132", "shape": [1, 1, 384, 64], "dtype": "float32", "quantization": {"dtype": "uint16", "min": -0.41356921933413443, "scale": 1.373162956816968e-05, "original_dtype": "float32"}}, {"name": "Const_133", "shape": [64], "dtype": "float32", "quantization": {"dtype": "uint16", "min": -0.8349724488226711, "scale": 2.4252009899290454e-05, "original_dtype": "float32"}}, {"name": "Const_134", "shape": [1, 1, 64, 384], "dtype": "float32", "quantization": {"dtype": "uint16", "min": -0.17468018639848937, "scale": 5.140979056992447e-06, "original_dtype": "float32"}}, {"name": "Const_135", "shape": [384], "dtype": "float32", "quantization": {"dtype": "uint16", "min": -0.27270338309205006, "scale": 9.38414945258259e-06, "original_dtype": "float32"}}, {"name": "Const_136", "shape": [4, 2], "dtype": "int32"}, {"name": "Const_137", "shape": [3, 3, 384, 1], "dtype": "float32", "quantization": {"dtype": "uint16", "min": -13.633075122072176, "scale": 0.0006266927977416648, "original_dtype": "float32"}}, {"name": "Const_138", "shape": [384], "dtype": "float32", "quantization": {"dtype": "uint16", "min": -0.5249042436770428, "scale": 2.1592112039368278e-05, "original_dtype": "float32"}}, {"name": "Const_139", "shape": [1, 1, 384, 64], "dtype": "float32", "quantization": {"dtype": "uint16", "min": -0.4714314787959201, "scale": 1.449532573243305e-05, "original_dtype": "float32"}}, {"name": "Const_140", "shape": [64], "dtype": "float32", "quantization": {"dtype": "uint16", "min": -0.7949275747811284, "scale": 1.9315924935149156e-05, "original_dtype": "float32"}}, {"name": "Const_141", "shape": [1, 1, 64, 384], "dtype": "float32", "quantization": {"dtype": "uint16", "min": -0.1614985428677186, "scale": 4.4834552862973985e-06, "original_dtype": "float32"}}, {"name": "Const_142", "shape": [384], "dtype": "float32", "quantization": {"dtype": "uint16", "min": -0.3942873068183985, "scale": 1.0229803253986419e-05, "original_dtype": "float32"}}, {"name": "Const_143", "shape": [4, 2], "dtype": "int32"}, {"name": "Const_144", "shape": [3, 3, 384, 1], "dtype": "float32", "quantization": {"dtype": "uint16", "min": -17.76599217021439, "scale": 0.0010068570229648278, "original_dtype": "float32"}}, {"name": "Const_145", "shape": [384], "dtype": "float32", "quantization": {"dtype": "uint16", "min": -0.6616273150797284, "scale": 2.2337181467917905e-05, "original_dtype": "float32"}}, {"name": "Const_146", "shape": [1, 1, 384, 64], "dtype": "float32", "quantization": {"dtype": "uint16", "min": -0.40771331263232435, "scale": 1.3623594501029985e-05, "original_dtype": "float32"}}, {"name": "Const_147", "shape": [64], "dtype": "float32", "quantization": {"dtype": "uint16", "min": -0.49706523112649725, "scale": 1.536333161669337e-05, "original_dtype": "float32"}}, {"name": "Const_148", "shape": [1, 1, 64, 384], "dtype": "float32", "quantization": {"dtype": "uint16", "min": -0.20446997698033492, "scale": 5.807816195544365e-06, "original_dtype": "float32"}}, {"name": "Const_149", "shape": [384], "dtype": "float32", "quantization": {"dtype": "uint16", "min": -0.3076170533875029, "scale": 1.0807232061112383e-05, "original_dtype": "float32"}}, {"name": "Const_150", "shape": [4, 2], "dtype": "int32"}, {"name": "Const_151", "shape": [3, 3, 384, 1], "dtype": "float32", "quantization": {"dtype": "uint16", "min": -22.26557111657893, "scale": 0.001155632486457618, "original_dtype": "float32"}}, {"name": "Const_152", "shape": [384], "dtype": "float32", "quantization": {"dtype": "uint16", "min": -1.4921892881666285, "scale": 5.096274891279469e-05, "original_dtype": "float32"}}, {"name": "Const_153", "shape": [1, 1, 384, 96], "dtype": "float32", "quantization": {"dtype": "uint16", "min": -0.39258170505860424, "scale": 1.1686413986800947e-05, "original_dtype": "float32"}}, {"name": "Const_154", "shape": [96], "dtype": "float32", "quantization": {"dtype": "uint16", "min": -1.0048883334644656, "scale": 2.8558511196307317e-05, "original_dtype": "float32"}}, {"name": "Const_155", "shape": [1, 1, 96, 576], "dtype": "float32", "quantization": {"dtype": "uint16", "min": -0.1673562451868515, "scale": 5.351461170557717e-06, "original_dtype": "float32"}}, {"name": "Const_156", "shape": [576], "dtype": "float32", "quantization": {"dtype": "uint16", "min": -0.67578610040198, "scale": 1.5955661812390327e-05, "original_dtype": "float32"}}, {"name": "Const_157", "shape": [4, 2], "dtype": "int32"}, {"name": "Const_158", "shape": [3, 3, 576, 1], "dtype": "float32", "quantization": {"dtype": "uint16", "min": -18.4689364461738, "scale": 0.000616083009079118, "original_dtype": "float32"}}, {"name": "Const_159", "shape": [576], "dtype": "float32", "quantization": {"dtype": "uint16", "min": -0.6855308858100633, "scale": 3.887772278171969e-05, "original_dtype": "float32"}}, {"name": "Const_160", "shape": [1, 1, 576, 96], "dtype": "float32", "quantization": {"dtype": "uint16", "min": -0.388432692812047, "scale": 1.226384279392691e-05, "original_dtype": "float32"}}, {"name": "Const_161", "shape": [96], "dtype": "float32", "quantization": {"dtype": "uint16", "min": -1.377915173547532, "scale": 3.344616664759289e-05, "original_dtype": "float32"}}, {"name": "Const_162", "shape": [1, 1, 96, 576], "dtype": "float32", "quantization": {"dtype": "uint16", "min": -0.15246760847912852, "scale": 4.47972993915465e-06, "original_dtype": "float32"}}, {"name": "Const_163", "shape": [576], "dtype": "float32", "quantization": {"dtype": "uint16", "min": -0.3642536401112001, "scale": 1.1548576142519264e-05, "original_dtype": "float32"}}, {"name": "Const_164", "shape": [4, 2], "dtype": "int32"}, {"name": "Const_165", "shape": [3, 3, 576, 1], "dtype": "float32", "quantization": {"dtype": "uint16", "min": -28.781686312657357, "scale": 0.0011110475318532082, "original_dtype": "float32"}}, {"name": "Const_166", "shape": [576], "dtype": "float32", "quantization": {"dtype": "uint16", "min": -1.8222741187914855, "scale": 4.32885337987335e-05, "original_dtype": "float32"}}, {"name": "Const_167", "shape": [1, 1, 576, 96], "dtype": "float32", "quantization": {"dtype": "uint16", "min": -0.49390001600409134, "scale": 1.534470488097963e-05, "original_dtype": "float32"}}, {"name": "Const_168", "shape": [96], "dtype": "float32", "quantization": {"dtype": "uint16", "min": -1.429697707451171, "scale": 3.6694669356069274e-05, "original_dtype": "float32"}}, {"name": "Const_169", "shape": [1, 1, 96, 48], "dtype": "float32", "quantization": {"dtype": "uint16", "min": -0.6054711044193942, "scale": 1.920788986800946e-05, "original_dtype": "float32"}}, {"name": "Const_170", "shape": [48], "dtype": "float32", "quantization": {"dtype": "uint16", "min": -0.21679838004024568, "scale": 7.383638036926833e-06, "original_dtype": "float32"}}, {"name": "Const_171", "shape": [1], "dtype": "int32"}, {"name": "Const_172", "shape": [1], "dtype": "int32"}, {"name": "Const_173", "shape": [1], "dtype": "int32"}, {"name": "Const_174", "shape": [4, 2], "dtype": "int32"}, {"name": "Const_175", "shape": [3, 3, 48, 48], "dtype": "float32", "quantization": {"dtype": "uint16", "min": -0.06506255733309252, "scale": 1.966051954585336e-06, "original_dtype": "float32"}}, {"name": "Const_176", "shape": [48], "dtype": "float32", "quantization": {"dtype": "uint16", "min": -1.632789849889372, "scale": 5.886048485542077e-05, "original_dtype": "float32"}}, {"name": "Const_177", "shape": [1, 1, 48, 3], "dtype": "float32", "quantization": {"dtype": "uint16", "min": -0.5839857273010128, "scale": 1.530000071526665e-05, "original_dtype": "float32"}}, {"name": "Const_178", "shape": [3], "dtype": "float32", "quantization": {"dtype": "uint16", "min": -2.390625, "scale": 2.0563916227969786e-06, "original_dtype": "float32"}}, {"name": "Const_179", "shape": [1], "dtype": "int32"}, {"name": "Const_180", "shape": [1], "dtype": "int32"}, {"name": "Const_181", "shape": [1], "dtype": "int32"}, {"name": "Const_182", "shape": [1], "dtype": "int32"}, {"name": "Const_183", "shape": [1], "dtype": "int32"}, {"name": "Const_184", "shape": [1], "dtype": "int32"}, {"name": "Const_185", "shape": [], "dtype": "int32"}, {"name": "Const_186", "shape": [], "dtype": "int32"}, {"name": "Const_187", "shape": [], "dtype": "int32"}, {"name": "Const_188", "shape": [], "dtype": "int32"}, {"name": "Cast", "shape": [], "dtype": "float32", "quantization": {"dtype": "uint16", "min": 0.017852783203125, "scale": 1.0, "original_dtype": "float32"}}, {"name": "Const_190", "shape": [], "dtype": "float32", "quantization": {"dtype": "uint16", "min": 0.5, "scale": 1.0, "original_dtype": "float32"}}, {"name": "Const_191", "shape": [], "dtype": "int32"}, {"name": "Const_192", "shape": [1], "dtype": "int32"}, {"name": "Const_193", "shape": [1], "dtype": "int32"}, {"name": "Const_194", "shape": [1], "dtype": "int32"}, {"name": "Cast_1", "shape": [], "dtype": "float32", "quantization": {"dtype": "uint16", "min": 0.017852783203125, "scale": 1.0, "original_dtype": "float32"}}, {"name": "Const_196", "shape": [1], "dtype": "int32"}, {"name": "Const_197", "shape": [1], "dtype": "int32"}, {"name": "Const_198", "shape": [1], "dtype": "int32"}, {"name": "Const_199", "shape": [], "dtype": "int32"}, {"name": "Const_230", "shape": [], "dtype": "int32"}, {"name": "Const_220", "shape": [], "dtype": "int32"}, {"name": "Const_210", "shape": [], "dtype": "int32"}, {"name": "Const_200", "shape": [], "dtype": "int32"}, {"name": "Const_209", "shape": [1, 1, 1, 1], "dtype": "float32", "quantization": {"dtype": "uint16", "min": 1.0, "scale": 1.0, "original_dtype": "float32"}}, {"name": "Const_219", "shape": [3, 3, 1, 1], "dtype": "float32", "quantization": {"dtype": "uint16", "min": 0.111083984375, "scale": 1.0, "original_dtype": "float32"}}, {"name": "Const_229", "shape": [5, 5, 1, 1], "dtype": "float32", "quantization": {"dtype": "uint16", "min": 0.040008544921875, "scale": 1.0, "original_dtype": "float32"}}, {"name": "Const_239", "shape": [9, 9, 1, 1], "dtype": "float32", "quantization": {"dtype": "uint16", "min": 0.0123443603515625, "scale": 1.0, "original_dtype": "float32"}}, {"name": "Const_250", "shape": [17, 17, 1, 1], "dtype": "float32", "quantization": {"dtype": "uint16", "min": 0.003459930419921875, "scale": 1.0, "original_dtype": "float32"}}, {"name": "Const_248", "shape": [5, 5, 1, 1], "dtype": "float32", "quantization": {"dtype": "uint16", "min": 0.040008544921875, "scale": 1.0, "original_dtype": "float32"}}, {"name": "Const_201", "shape": [], "dtype": "int32"}, {"name": "Const_211", "shape": [], "dtype": "int32"}, {"name": "Const_221", "shape": [], "dtype": "int32"}, {"name": "Const_231", "shape": [], "dtype": "int32"}, {"name": "Const_251", "shape": [], "dtype": "int32"}, {"name": "Const_240", "shape": [], "dtype": "int32"}, {"name": "Const_202", "shape": [], "dtype": "int32"}, {"name": "Const_212", "shape": [], "dtype": "int32"}, {"name": "Const_222", "shape": [], "dtype": "int32"}, {"name": "Const_232", "shape": [], "dtype": "int32"}, {"name": "Const_252", "shape": [], "dtype": "int32"}, {"name": "Const_241", "shape": [], "dtype": "int32"}, {"name": "Const_203", "shape": [], "dtype": "int32"}, {"name": "Const_213", "shape": [], "dtype": "int32"}, {"name": "Const_223", "shape": [], "dtype": "int32"}, {"name": "Const_233", "shape": [], "dtype": "int32"}, {"name": "Const_253", "shape": [], "dtype": "int32"}, {"name": "Const_242", "shape": [], "dtype": "int32"}, {"name": "Const_204", "shape": [], "dtype": "int32"}, {"name": "Const_214", "shape": [], "dtype": "int32"}, {"name": "Const_224", "shape": [], "dtype": "int32"}, {"name": "Const_234", "shape": [], "dtype": "int32"}, {"name": "Const_254", "shape": [], "dtype": "int32"}, {"name": "Const_243", "shape": [], "dtype": "int32"}, {"name": "Const_205", "shape": [], "dtype": "int32"}, {"name": "Const_215", "shape": [], "dtype": "int32"}, {"name": "Const_225", "shape": [], "dtype": "int32"}, {"name": "Const_235", "shape": [], "dtype": "int32"}, {"name": "Const_255", "shape": [], "dtype": "int32"}, {"name": "Const_244", "shape": [], "dtype": "int32"}, {"name": "Const_206", "shape": [], "dtype": "int32"}, {"name": "Const_216", "shape": [], "dtype": "int32"}, {"name": "Const_226", "shape": [], "dtype": "int32"}, {"name": "Const_236", "shape": [], "dtype": "int32"}, {"name": "Const_256", "shape": [], "dtype": "int32"}, {"name": "Const_245", "shape": [], "dtype": "int32"}, {"name": "Const_207", "shape": [], "dtype": "int32"}, {"name": "Const_217", "shape": [], "dtype": "int32"}, {"name": "Const_227", "shape": [], "dtype": "int32"}, {"name": "Const_237", "shape": [], "dtype": "int32"}, {"name": "Const_257", "shape": [], "dtype": "int32"}, {"name": "Const_246", "shape": [], "dtype": "int32"}, {"name": "Const_208", "shape": [], "dtype": "int32"}, {"name": "Const_218", "shape": [], "dtype": "int32"}, {"name": "Const_228", "shape": [], "dtype": "int32"}, {"name": "Const_238", "shape": [], "dtype": "int32"}, {"name": "Const_249", "shape": [], "dtype": "int32"}, {"name": "Const_247", "shape": [], "dtype": "int32"}, {"name": "Const_7", "shape": [], "dtype": "int32"}, {"name": "ConstantFolding/PartitionedCall/PartitionedCall_1/cond/else/_13/cond/cond/else/_53/cond/cond/cond/else/_93/cond/cond/cond/cond/else/_133/cond/cond/cond/cond/cond/output/_177_const", "shape": [17, 17, 1, 1], "dtype": "float32", "quantization": {"dtype": "uint16", "min": 0.003459930419921875, "scale": 1.0, "original_dtype": "float32"}}, {"name": "ConstantFolding/PartitionedCall/PartitionedCall_1/cond/else/_13/cond/cond/else/_53/cond/cond/cond/else/_93/cond/cond/cond/cond/else/_133/cond/cond/cond/cond/cond/output/_178_const", "shape": [], "dtype": "int32"}, {"name": "ConstantFolding/PartitionedCall/PartitionedCall_1/cond/else/_13/cond/cond/else/_53/cond/cond/cond/else/_93/cond/cond/cond/cond/else/_133/cond/cond/cond/cond/cond/output/_179_const", "shape": [], "dtype": "int32"}, {"name": "ConstantFolding/PartitionedCall/PartitionedCall_1/cond/else/_13/cond/cond/else/_53/cond/cond/cond/else/_93/cond/cond/cond/cond/else/_133/cond/cond/cond/cond/cond/output/_180_const", "shape": [], "dtype": "int32"}, {"name": "ConstantFolding/PartitionedCall/PartitionedCall_1/cond/else/_13/cond/cond/else/_53/cond/cond/cond/else/_93/cond/cond/cond/cond/else/_133/cond/cond/cond/cond/cond/output/_181_const", "shape": [], "dtype": "int32"}, {"name": "ConstantFolding/PartitionedCall/PartitionedCall_1/cond/else/_13/cond/cond/else/_53/cond/cond/cond/else/_93/cond/cond/cond/cond/else/_133/cond/cond/cond/cond/cond/output/_182_const", "shape": [], "dtype": "int32"}, {"name": "ConstantFolding/PartitionedCall/PartitionedCall_1/cond/else/_13/cond/cond/else/_53/cond/cond/cond/else/_93/cond/cond/cond/cond/else/_133/cond/cond/cond/cond/cond/output/_183_const", "shape": [], "dtype": "int32"}, {"name": "ConstantFolding/PartitionedCall/PartitionedCall_1/cond/else/_13/cond/cond/else/_53/cond/cond/cond/else/_93/cond/cond/cond/cond/else/_133/cond/cond/cond/cond/cond/output/_184_const", "shape": [], "dtype": "int32"}, {"name": "ConstantFolding/PartitionedCall/PartitionedCall_1/cond/else/_13/cond/cond/else/_53/cond/cond/cond/else/_93/cond/cond/cond/cond/else/_133/cond/cond/cond/cond/cond/output/_185_const", "shape": [], "dtype": "int32"}, {"name": "ConstantFolding/PartitionedCall/PartitionedCall_1/cond/else/_13/cond/cond/else/_53/cond/cond/cond/else/_93/cond/cond/cond/cond/output/_138_const", "shape": [9, 9, 1, 1], "dtype": "float32", "quantization": {"dtype": "uint16", "min": 0.0123443603515625, "scale": 1.0, "original_dtype": "float32"}}, {"name": "ConstantFolding/PartitionedCall/PartitionedCall_1/cond/else/_13/cond/cond/else/_53/cond/cond/cond/else/_93/cond/cond/cond/cond/output/_139_const", "shape": [], "dtype": "int32"}, {"name": "ConstantFolding/PartitionedCall/PartitionedCall_1/cond/else/_13/cond/cond/else/_53/cond/cond/cond/else/_93/cond/cond/cond/cond/output/_140_const", "shape": [], "dtype": "int32"}, {"name": "ConstantFolding/PartitionedCall/PartitionedCall_1/cond/else/_13/cond/cond/else/_53/cond/cond/cond/else/_93/cond/cond/cond/cond/output/_141_const", "shape": [], "dtype": "int32"}, {"name": "ConstantFolding/PartitionedCall/PartitionedCall_1/cond/else/_13/cond/cond/else/_53/cond/cond/cond/else/_93/cond/cond/cond/cond/output/_142_const", "shape": [], "dtype": "int32"}, {"name": "ConstantFolding/PartitionedCall/PartitionedCall_1/cond/else/_13/cond/cond/else/_53/cond/cond/cond/else/_93/cond/cond/cond/cond/output/_143_const", "shape": [], "dtype": "int32"}, {"name": "ConstantFolding/PartitionedCall/PartitionedCall_1/cond/else/_13/cond/cond/else/_53/cond/cond/cond/else/_93/cond/cond/cond/cond/output/_144_const", "shape": [], "dtype": "int32"}, {"name": "ConstantFolding/PartitionedCall/PartitionedCall_1/cond/else/_13/cond/cond/else/_53/cond/cond/cond/else/_93/cond/cond/cond/cond/output/_145_const", "shape": [], "dtype": "int32"}, {"name": "ConstantFolding/PartitionedCall/PartitionedCall_1/cond/else/_13/cond/cond/else/_53/cond/cond/cond/else/_93/cond/cond/cond/cond/output/_146_const", "shape": [], "dtype": "int32"}, {"name": "ConstantFolding/PartitionedCall/PartitionedCall_1/cond/else/_13/cond/cond/else/_53/cond/cond/cond/output/_98_const", "shape": [5, 5, 1, 1], "dtype": "float32", "quantization": {"dtype": "uint16", "min": 0.040008544921875, "scale": 1.0, "original_dtype": "float32"}}, {"name": "ConstantFolding/PartitionedCall/PartitionedCall_1/cond/else/_13/cond/cond/else/_53/cond/cond/cond/output/_99_const", "shape": [], "dtype": "int32"}, {"name": "ConstantFolding/PartitionedCall/PartitionedCall_1/cond/else/_13/cond/cond/else/_53/cond/cond/cond/output/_100_const", "shape": [], "dtype": "int32"}, {"name": "ConstantFolding/PartitionedCall/PartitionedCall_1/cond/else/_13/cond/cond/else/_53/cond/cond/cond/output/_101_const", "shape": [], "dtype": "int32"}, {"name": "ConstantFolding/PartitionedCall/PartitionedCall_1/cond/else/_13/cond/cond/else/_53/cond/cond/cond/output/_102_const", "shape": [], "dtype": "int32"}, {"name": "ConstantFolding/PartitionedCall/PartitionedCall_1/cond/else/_13/cond/cond/else/_53/cond/cond/cond/output/_103_const", "shape": [], "dtype": "int32"}, {"name": "ConstantFolding/PartitionedCall/PartitionedCall_1/cond/else/_13/cond/cond/else/_53/cond/cond/cond/output/_104_const", "shape": [], "dtype": "int32"}, {"name": "ConstantFolding/PartitionedCall/PartitionedCall_1/cond/else/_13/cond/cond/else/_53/cond/cond/cond/output/_105_const", "shape": [], "dtype": "int32"}, {"name": "ConstantFolding/PartitionedCall/PartitionedCall_1/cond/else/_13/cond/cond/else/_53/cond/cond/cond/output/_106_const", "shape": [], "dtype": "int32"}, {"name": "ConstantFolding/PartitionedCall/PartitionedCall_1/cond/else/_13/cond/cond/output/_58_const", "shape": [3, 3, 1, 1], "dtype": "float32", "quantization": {"dtype": "uint16", "min": 0.111083984375, "scale": 1.0, "original_dtype": "float32"}}, {"name": "ConstantFolding/PartitionedCall/PartitionedCall_1/cond/else/_13/cond/cond/output/_59_const", "shape": [], "dtype": "int32"}, {"name": "ConstantFolding/PartitionedCall/PartitionedCall_1/cond/else/_13/cond/cond/output/_60_const", "shape": [], "dtype": "int32"}, {"name": "ConstantFolding/PartitionedCall/PartitionedCall_1/cond/else/_13/cond/cond/output/_61_const", "shape": [], "dtype": "int32"}, {"name": "ConstantFolding/PartitionedCall/PartitionedCall_1/cond/else/_13/cond/cond/output/_62_const", "shape": [], "dtype": "int32"}, {"name": "ConstantFolding/PartitionedCall/PartitionedCall_1/cond/else/_13/cond/cond/output/_63_const", "shape": [], "dtype": "int32"}, {"name": "ConstantFolding/PartitionedCall/PartitionedCall_1/cond/else/_13/cond/cond/output/_64_const", "shape": [], "dtype": "int32"}, {"name": "ConstantFolding/PartitionedCall/PartitionedCall_1/cond/else/_13/cond/cond/output/_65_const", "shape": [], "dtype": "int32"}, {"name": "ConstantFolding/PartitionedCall/PartitionedCall_1/cond/else/_13/cond/cond/output/_66_const", "shape": [], "dtype": "int32"}, {"name": "ConstantFolding/PartitionedCall/PartitionedCall_1/cond/output/_18_const", "shape": [1, 1, 1, 1], "dtype": "float32", "quantization": {"dtype": "uint16", "min": 1.0, "scale": 1.0, "original_dtype": "float32"}}, {"name": "PartitionedCall/PartitionedCall_1/MirrorPad_4/paddings", "shape": [4, 2], "dtype": "int32"}, {"name": "PartitionedCall/PartitionedCall_1/MirrorPad_3/paddings", "shape": [4, 2], "dtype": "int32"}, {"name": "PartitionedCall/PartitionedCall_1/MirrorPad_1/paddings", "shape": [4, 2], "dtype": "int32"}, {"name": "PartitionedCall/PartitionedCall_1/MirrorPad_2/paddings", "shape": [4, 2], "dtype": "int32"}, {"name": "PartitionedCall/PartitionedCall_1/MirrorPad/paddings", "shape": [4, 2], "dtype": "int32"}, {"name": "PartitionedCall/PartitionedCall_1/MirrorPad_5/paddings", "shape": [4, 2], "dtype": "int32"}]}]}