{"format": "graph-model", "generatedBy": "2.9.1", "convertedBy": "TensorFlow.js Converter v3.18.0", "signature": {"inputs": {"inputs_1": {"name": "inputs_1:0", "dtype": "DT_FLOAT", "tensorShape": {}}, "inputs_0": {"name": "inputs_0:0", "dtype": "DT_FLOAT", "tensorShape": {"dim": [{"size": "-1"}, {"size": "-1"}, {"size": "-1"}, {"size": "-1"}]}}}, "outputs": {"output_2": {"name": "Identity_2:0", "dtype": "DT_FLOAT", "tensorShape": {"dim": [{"size": "1"}, {"size": "3"}, {"size": "2"}]}}, "output_0": {"name": "Identity:0", "dtype": "DT_FLOAT", "tensorShape": {"dim": [{"size": "-1"}, {"size": "-1"}, {"size": "-1"}, {"size": "1"}]}}, "output_1": {"name": "Identity_1:0", "dtype": "DT_FLOAT", "tensorShape": {"dim": [{"size": "1"}, {"size": "-1"}, {"size": "-1"}, {"size": "1"}]}}}}, "modelTopology": {"node": [{"name": "PartitionedCall/PartitionedCall_1/clip_by_value/Minimum/y", "op": "Const", "attr": {"value": {"tensor": {"dtype": "DT_FLOAT", "tensorShape": {}}}, "dtype": {"type": "DT_FLOAT"}}}, {"name": "PartitionedCall/PartitionedCall_1/clip_by_value/y", "op": "Const", "attr": {"dtype": {"type": "DT_FLOAT"}, "value": {"tensor": {"dtype": "DT_FLOAT", "tensorShape": {}}}}}, {"name": "PartitionedCall/PartitionedCall_1/add/y", "op": "Const", "attr": {"value": {"tensor": {"dtype": "DT_FLOAT", "tensorShape": {}}}, "dtype": {"type": "DT_FLOAT"}}}, {"name": "PartitionedCall/sub_1/y", "op": "Const", "attr": {"dtype": {"type": "DT_FLOAT"}, "value": {"tensor": {"dtype": "DT_FLOAT", "tensorShape": {}}}}}, {"name": "ConstantFolding/PartitionedCall/truediv_6_recip", "op": "Const", "attr": {"dtype": {"type": "DT_FLOAT"}, "value": {"tensor": {"dtype": "DT_FLOAT", "tensorShape": {}}}}}, {"name": "PartitionedCall/PartitionedCall_1/Mean/reduction_indices", "op": "Const", "attr": {"dtype": {"type": "DT_INT32"}, "value": {"tensor": {"dtype": "DT_INT32", "tensorShape": {}}}}}, {"name": "PartitionedCall/PartitionedCall_1/floordiv/y", "op": "Const", "attr": {"value": {"tensor": {"dtype": "DT_INT32", "tensorShape": {}}}, "dtype": {"type": "DT_INT32"}}}, {"name": "PartitionedCall/PartitionedCall_1/Equal/y", "op": "Const", "attr": {"dtype": {"type": "DT_INT32"}, "value": {"tensor": {"dtype": "DT_INT32", "tensorShape": {}}}}}, {"name": "PartitionedCall/PartitionedCall_1/strided_slice/stack", "op": "Const", "attr": {"value": {"tensor": {"dtype": "DT_INT32", "tensorShape": {"dim": [{"size": "1"}]}}}, "dtype": {"type": "DT_INT32"}}}, {"name": "PartitionedCall/PartitionedCall_1/strided_slice/stack_1", "op": "Const", "attr": {"value": {"tensor": {"dtype": "DT_INT32", "tensorShape": {"dim": [{"size": "1"}]}}}, "dtype": {"type": "DT_INT32"}}}, {"name": "PartitionedCall/PartitionedCall_1/strided_slice/stack_2", "op": "Const", "attr": {"value": {"tensor": {"dtype": "DT_INT32", "tensorShape": {"dim": [{"size": "1"}]}}}, "dtype": {"type": "DT_INT32"}}}, {"name": "ConstantFolding/PartitionedCall/truediv_8_recip", "op": "Const", "attr": {"value": {"tensor": {"dtype": "DT_FLOAT", "tensorShape": {}}}, "dtype": {"type": "DT_FLOAT"}}}, {"name": "PartitionedCall/mul_5/y", "op": "Const", "attr": {"dtype": {"type": "DT_FLOAT"}, "value": {"tensor": {"dtype": "DT_FLOAT", "tensorShape": {}}}}}, {"name": "PartitionedCall/PartitionedCall/strided_slice_6", "op": "Const", "attr": {"dtype": {"type": "DT_FLOAT"}, "value": {"tensor": {"dtype": "DT_FLOAT", "tensorShape": {"dim": [{"size": "2"}]}}}}}, {"name": "PartitionedCall/PartitionedCall/strided_slice_4", "op": "Const", "attr": {"value": {"tensor": {"dtype": "DT_FLOAT", "tensorShape": {"dim": [{"size": "2"}]}}}, "dtype": {"type": "DT_FLOAT"}}}, {"name": "PartitionedCall/PartitionedCall/strided_slice_2", "op": "Const", "attr": {"dtype": {"type": "DT_FLOAT"}, "value": {"tensor": {"dtype": "DT_FLOAT", "tensorShape": {"dim": [{"size": "2"}]}}}}}, {"name": "PartitionedCall/PartitionedCall/strided_slice", "op": "Const", "attr": {"dtype": {"type": "DT_FLOAT"}, "value": {"tensor": {"dtype": "DT_FLOAT", "tensorShape": {"dim": [{"size": "2"}]}}}}}, {"name": "PartitionedCall/PartitionedCall/strided_slice_1/stack", "op": "Const", "attr": {"value": {"tensor": {"dtype": "DT_INT32", "tensorShape": {"dim": [{"size": "1"}]}}}, "dtype": {"type": "DT_INT32"}}}, {"name": "PartitionedCall/PartitionedCall/strided_slice_1/stack_1", "op": "Const", "attr": {"dtype": {"type": "DT_INT32"}, "value": {"tensor": {"dtype": "DT_INT32", "tensorShape": {"dim": [{"size": "1"}]}}}}}, {"name": "PartitionedCall/PartitionedCall/strided_slice_1/stack_2", "op": "Const", "attr": {"dtype": {"type": "DT_INT32"}, "value": {"tensor": {"dtype": "DT_INT32", "tensorShape": {"dim": [{"size": "1"}]}}}}}, {"name": "PartitionedCall/PartitionedCall/split_26", "op": "Const", "attr": {"dtype": {"type": "DT_FLOAT"}, "value": {"tensor": {"dtype": "DT_FLOAT", "tensorShape": {"dim": [{"size": "1"}, {"size": "1"}, {"size": "32"}, {"size": "96"}]}}}}}, {"name": "PartitionedCall/PartitionedCall/Const_15", "op": "Const", "attr": {"dtype": {"type": "DT_INT32"}, "value": {"tensor": {"dtype": "DT_INT32", "tensorShape": {"dim": [{"size": "4"}, {"size": "2"}]}}}}}, {"name": "PartitionedCall/PartitionedCall/Reshape_13", "op": "Const", "attr": {"value": {"tensor": {"dtype": "DT_FLOAT", "tensorShape": {"dim": [{"size": "3"}, {"size": "3"}, {"size": "96"}, {"size": "1"}]}}}, "dtype": {"type": "DT_FLOAT"}}}, {"name": "PartitionedCall/PartitionedCall/BiasAdd_39/bias", "op": "Const", "attr": {"dtype": {"type": "DT_FLOAT"}, "value": {"tensor": {"dtype": "DT_FLOAT", "tensorShape": {"dim": [{"size": "96"}]}}}}}, {"name": "PartitionedCall/PartitionedCall/split_27", "op": "Const", "attr": {"dtype": {"type": "DT_FLOAT"}, "value": {"tensor": {"dtype": "DT_FLOAT", "tensorShape": {"dim": [{"size": "1"}, {"size": "1"}, {"size": "96"}, {"size": "32"}]}}}}}, {"name": "PartitionedCall/PartitionedCall/BiasAdd_40/bias", "op": "Const", "attr": {"dtype": {"type": "DT_FLOAT"}, "value": {"tensor": {"dtype": "DT_FLOAT", "tensorShape": {"dim": [{"size": "32"}]}}}}}, {"name": "PartitionedCall/PartitionedCall/strided_slice_3/stack", "op": "Const", "attr": {"value": {"tensor": {"dtype": "DT_INT32", "tensorShape": {"dim": [{"size": "1"}]}}}, "dtype": {"type": "DT_INT32"}}}, {"name": "PartitionedCall/PartitionedCall/strided_slice_3/stack_1", "op": "Const", "attr": {"dtype": {"type": "DT_INT32"}, "value": {"tensor": {"dtype": "DT_INT32", "tensorShape": {"dim": [{"size": "1"}]}}}}}, {"name": "PartitionedCall/PartitionedCall/strided_slice_3/stack_2", "op": "Const", "attr": {"dtype": {"type": "DT_INT32"}, "value": {"tensor": {"dtype": "DT_INT32", "tensorShape": {"dim": [{"size": "1"}]}}}}}, {"name": "PartitionedCall/PartitionedCall/split_28", "op": "Const", "attr": {"value": {"tensor": {"dtype": "DT_FLOAT", "tensorShape": {"dim": [{"size": "1"}, {"size": "1"}, {"size": "24"}, {"size": "32"}]}}}, "dtype": {"type": "DT_FLOAT"}}}, {"name": "PartitionedCall/PartitionedCall/Const_17", "op": "Const", "attr": {"dtype": {"type": "DT_INT32"}, "value": {"tensor": {"dtype": "DT_INT32", "tensorShape": {"dim": [{"size": "4"}, {"size": "2"}]}}}}}, {"name": "PartitionedCall/PartitionedCall/Reshape_14", "op": "Const", "attr": {"value": {"tensor": {"dtype": "DT_FLOAT", "tensorShape": {"dim": [{"size": "3"}, {"size": "3"}, {"size": "32"}, {"size": "1"}]}}}, "dtype": {"type": "DT_FLOAT"}}}, {"name": "PartitionedCall/PartitionedCall/BiasAdd_41/bias", "op": "Const", "attr": {"value": {"tensor": {"dtype": "DT_FLOAT", "tensorShape": {"dim": [{"size": "32"}]}}}, "dtype": {"type": "DT_FLOAT"}}}, {"name": "PartitionedCall/PartitionedCall/split_29", "op": "Const", "attr": {"value": {"tensor": {"dtype": "DT_FLOAT", "tensorShape": {"dim": [{"size": "1"}, {"size": "1"}, {"size": "32"}, {"size": "24"}]}}}, "dtype": {"type": "DT_FLOAT"}}}, {"name": "PartitionedCall/PartitionedCall/BiasAdd_42/bias", "op": "Const", "attr": {"dtype": {"type": "DT_FLOAT"}, "value": {"tensor": {"dtype": "DT_FLOAT", "tensorShape": {"dim": [{"size": "24"}]}}}}}, {"name": "PartitionedCall/PartitionedCall/strided_slice_5/stack", "op": "Const", "attr": {"value": {"tensor": {"dtype": "DT_INT32", "tensorShape": {"dim": [{"size": "1"}]}}}, "dtype": {"type": "DT_INT32"}}}, {"name": "PartitionedCall/PartitionedCall/strided_slice_5/stack_1", "op": "Const", "attr": {"value": {"tensor": {"dtype": "DT_INT32", "tensorShape": {"dim": [{"size": "1"}]}}}, "dtype": {"type": "DT_INT32"}}}, {"name": "PartitionedCall/PartitionedCall/strided_slice_5/stack_2", "op": "Const", "attr": {"dtype": {"type": "DT_INT32"}, "value": {"tensor": {"dtype": "DT_INT32", "tensorShape": {"dim": [{"size": "1"}]}}}}}, {"name": "PartitionedCall/PartitionedCall/split_30", "op": "Const", "attr": {"dtype": {"type": "DT_FLOAT"}, "value": {"tensor": {"dtype": "DT_FLOAT", "tensorShape": {"dim": [{"size": "1"}, {"size": "1"}, {"size": "16"}, {"size": "24"}]}}}}}, {"name": "PartitionedCall/PartitionedCall/Const_19", "op": "Const", "attr": {"value": {"tensor": {"dtype": "DT_INT32", "tensorShape": {"dim": [{"size": "4"}, {"size": "2"}]}}}, "dtype": {"type": "DT_INT32"}}}, {"name": "PartitionedCall/PartitionedCall/Reshape_15", "op": "Const", "attr": {"dtype": {"type": "DT_FLOAT"}, "value": {"tensor": {"dtype": "DT_FLOAT", "tensorShape": {"dim": [{"size": "3"}, {"size": "3"}, {"size": "24"}, {"size": "1"}]}}}}}, {"name": "PartitionedCall/PartitionedCall/BiasAdd_43/bias", "op": "Const", "attr": {"dtype": {"type": "DT_FLOAT"}, "value": {"tensor": {"dtype": "DT_FLOAT", "tensorShape": {"dim": [{"size": "24"}]}}}}}, {"name": "PartitionedCall/PartitionedCall/split_31", "op": "Const", "attr": {"dtype": {"type": "DT_FLOAT"}, "value": {"tensor": {"dtype": "DT_FLOAT", "tensorShape": {"dim": [{"size": "1"}, {"size": "1"}, {"size": "24"}, {"size": "16"}]}}}}}, {"name": "PartitionedCall/PartitionedCall/BiasAdd_44/bias", "op": "Const", "attr": {"value": {"tensor": {"dtype": "DT_FLOAT", "tensorShape": {"dim": [{"size": "16"}]}}}, "dtype": {"type": "DT_FLOAT"}}}, {"name": "PartitionedCall/PartitionedCall/strided_slice_7/stack", "op": "Const", "attr": {"dtype": {"type": "DT_INT32"}, "value": {"tensor": {"dtype": "DT_INT32", "tensorShape": {"dim": [{"size": "1"}]}}}}}, {"name": "PartitionedCall/PartitionedCall/strided_slice_7/stack_1", "op": "Const", "attr": {"value": {"tensor": {"dtype": "DT_INT32", "tensorShape": {"dim": [{"size": "1"}]}}}, "dtype": {"type": "DT_INT32"}}}, {"name": "PartitionedCall/PartitionedCall/strided_slice_7/stack_2", "op": "Const", "attr": {"value": {"tensor": {"dtype": "DT_INT32", "tensorShape": {"dim": [{"size": "1"}]}}}, "dtype": {"type": "DT_INT32"}}}, {"name": "PartitionedCall/PartitionedCall/Const_21", "op": "Const", "attr": {"dtype": {"type": "DT_INT32"}, "value": {"tensor": {"dtype": "DT_INT32", "tensorShape": {"dim": [{"size": "4"}, {"size": "2"}]}}}}}, {"name": "PartitionedCall/PartitionedCall/Reshape_16", "op": "Const", "attr": {"value": {"tensor": {"dtype": "DT_FLOAT", "tensorShape": {"dim": [{"size": "3"}, {"size": "3"}, {"size": "16"}, {"size": "1"}]}}}, "dtype": {"type": "DT_FLOAT"}}}, {"name": "PartitionedCall/PartitionedCall/BiasAdd_45/bias", "op": "Const", "attr": {"value": {"tensor": {"dtype": "DT_FLOAT", "tensorShape": {"dim": [{"size": "16"}]}}}, "dtype": {"type": "DT_FLOAT"}}}, {"name": "PartitionedCall/PartitionedCall/split_32", "op": "Const", "attr": {"dtype": {"type": "DT_FLOAT"}, "value": {"tensor": {"dtype": "DT_FLOAT", "tensorShape": {"dim": [{"size": "1"}, {"size": "1"}, {"size": "16"}, {"size": "16"}]}}}}}, {"name": "PartitionedCall/PartitionedCall/BiasAdd_46/bias", "op": "Const", "attr": {"dtype": {"type": "DT_FLOAT"}, "value": {"tensor": {"dtype": "DT_FLOAT", "tensorShape": {"dim": [{"size": "16"}]}}}}}, {"name": "PartitionedCall/PartitionedCall/Const_22", "op": "Const", "attr": {"dtype": {"type": "DT_INT32"}, "value": {"tensor": {"dtype": "DT_INT32", "tensorShape": {"dim": [{"size": "4"}, {"size": "2"}]}}}}}, {"name": "PartitionedCall/PartitionedCall/Reshape_17", "op": "Const", "attr": {"dtype": {"type": "DT_FLOAT"}, "value": {"tensor": {"dtype": "DT_FLOAT", "tensorShape": {"dim": [{"size": "3"}, {"size": "3"}, {"size": "16"}, {"size": "1"}]}}}}}, {"name": "PartitionedCall/PartitionedCall/BiasAdd_47/bias", "op": "Const", "attr": {"value": {"tensor": {"dtype": "DT_FLOAT", "tensorShape": {"dim": [{"size": "16"}]}}}, "dtype": {"type": "DT_FLOAT"}}}, {"name": "PartitionedCall/PartitionedCall/split_33", "op": "Const", "attr": {"value": {"tensor": {"dtype": "DT_FLOAT", "tensorShape": {"dim": [{"size": "1"}, {"size": "1"}, {"size": "16"}, {"size": "16"}]}}}, "dtype": {"type": "DT_FLOAT"}}}, {"name": "PartitionedCall/PartitionedCall/BiasAdd_48/bias", "op": "Const", "attr": {"value": {"tensor": {"dtype": "DT_FLOAT", "tensorShape": {"dim": [{"size": "16"}]}}}, "dtype": {"type": "DT_FLOAT"}}}, {"name": "PartitionedCall/PartitionedCall/split_34", "op": "Const", "attr": {"dtype": {"type": "DT_FLOAT"}, "value": {"tensor": {"dtype": "DT_FLOAT", "tensorShape": {"dim": [{"size": "1"}, {"size": "1"}, {"size": "16"}, {"size": "1"}]}}}}}, {"name": "PartitionedCall/PartitionedCall/BiasAdd_49/bias", "op": "Const", "attr": {"dtype": {"type": "DT_FLOAT"}, "value": {"tensor": {"dtype": "DT_FLOAT", "tensorShape": {"dim": [{"size": "1"}]}}}}}, {"name": "ConstantFolding/PartitionedCall/truediv_7_recip", "op": "Const", "attr": {"value": {"tensor": {"dtype": "DT_FLOAT", "tensorShape": {}}}, "dtype": {"type": "DT_FLOAT"}}}, {"name": "PartitionedCall/mul_4/y", "op": "Const", "attr": {"value": {"tensor": {"dtype": "DT_FLOAT", "tensorShape": {}}}, "dtype": {"type": "DT_FLOAT"}}}, {"name": "PartitionedCall/add/y", "op": "Const", "attr": {"dtype": {"type": "DT_FLOAT"}, "value": {"tensor": {"dtype": "DT_FLOAT", "tensorShape": {}}}}}, {"name": "PartitionedCall/ExpandDims/dim", "op": "Const", "attr": {"dtype": {"type": "DT_INT32"}, "value": {"tensor": {"dtype": "DT_INT32", "tensorShape": {}}}}}, {"name": "PartitionedCall/strided_slice_2/stack", "op": "Const", "attr": {"value": {"tensor": {"dtype": "DT_INT32", "tensorShape": {"dim": [{"size": "1"}]}}}, "dtype": {"type": "DT_INT32"}}}, {"name": "PartitionedCall/strided_slice_2/stack_1", "op": "Const", "attr": {"value": {"tensor": {"dtype": "DT_INT32", "tensorShape": {"dim": [{"size": "1"}]}}}, "dtype": {"type": "DT_INT32"}}}, {"name": "PartitionedCall/strided_slice_2/stack_2", "op": "Const", "attr": {"value": {"tensor": {"dtype": "DT_INT32", "tensorShape": {"dim": [{"size": "1"}]}}}, "dtype": {"type": "DT_INT32"}}}, {"name": "PartitionedCall/PartitionedCall/strided_slice_10", "op": "Const", "attr": {"dtype": {"type": "DT_FLOAT"}, "value": {"tensor": {"dtype": "DT_FLOAT", "tensorShape": {"dim": [{"size": "2"}]}}}}}, {"name": "PartitionedCall/PartitionedCall/strided_slice_8", "op": "Const", "attr": {"value": {"tensor": {"dtype": "DT_FLOAT", "tensorShape": {"dim": [{"size": "2"}]}}}, "dtype": {"type": "DT_FLOAT"}}}, {"name": "ConstantFolding/PartitionedCall/truediv_2_recip", "op": "Const", "attr": {"dtype": {"type": "DT_FLOAT"}, "value": {"tensor": {"dtype": "DT_FLOAT", "tensorShape": {}}}}}, {"name": "PartitionedCall/mul_1/y", "op": "Const", "attr": {"dtype": {"type": "DT_FLOAT"}, "value": {"tensor": {"dtype": "DT_FLOAT", "tensorShape": {}}}}}, {"name": "PartitionedCall/Cast", "op": "Const", "attr": {"dtype": {"type": "DT_FLOAT"}, "value": {"tensor": {"dtype": "DT_FLOAT", "tensorShape": {}}}}}, {"name": "PartitionedCall/Cast_2", "op": "Const", "attr": {"value": {"tensor": {"dtype": "DT_FLOAT", "tensorShape": {}}}, "dtype": {"type": "DT_FLOAT"}}}, {"name": "ConstantFolding/PartitionedCall/truediv_3_recip", "op": "Const", "attr": {"dtype": {"type": "DT_FLOAT"}, "value": {"tensor": {"dtype": "DT_FLOAT", "tensorShape": {}}}}}, {"name": "PartitionedCall/mul_3/y", "op": "Const", "attr": {"value": {"tensor": {"dtype": "DT_FLOAT", "tensorShape": {}}}, "dtype": {"type": "DT_FLOAT"}}}, {"name": "ConstantFolding/PartitionedCall/truediv_4_recip", "op": "Const", "attr": {"dtype": {"type": "DT_FLOAT"}, "value": {"tensor": {"dtype": "DT_FLOAT", "tensorShape": {}}}}}, {"name": "PartitionedCall/Sub/y", "op": "Const", "attr": {"dtype": {"type": "DT_FLOAT"}, "value": {"tensor": {"dtype": "DT_FLOAT", "tensorShape": {"dim": [{"size": "1"}, {"size": "1"}, {"size": "1"}, {"size": "3"}]}}}}}, {"name": "ConstantFolding/PartitionedCall/truediv_5_recip", "op": "Const", "attr": {"dtype": {"type": "DT_FLOAT"}, "value": {"tensor": {"dtype": "DT_FLOAT", "tensorShape": {"dim": [{"size": "1"}, {"size": "1"}, {"size": "1"}, {"size": "3"}]}}}}}, {"name": "PartitionedCall/PartitionedCall/Const", "op": "Const", "attr": {"dtype": {"type": "DT_INT32"}, "value": {"tensor": {"dtype": "DT_INT32", "tensorShape": {"dim": [{"size": "4"}, {"size": "2"}]}}}}}, {"name": "PartitionedCall/PartitionedCall/split", "op": "Const", "attr": {"value": {"tensor": {"dtype": "DT_FLOAT", "tensorShape": {"dim": [{"size": "3"}, {"size": "3"}, {"size": "3"}, {"size": "32"}]}}}, "dtype": {"type": "DT_FLOAT"}}}, {"name": "PartitionedCall/PartitionedCall/BiasAdd/bias", "op": "Const", "attr": {"value": {"tensor": {"dtype": "DT_FLOAT", "tensorShape": {"dim": [{"size": "32"}]}}}, "dtype": {"type": "DT_FLOAT"}}}, {"name": "PartitionedCall/PartitionedCall/Const_1", "op": "Const", "attr": {"dtype": {"type": "DT_INT32"}, "value": {"tensor": {"dtype": "DT_INT32", "tensorShape": {"dim": [{"size": "4"}, {"size": "2"}]}}}}}, {"name": "PartitionedCall/PartitionedCall/Reshape", "op": "Const", "attr": {"dtype": {"type": "DT_FLOAT"}, "value": {"tensor": {"dtype": "DT_FLOAT", "tensorShape": {"dim": [{"size": "3"}, {"size": "3"}, {"size": "32"}, {"size": "1"}]}}}}}, {"name": "PartitionedCall/PartitionedCall/BiasAdd_1/bias", "op": "Const", "attr": {"value": {"tensor": {"dtype": "DT_FLOAT", "tensorShape": {"dim": [{"size": "32"}]}}}, "dtype": {"type": "DT_FLOAT"}}}, {"name": "PartitionedCall/PartitionedCall/split_1", "op": "Const", "attr": {"value": {"tensor": {"dtype": "DT_FLOAT", "tensorShape": {"dim": [{"size": "1"}, {"size": "1"}, {"size": "32"}, {"size": "16"}]}}}, "dtype": {"type": "DT_FLOAT"}}}, {"name": "PartitionedCall/PartitionedCall/BiasAdd_2/bias", "op": "Const", "attr": {"value": {"tensor": {"dtype": "DT_FLOAT", "tensorShape": {"dim": [{"size": "16"}]}}}, "dtype": {"type": "DT_FLOAT"}}}, {"name": "PartitionedCall/PartitionedCall/split_2", "op": "Const", "attr": {"dtype": {"type": "DT_FLOAT"}, "value": {"tensor": {"dtype": "DT_FLOAT", "tensorShape": {"dim": [{"size": "1"}, {"size": "1"}, {"size": "16"}, {"size": "96"}]}}}}}, {"name": "PartitionedCall/PartitionedCall/BiasAdd_3/bias", "op": "Const", "attr": {"dtype": {"type": "DT_FLOAT"}, "value": {"tensor": {"dtype": "DT_FLOAT", "tensorShape": {"dim": [{"size": "96"}]}}}}}, {"name": "PartitionedCall/PartitionedCall/Const_2", "op": "Const", "attr": {"dtype": {"type": "DT_INT32"}, "value": {"tensor": {"dtype": "DT_INT32", "tensorShape": {"dim": [{"size": "4"}, {"size": "2"}]}}}}}, {"name": "PartitionedCall/PartitionedCall/Reshape_1", "op": "Const", "attr": {"dtype": {"type": "DT_FLOAT"}, "value": {"tensor": {"dtype": "DT_FLOAT", "tensorShape": {"dim": [{"size": "3"}, {"size": "3"}, {"size": "96"}, {"size": "1"}]}}}}}, {"name": "PartitionedCall/PartitionedCall/BiasAdd_4/bias", "op": "Const", "attr": {"dtype": {"type": "DT_FLOAT"}, "value": {"tensor": {"dtype": "DT_FLOAT", "tensorShape": {"dim": [{"size": "96"}]}}}}}, {"name": "PartitionedCall/PartitionedCall/split_3", "op": "Const", "attr": {"value": {"tensor": {"dtype": "DT_FLOAT", "tensorShape": {"dim": [{"size": "1"}, {"size": "1"}, {"size": "96"}, {"size": "24"}]}}}, "dtype": {"type": "DT_FLOAT"}}}, {"name": "PartitionedCall/PartitionedCall/BiasAdd_5/bias", "op": "Const", "attr": {"dtype": {"type": "DT_FLOAT"}, "value": {"tensor": {"dtype": "DT_FLOAT", "tensorShape": {"dim": [{"size": "24"}]}}}}}, {"name": "PartitionedCall/PartitionedCall/split_4", "op": "Const", "attr": {"dtype": {"type": "DT_FLOAT"}, "value": {"tensor": {"dtype": "DT_FLOAT", "tensorShape": {"dim": [{"size": "1"}, {"size": "1"}, {"size": "24"}, {"size": "144"}]}}}}}, {"name": "PartitionedCall/PartitionedCall/BiasAdd_6/bias", "op": "Const", "attr": {"value": {"tensor": {"dtype": "DT_FLOAT", "tensorShape": {"dim": [{"size": "144"}]}}}, "dtype": {"type": "DT_FLOAT"}}}, {"name": "PartitionedCall/PartitionedCall/Const_3", "op": "Const", "attr": {"dtype": {"type": "DT_INT32"}, "value": {"tensor": {"dtype": "DT_INT32", "tensorShape": {"dim": [{"size": "4"}, {"size": "2"}]}}}}}, {"name": "PartitionedCall/PartitionedCall/Reshape_2", "op": "Const", "attr": {"dtype": {"type": "DT_FLOAT"}, "value": {"tensor": {"dtype": "DT_FLOAT", "tensorShape": {"dim": [{"size": "3"}, {"size": "3"}, {"size": "144"}, {"size": "1"}]}}}}}, {"name": "PartitionedCall/PartitionedCall/BiasAdd_7/bias", "op": "Const", "attr": {"value": {"tensor": {"dtype": "DT_FLOAT", "tensorShape": {"dim": [{"size": "144"}]}}}, "dtype": {"type": "DT_FLOAT"}}}, {"name": "PartitionedCall/PartitionedCall/split_5", "op": "Const", "attr": {"dtype": {"type": "DT_FLOAT"}, "value": {"tensor": {"dtype": "DT_FLOAT", "tensorShape": {"dim": [{"size": "1"}, {"size": "1"}, {"size": "144"}, {"size": "24"}]}}}}}, {"name": "PartitionedCall/PartitionedCall/BiasAdd_8/bias", "op": "Const", "attr": {"dtype": {"type": "DT_FLOAT"}, "value": {"tensor": {"dtype": "DT_FLOAT", "tensorShape": {"dim": [{"size": "24"}]}}}}}, {"name": "PartitionedCall/PartitionedCall/split_6", "op": "Const", "attr": {"value": {"tensor": {"dtype": "DT_FLOAT", "tensorShape": {"dim": [{"size": "1"}, {"size": "1"}, {"size": "24"}, {"size": "144"}]}}}, "dtype": {"type": "DT_FLOAT"}}}, {"name": "PartitionedCall/PartitionedCall/BiasAdd_9/bias", "op": "Const", "attr": {"value": {"tensor": {"dtype": "DT_FLOAT", "tensorShape": {"dim": [{"size": "144"}]}}}, "dtype": {"type": "DT_FLOAT"}}}, {"name": "PartitionedCall/PartitionedCall/Const_4", "op": "Const", "attr": {"value": {"tensor": {"dtype": "DT_INT32", "tensorShape": {"dim": [{"size": "4"}, {"size": "2"}]}}}, "dtype": {"type": "DT_INT32"}}}, {"name": "PartitionedCall/PartitionedCall/Reshape_3", "op": "Const", "attr": {"dtype": {"type": "DT_FLOAT"}, "value": {"tensor": {"dtype": "DT_FLOAT", "tensorShape": {"dim": [{"size": "3"}, {"size": "3"}, {"size": "144"}, {"size": "1"}]}}}}}, {"name": "PartitionedCall/PartitionedCall/BiasAdd_10/bias", "op": "Const", "attr": {"value": {"tensor": {"dtype": "DT_FLOAT", "tensorShape": {"dim": [{"size": "144"}]}}}, "dtype": {"type": "DT_FLOAT"}}}, {"name": "PartitionedCall/PartitionedCall/split_7", "op": "Const", "attr": {"value": {"tensor": {"dtype": "DT_FLOAT", "tensorShape": {"dim": [{"size": "1"}, {"size": "1"}, {"size": "144"}, {"size": "32"}]}}}, "dtype": {"type": "DT_FLOAT"}}}, {"name": "PartitionedCall/PartitionedCall/BiasAdd_11/bias", "op": "Const", "attr": {"dtype": {"type": "DT_FLOAT"}, "value": {"tensor": {"dtype": "DT_FLOAT", "tensorShape": {"dim": [{"size": "32"}]}}}}}, {"name": "PartitionedCall/PartitionedCall/split_8", "op": "Const", "attr": {"dtype": {"type": "DT_FLOAT"}, "value": {"tensor": {"dtype": "DT_FLOAT", "tensorShape": {"dim": [{"size": "1"}, {"size": "1"}, {"size": "32"}, {"size": "192"}]}}}}}, {"name": "PartitionedCall/PartitionedCall/BiasAdd_12/bias", "op": "Const", "attr": {"dtype": {"type": "DT_FLOAT"}, "value": {"tensor": {"dtype": "DT_FLOAT", "tensorShape": {"dim": [{"size": "192"}]}}}}}, {"name": "PartitionedCall/PartitionedCall/Const_5", "op": "Const", "attr": {"value": {"tensor": {"dtype": "DT_INT32", "tensorShape": {"dim": [{"size": "4"}, {"size": "2"}]}}}, "dtype": {"type": "DT_INT32"}}}, {"name": "PartitionedCall/PartitionedCall/Reshape_4", "op": "Const", "attr": {"dtype": {"type": "DT_FLOAT"}, "value": {"tensor": {"dtype": "DT_FLOAT", "tensorShape": {"dim": [{"size": "3"}, {"size": "3"}, {"size": "192"}, {"size": "1"}]}}}}}, {"name": "PartitionedCall/PartitionedCall/BiasAdd_13/bias", "op": "Const", "attr": {"value": {"tensor": {"dtype": "DT_FLOAT", "tensorShape": {"dim": [{"size": "192"}]}}}, "dtype": {"type": "DT_FLOAT"}}}, {"name": "PartitionedCall/PartitionedCall/split_9", "op": "Const", "attr": {"value": {"tensor": {"dtype": "DT_FLOAT", "tensorShape": {"dim": [{"size": "1"}, {"size": "1"}, {"size": "192"}, {"size": "32"}]}}}, "dtype": {"type": "DT_FLOAT"}}}, {"name": "PartitionedCall/PartitionedCall/BiasAdd_14/bias", "op": "Const", "attr": {"value": {"tensor": {"dtype": "DT_FLOAT", "tensorShape": {"dim": [{"size": "32"}]}}}, "dtype": {"type": "DT_FLOAT"}}}, {"name": "PartitionedCall/PartitionedCall/split_10", "op": "Const", "attr": {"dtype": {"type": "DT_FLOAT"}, "value": {"tensor": {"dtype": "DT_FLOAT", "tensorShape": {"dim": [{"size": "1"}, {"size": "1"}, {"size": "32"}, {"size": "192"}]}}}}}, {"name": "PartitionedCall/PartitionedCall/BiasAdd_15/bias", "op": "Const", "attr": {"value": {"tensor": {"dtype": "DT_FLOAT", "tensorShape": {"dim": [{"size": "192"}]}}}, "dtype": {"type": "DT_FLOAT"}}}, {"name": "PartitionedCall/PartitionedCall/Const_6", "op": "Const", "attr": {"value": {"tensor": {"dtype": "DT_INT32", "tensorShape": {"dim": [{"size": "4"}, {"size": "2"}]}}}, "dtype": {"type": "DT_INT32"}}}, {"name": "PartitionedCall/PartitionedCall/Reshape_5", "op": "Const", "attr": {"dtype": {"type": "DT_FLOAT"}, "value": {"tensor": {"dtype": "DT_FLOAT", "tensorShape": {"dim": [{"size": "3"}, {"size": "3"}, {"size": "192"}, {"size": "1"}]}}}}}, {"name": "PartitionedCall/PartitionedCall/BiasAdd_16/bias", "op": "Const", "attr": {"dtype": {"type": "DT_FLOAT"}, "value": {"tensor": {"dtype": "DT_FLOAT", "tensorShape": {"dim": [{"size": "192"}]}}}}}, {"name": "PartitionedCall/PartitionedCall/split_11", "op": "Const", "attr": {"value": {"tensor": {"dtype": "DT_FLOAT", "tensorShape": {"dim": [{"size": "1"}, {"size": "1"}, {"size": "192"}, {"size": "32"}]}}}, "dtype": {"type": "DT_FLOAT"}}}, {"name": "PartitionedCall/PartitionedCall/BiasAdd_17/bias", "op": "Const", "attr": {"value": {"tensor": {"dtype": "DT_FLOAT", "tensorShape": {"dim": [{"size": "32"}]}}}, "dtype": {"type": "DT_FLOAT"}}}, {"name": "PartitionedCall/PartitionedCall/split_12", "op": "Const", "attr": {"dtype": {"type": "DT_FLOAT"}, "value": {"tensor": {"dtype": "DT_FLOAT", "tensorShape": {"dim": [{"size": "1"}, {"size": "1"}, {"size": "32"}, {"size": "192"}]}}}}}, {"name": "PartitionedCall/PartitionedCall/BiasAdd_18/bias", "op": "Const", "attr": {"value": {"tensor": {"dtype": "DT_FLOAT", "tensorShape": {"dim": [{"size": "192"}]}}}, "dtype": {"type": "DT_FLOAT"}}}, {"name": "PartitionedCall/PartitionedCall/Const_7", "op": "Const", "attr": {"dtype": {"type": "DT_INT32"}, "value": {"tensor": {"dtype": "DT_INT32", "tensorShape": {"dim": [{"size": "4"}, {"size": "2"}]}}}}}, {"name": "PartitionedCall/PartitionedCall/Reshape_6", "op": "Const", "attr": {"value": {"tensor": {"dtype": "DT_FLOAT", "tensorShape": {"dim": [{"size": "3"}, {"size": "3"}, {"size": "192"}, {"size": "1"}]}}}, "dtype": {"type": "DT_FLOAT"}}}, {"name": "PartitionedCall/PartitionedCall/BiasAdd_19/bias", "op": "Const", "attr": {"dtype": {"type": "DT_FLOAT"}, "value": {"tensor": {"dtype": "DT_FLOAT", "tensorShape": {"dim": [{"size": "192"}]}}}}}, {"name": "PartitionedCall/PartitionedCall/split_13", "op": "Const", "attr": {"value": {"tensor": {"dtype": "DT_FLOAT", "tensorShape": {"dim": [{"size": "1"}, {"size": "1"}, {"size": "192"}, {"size": "64"}]}}}, "dtype": {"type": "DT_FLOAT"}}}, {"name": "PartitionedCall/PartitionedCall/BiasAdd_20/bias", "op": "Const", "attr": {"dtype": {"type": "DT_FLOAT"}, "value": {"tensor": {"dtype": "DT_FLOAT", "tensorShape": {"dim": [{"size": "64"}]}}}}}, {"name": "PartitionedCall/PartitionedCall/split_14", "op": "Const", "attr": {"dtype": {"type": "DT_FLOAT"}, "value": {"tensor": {"dtype": "DT_FLOAT", "tensorShape": {"dim": [{"size": "1"}, {"size": "1"}, {"size": "64"}, {"size": "384"}]}}}}}, {"name": "PartitionedCall/PartitionedCall/BiasAdd_21/bias", "op": "Const", "attr": {"value": {"tensor": {"dtype": "DT_FLOAT", "tensorShape": {"dim": [{"size": "384"}]}}}, "dtype": {"type": "DT_FLOAT"}}}, {"name": "PartitionedCall/PartitionedCall/Const_8", "op": "Const", "attr": {"value": {"tensor": {"dtype": "DT_INT32", "tensorShape": {"dim": [{"size": "4"}, {"size": "2"}]}}}, "dtype": {"type": "DT_INT32"}}}, {"name": "PartitionedCall/PartitionedCall/Reshape_7", "op": "Const", "attr": {"dtype": {"type": "DT_FLOAT"}, "value": {"tensor": {"dtype": "DT_FLOAT", "tensorShape": {"dim": [{"size": "3"}, {"size": "3"}, {"size": "384"}, {"size": "1"}]}}}}}, {"name": "PartitionedCall/PartitionedCall/BiasAdd_22/bias", "op": "Const", "attr": {"value": {"tensor": {"dtype": "DT_FLOAT", "tensorShape": {"dim": [{"size": "384"}]}}}, "dtype": {"type": "DT_FLOAT"}}}, {"name": "PartitionedCall/PartitionedCall/split_15", "op": "Const", "attr": {"value": {"tensor": {"dtype": "DT_FLOAT", "tensorShape": {"dim": [{"size": "1"}, {"size": "1"}, {"size": "384"}, {"size": "64"}]}}}, "dtype": {"type": "DT_FLOAT"}}}, {"name": "PartitionedCall/PartitionedCall/BiasAdd_23/bias", "op": "Const", "attr": {"value": {"tensor": {"dtype": "DT_FLOAT", "tensorShape": {"dim": [{"size": "64"}]}}}, "dtype": {"type": "DT_FLOAT"}}}, {"name": "PartitionedCall/PartitionedCall/split_16", "op": "Const", "attr": {"value": {"tensor": {"dtype": "DT_FLOAT", "tensorShape": {"dim": [{"size": "1"}, {"size": "1"}, {"size": "64"}, {"size": "384"}]}}}, "dtype": {"type": "DT_FLOAT"}}}, {"name": "PartitionedCall/PartitionedCall/BiasAdd_24/bias", "op": "Const", "attr": {"dtype": {"type": "DT_FLOAT"}, "value": {"tensor": {"dtype": "DT_FLOAT", "tensorShape": {"dim": [{"size": "384"}]}}}}}, {"name": "PartitionedCall/PartitionedCall/Const_9", "op": "Const", "attr": {"value": {"tensor": {"dtype": "DT_INT32", "tensorShape": {"dim": [{"size": "4"}, {"size": "2"}]}}}, "dtype": {"type": "DT_INT32"}}}, {"name": "PartitionedCall/PartitionedCall/Reshape_8", "op": "Const", "attr": {"value": {"tensor": {"dtype": "DT_FLOAT", "tensorShape": {"dim": [{"size": "3"}, {"size": "3"}, {"size": "384"}, {"size": "1"}]}}}, "dtype": {"type": "DT_FLOAT"}}}, {"name": "PartitionedCall/PartitionedCall/BiasAdd_25/bias", "op": "Const", "attr": {"dtype": {"type": "DT_FLOAT"}, "value": {"tensor": {"dtype": "DT_FLOAT", "tensorShape": {"dim": [{"size": "384"}]}}}}}, {"name": "PartitionedCall/PartitionedCall/split_17", "op": "Const", "attr": {"dtype": {"type": "DT_FLOAT"}, "value": {"tensor": {"dtype": "DT_FLOAT", "tensorShape": {"dim": [{"size": "1"}, {"size": "1"}, {"size": "384"}, {"size": "64"}]}}}}}, {"name": "PartitionedCall/PartitionedCall/BiasAdd_26/bias", "op": "Const", "attr": {"value": {"tensor": {"dtype": "DT_FLOAT", "tensorShape": {"dim": [{"size": "64"}]}}}, "dtype": {"type": "DT_FLOAT"}}}, {"name": "PartitionedCall/PartitionedCall/split_18", "op": "Const", "attr": {"dtype": {"type": "DT_FLOAT"}, "value": {"tensor": {"dtype": "DT_FLOAT", "tensorShape": {"dim": [{"size": "1"}, {"size": "1"}, {"size": "64"}, {"size": "384"}]}}}}}, {"name": "PartitionedCall/PartitionedCall/BiasAdd_27/bias", "op": "Const", "attr": {"value": {"tensor": {"dtype": "DT_FLOAT", "tensorShape": {"dim": [{"size": "384"}]}}}, "dtype": {"type": "DT_FLOAT"}}}, {"name": "PartitionedCall/PartitionedCall/Const_10", "op": "Const", "attr": {"value": {"tensor": {"dtype": "DT_INT32", "tensorShape": {"dim": [{"size": "4"}, {"size": "2"}]}}}, "dtype": {"type": "DT_INT32"}}}, {"name": "PartitionedCall/PartitionedCall/Reshape_9", "op": "Const", "attr": {"dtype": {"type": "DT_FLOAT"}, "value": {"tensor": {"dtype": "DT_FLOAT", "tensorShape": {"dim": [{"size": "3"}, {"size": "3"}, {"size": "384"}, {"size": "1"}]}}}}}, {"name": "PartitionedCall/PartitionedCall/BiasAdd_28/bias", "op": "Const", "attr": {"dtype": {"type": "DT_FLOAT"}, "value": {"tensor": {"dtype": "DT_FLOAT", "tensorShape": {"dim": [{"size": "384"}]}}}}}, {"name": "PartitionedCall/PartitionedCall/split_19", "op": "Const", "attr": {"value": {"tensor": {"dtype": "DT_FLOAT", "tensorShape": {"dim": [{"size": "1"}, {"size": "1"}, {"size": "384"}, {"size": "64"}]}}}, "dtype": {"type": "DT_FLOAT"}}}, {"name": "PartitionedCall/PartitionedCall/BiasAdd_29/bias", "op": "Const", "attr": {"value": {"tensor": {"dtype": "DT_FLOAT", "tensorShape": {"dim": [{"size": "64"}]}}}, "dtype": {"type": "DT_FLOAT"}}}, {"name": "PartitionedCall/PartitionedCall/split_20", "op": "Const", "attr": {"dtype": {"type": "DT_FLOAT"}, "value": {"tensor": {"dtype": "DT_FLOAT", "tensorShape": {"dim": [{"size": "1"}, {"size": "1"}, {"size": "64"}, {"size": "384"}]}}}}}, {"name": "PartitionedCall/PartitionedCall/BiasAdd_30/bias", "op": "Const", "attr": {"value": {"tensor": {"dtype": "DT_FLOAT", "tensorShape": {"dim": [{"size": "384"}]}}}, "dtype": {"type": "DT_FLOAT"}}}, {"name": "PartitionedCall/PartitionedCall/Const_11", "op": "Const", "attr": {"value": {"tensor": {"dtype": "DT_INT32", "tensorShape": {"dim": [{"size": "4"}, {"size": "2"}]}}}, "dtype": {"type": "DT_INT32"}}}, {"name": "PartitionedCall/PartitionedCall/Reshape_10", "op": "Const", "attr": {"value": {"tensor": {"dtype": "DT_FLOAT", "tensorShape": {"dim": [{"size": "3"}, {"size": "3"}, {"size": "384"}, {"size": "1"}]}}}, "dtype": {"type": "DT_FLOAT"}}}, {"name": "PartitionedCall/PartitionedCall/BiasAdd_31/bias", "op": "Const", "attr": {"dtype": {"type": "DT_FLOAT"}, "value": {"tensor": {"dtype": "DT_FLOAT", "tensorShape": {"dim": [{"size": "384"}]}}}}}, {"name": "PartitionedCall/PartitionedCall/split_21", "op": "Const", "attr": {"dtype": {"type": "DT_FLOAT"}, "value": {"tensor": {"dtype": "DT_FLOAT", "tensorShape": {"dim": [{"size": "1"}, {"size": "1"}, {"size": "384"}, {"size": "96"}]}}}}}, {"name": "PartitionedCall/PartitionedCall/BiasAdd_32/bias", "op": "Const", "attr": {"dtype": {"type": "DT_FLOAT"}, "value": {"tensor": {"dtype": "DT_FLOAT", "tensorShape": {"dim": [{"size": "96"}]}}}}}, {"name": "PartitionedCall/PartitionedCall/split_22", "op": "Const", "attr": {"value": {"tensor": {"dtype": "DT_FLOAT", "tensorShape": {"dim": [{"size": "1"}, {"size": "1"}, {"size": "96"}, {"size": "576"}]}}}, "dtype": {"type": "DT_FLOAT"}}}, {"name": "PartitionedCall/PartitionedCall/BiasAdd_33/bias", "op": "Const", "attr": {"value": {"tensor": {"dtype": "DT_FLOAT", "tensorShape": {"dim": [{"size": "576"}]}}}, "dtype": {"type": "DT_FLOAT"}}}, {"name": "PartitionedCall/PartitionedCall/Const_12", "op": "Const", "attr": {"value": {"tensor": {"dtype": "DT_INT32", "tensorShape": {"dim": [{"size": "4"}, {"size": "2"}]}}}, "dtype": {"type": "DT_INT32"}}}, {"name": "PartitionedCall/PartitionedCall/Reshape_11", "op": "Const", "attr": {"value": {"tensor": {"dtype": "DT_FLOAT", "tensorShape": {"dim": [{"size": "3"}, {"size": "3"}, {"size": "576"}, {"size": "1"}]}}}, "dtype": {"type": "DT_FLOAT"}}}, {"name": "PartitionedCall/PartitionedCall/BiasAdd_34/bias", "op": "Const", "attr": {"dtype": {"type": "DT_FLOAT"}, "value": {"tensor": {"dtype": "DT_FLOAT", "tensorShape": {"dim": [{"size": "576"}]}}}}}, {"name": "PartitionedCall/PartitionedCall/split_23", "op": "Const", "attr": {"value": {"tensor": {"dtype": "DT_FLOAT", "tensorShape": {"dim": [{"size": "1"}, {"size": "1"}, {"size": "576"}, {"size": "96"}]}}}, "dtype": {"type": "DT_FLOAT"}}}, {"name": "PartitionedCall/PartitionedCall/BiasAdd_35/bias", "op": "Const", "attr": {"dtype": {"type": "DT_FLOAT"}, "value": {"tensor": {"dtype": "DT_FLOAT", "tensorShape": {"dim": [{"size": "96"}]}}}}}, {"name": "PartitionedCall/PartitionedCall/split_24", "op": "Const", "attr": {"value": {"tensor": {"dtype": "DT_FLOAT", "tensorShape": {"dim": [{"size": "1"}, {"size": "1"}, {"size": "96"}, {"size": "576"}]}}}, "dtype": {"type": "DT_FLOAT"}}}, {"name": "PartitionedCall/PartitionedCall/BiasAdd_36/bias", "op": "Const", "attr": {"dtype": {"type": "DT_FLOAT"}, "value": {"tensor": {"dtype": "DT_FLOAT", "tensorShape": {"dim": [{"size": "576"}]}}}}}, {"name": "PartitionedCall/PartitionedCall/Const_13", "op": "Const", "attr": {"value": {"tensor": {"dtype": "DT_INT32", "tensorShape": {"dim": [{"size": "4"}, {"size": "2"}]}}}, "dtype": {"type": "DT_INT32"}}}, {"name": "PartitionedCall/PartitionedCall/Reshape_12", "op": "Const", "attr": {"value": {"tensor": {"dtype": "DT_FLOAT", "tensorShape": {"dim": [{"size": "3"}, {"size": "3"}, {"size": "576"}, {"size": "1"}]}}}, "dtype": {"type": "DT_FLOAT"}}}, {"name": "PartitionedCall/PartitionedCall/BiasAdd_37/bias", "op": "Const", "attr": {"dtype": {"type": "DT_FLOAT"}, "value": {"tensor": {"dtype": "DT_FLOAT", "tensorShape": {"dim": [{"size": "576"}]}}}}}, {"name": "PartitionedCall/PartitionedCall/split_25", "op": "Const", "attr": {"value": {"tensor": {"dtype": "DT_FLOAT", "tensorShape": {"dim": [{"size": "1"}, {"size": "1"}, {"size": "576"}, {"size": "96"}]}}}, "dtype": {"type": "DT_FLOAT"}}}, {"name": "PartitionedCall/PartitionedCall/BiasAdd_38/bias", "op": "Const", "attr": {"value": {"tensor": {"dtype": "DT_FLOAT", "tensorShape": {"dim": [{"size": "96"}]}}}, "dtype": {"type": "DT_FLOAT"}}}, {"name": "PartitionedCall/PartitionedCall/split_35", "op": "Const", "attr": {"dtype": {"type": "DT_FLOAT"}, "value": {"tensor": {"dtype": "DT_FLOAT", "tensorShape": {"dim": [{"size": "1"}, {"size": "1"}, {"size": "96"}, {"size": "48"}]}}}}}, {"name": "PartitionedCall/PartitionedCall/BiasAdd_50/bias", "op": "Const", "attr": {"dtype": {"type": "DT_FLOAT"}, "value": {"tensor": {"dtype": "DT_FLOAT", "tensorShape": {"dim": [{"size": "48"}]}}}}}, {"name": "PartitionedCall/PartitionedCall/strided_slice_9/stack", "op": "Const", "attr": {"value": {"tensor": {"dtype": "DT_INT32", "tensorShape": {"dim": [{"size": "1"}]}}}, "dtype": {"type": "DT_INT32"}}}, {"name": "PartitionedCall/PartitionedCall/strided_slice_9/stack_1", "op": "Const", "attr": {"value": {"tensor": {"dtype": "DT_INT32", "tensorShape": {"dim": [{"size": "1"}]}}}, "dtype": {"type": "DT_INT32"}}}, {"name": "PartitionedCall/PartitionedCall/strided_slice_9/stack_2", "op": "Const", "attr": {"value": {"tensor": {"dtype": "DT_INT32", "tensorShape": {"dim": [{"size": "1"}]}}}, "dtype": {"type": "DT_INT32"}}}, {"name": "PartitionedCall/PartitionedCall/Const_24", "op": "Const", "attr": {"dtype": {"type": "DT_INT32"}, "value": {"tensor": {"dtype": "DT_INT32", "tensorShape": {"dim": [{"size": "4"}, {"size": "2"}]}}}}}, {"name": "PartitionedCall/PartitionedCall/split_36", "op": "Const", "attr": {"dtype": {"type": "DT_FLOAT"}, "value": {"tensor": {"dtype": "DT_FLOAT", "tensorShape": {"dim": [{"size": "3"}, {"size": "3"}, {"size": "48"}, {"size": "48"}]}}}}}, {"name": "PartitionedCall/PartitionedCall/BiasAdd_51/bias", "op": "Const", "attr": {"dtype": {"type": "DT_FLOAT"}, "value": {"tensor": {"dtype": "DT_FLOAT", "tensorShape": {"dim": [{"size": "48"}]}}}}}, {"name": "PartitionedCall/PartitionedCall/split_37", "op": "Const", "attr": {"dtype": {"type": "DT_FLOAT"}, "value": {"tensor": {"dtype": "DT_FLOAT", "tensorShape": {"dim": [{"size": "1"}, {"size": "1"}, {"size": "48"}, {"size": "3"}]}}}}}, {"name": "PartitionedCall/PartitionedCall/BiasAdd_52/bias", "op": "Const", "attr": {"value": {"tensor": {"dtype": "DT_FLOAT", "tensorShape": {"dim": [{"size": "3"}]}}}, "dtype": {"type": "DT_FLOAT"}}}, {"name": "PartitionedCall/PartitionedCall/strided_slice_11/stack", "op": "Const", "attr": {"value": {"tensor": {"dtype": "DT_INT32", "tensorShape": {"dim": [{"size": "1"}]}}}, "dtype": {"type": "DT_INT32"}}}, {"name": "PartitionedCall/PartitionedCall/strided_slice_11/stack_1", "op": "Const", "attr": {"dtype": {"type": "DT_INT32"}, "value": {"tensor": {"dtype": "DT_INT32", "tensorShape": {"dim": [{"size": "1"}]}}}}}, {"name": "PartitionedCall/PartitionedCall/strided_slice_11/stack_2", "op": "Const", "attr": {"dtype": {"type": "DT_INT32"}, "value": {"tensor": {"dtype": "DT_INT32", "tensorShape": {"dim": [{"size": "1"}]}}}}}, {"name": "PartitionedCall/strided_slice_1/stack", "op": "Const", "attr": {"value": {"tensor": {"dtype": "DT_INT32", "tensorShape": {"dim": [{"size": "1"}]}}}, "dtype": {"type": "DT_INT32"}}}, {"name": "PartitionedCall/strided_slice_1/stack_1", "op": "Const", "attr": {"dtype": {"type": "DT_INT32"}, "value": {"tensor": {"dtype": "DT_INT32", "tensorShape": {"dim": [{"size": "1"}]}}}}}, {"name": "PartitionedCall/strided_slice_1/stack_2", "op": "Const", "attr": {"value": {"tensor": {"dtype": "DT_INT32", "tensorShape": {"dim": [{"size": "1"}]}}}, "dtype": {"type": "DT_INT32"}}}, {"name": "PartitionedCall/Reshape/shape/1", "op": "Const", "attr": {"dtype": {"type": "DT_INT32"}, "value": {"tensor": {"dtype": "DT_INT32", "tensorShape": {}}}}}, {"name": "PartitionedCall/Reshape/shape/2", "op": "Const", "attr": {"value": {"tensor": {"dtype": "DT_INT32", "tensorShape": {}}}, "dtype": {"type": "DT_INT32"}}}, {"name": "PartitionedCall/ArgMax/dimension", "op": "Const", "attr": {"dtype": {"type": "DT_INT32"}, "value": {"tensor": {"dtype": "DT_INT32", "tensorShape": {}}}}}, {"name": "PartitionedCall/FloorMod/y", "op": "Const", "attr": {"value": {"tensor": {"dtype": "DT_INT32", "tensorShape": {}}}, "dtype": {"type": "DT_INT32"}}}, {"name": "ConstantFolding/PartitionedCall/truediv_9_recip", "op": "Const", "attr": {"dtype": {"type": "DT_DOUBLE"}, "value": {"tensor": {"dtype": "DT_DOUBLE", "tensorShape": {}}}}}, {"name": "PartitionedCall/add_1/y", "op": "Const", "attr": {"dtype": {"type": "DT_FLOAT"}, "value": {"tensor": {"dtype": "DT_FLOAT", "tensorShape": {}}}}}, {"name": "PartitionedCall/ExpandDims_1/dim", "op": "Const", "attr": {"dtype": {"type": "DT_INT32"}, "value": {"tensor": {"dtype": "DT_INT32", "tensorShape": {}}}}}, {"name": "PartitionedCall/strided_slice/stack", "op": "Const", "attr": {"value": {"tensor": {"dtype": "DT_INT32", "tensorShape": {"dim": [{"size": "1"}]}}}, "dtype": {"type": "DT_INT32"}}}, {"name": "PartitionedCall/strided_slice/stack_1", "op": "Const", "attr": {"dtype": {"type": "DT_INT32"}, "value": {"tensor": {"dtype": "DT_INT32", "tensorShape": {"dim": [{"size": "1"}]}}}}}, {"name": "PartitionedCall/strided_slice/stack_2", "op": "Const", "attr": {"dtype": {"type": "DT_INT32"}, "value": {"tensor": {"dtype": "DT_INT32", "tensorShape": {"dim": [{"size": "1"}]}}}}}, {"name": "ConstantFolding/PartitionedCall/truediv_10_recip", "op": "Const", "attr": {"value": {"tensor": {"dtype": "DT_DOUBLE", "tensorShape": {}}}, "dtype": {"type": "DT_DOUBLE"}}}, {"name": "PartitionedCall/strided_slice_3/stack", "op": "Const", "attr": {"dtype": {"type": "DT_INT32"}, "value": {"tensor": {"dtype": "DT_INT32", "tensorShape": {"dim": [{"size": "1"}]}}}}}, {"name": "PartitionedCall/strided_slice_3/stack_1", "op": "Const", "attr": {"value": {"tensor": {"dtype": "DT_INT32", "tensorShape": {"dim": [{"size": "1"}]}}}, "dtype": {"type": "DT_INT32"}}}, {"name": "PartitionedCall/strided_slice_3/stack_2", "op": "Const", "attr": {"value": {"tensor": {"dtype": "DT_INT32", "tensorShape": {"dim": [{"size": "1"}]}}}, "dtype": {"type": "DT_INT32"}}}, {"name": "PartitionedCall/concat/axis", "op": "Const", "attr": {"dtype": {"type": "DT_INT32"}, "value": {"tensor": {"dtype": "DT_INT32", "tensorShape": {}}}}}, {"name": "inputs_0", "op": "Placeholder", "attr": {"dtype": {"type": "DT_FLOAT"}, "shape": {"shape": {"dim": [{"size": "-1"}, {"size": "-1"}, {"size": "-1"}, {"size": "-1"}]}}}}, {"name": "inputs_1", "op": "Placeholder", "attr": {"shape": {"shape": {}}, "dtype": {"type": "DT_FLOAT"}}}, {"name": "PartitionedCall/sub_1", "op": "Sub", "input": ["inputs_0", "PartitionedCall/sub_1/y"], "attr": {"T": {"type": "DT_FLOAT"}}}, {"name": "PartitionedCall/Shape", "op": "Shape", "input": ["inputs_0"], "attr": {"out_type": {"type": "DT_INT32"}, "T": {"type": "DT_FLOAT"}}}, {"name": "PartitionedCall/PartitionedCall_1/Cast", "op": "Cast", "input": ["inputs_1"], "attr": {"DstT": {"type": "DT_INT32"}, "SrcT": {"type": "DT_FLOAT"}, "Truncate": {"b": false}}}, {"name": "PartitionedCall/truediv_6", "op": "Mul", "input": ["PartitionedCall/sub_1", "ConstantFolding/PartitionedCall/truediv_6_recip"], "attr": {"T": {"type": "DT_FLOAT"}}}, {"name": "PartitionedCall/strided_slice", "op": "StridedSlice", "input": ["PartitionedCall/Shape", "PartitionedCall/strided_slice/stack", "PartitionedCall/strided_slice/stack_1", "PartitionedCall/strided_slice/stack_2"], "attr": {"shrink_axis_mask": {"i": "0"}, "begin_mask": {"i": "0"}, "end_mask": {"i": "0"}, "ellipsis_mask": {"i": "0"}, "new_axis_mask": {"i": "0"}, "Index": {"type": "DT_INT32"}, "T": {"type": "DT_INT32"}}}, {"name": "PartitionedCall/PartitionedCall_1/Equal", "op": "Equal", "input": ["PartitionedCall/PartitionedCall_1/Cast", "PartitionedCall/PartitionedCall_1/Equal/y"], "attr": {"incompatible_shape_error": {"b": false}, "T": {"type": "DT_INT32"}}}, {"name": "PartitionedCall/PartitionedCall_1/Mean", "op": "Mean", "input": ["PartitionedCall/truediv_6", "PartitionedCall/PartitionedCall_1/Mean/reduction_indices"], "attr": {"keep_dims": {"b": true}, "Tidx": {"type": "DT_INT32"}, "T": {"type": "DT_FLOAT"}}}, {"name": "PartitionedCall/unstack", "op": "Unpack", "input": ["PartitionedCall/strided_slice"], "attr": {"num": {"i": "2"}, "T": {"type": "DT_INT32"}, "axis": {"i": "0"}}}, {"name": "PartitionedCall/truediv_10/Cast", "op": "Cast", "input": ["PartitionedCall/strided_slice"], "attr": {"Truncate": {"b": false}, "DstT": {"type": "DT_DOUBLE"}, "SrcT": {"type": "DT_INT32"}}}, {"name": "PartitionedCall/PartitionedCall_1/cond/switch_pred/_14", "op": "Switch", "input": ["PartitionedCall/PartitionedCall_1/Equal", "PartitionedCall/PartitionedCall_1/Equal"], "attr": {"T": {"type": "DT_BOOL"}}}, {"name": "PartitionedCall/PartitionedCall_1/cond/PartitionedCall/PartitionedCall_1/Cast/_17", "op": "Switch", "input": ["PartitionedCall/PartitionedCall_1/Cast", "PartitionedCall/PartitionedCall_1/Equal"], "attr": {"T": {"type": "DT_INT32"}}}, {"name": "PartitionedCall/Cast_4", "op": "Cast", "input": ["PartitionedCall/unstack"], "attr": {"DstT": {"type": "DT_FLOAT"}, "Truncate": {"b": false}, "SrcT": {"type": "DT_INT32"}}}, {"name": "PartitionedCall/Cast_1", "op": "Cast", "input": ["PartitionedCall/unstack"], "attr": {"SrcT": {"type": "DT_INT32"}, "DstT": {"type": "DT_FLOAT"}, "Truncate": {"b": false}}}, {"name": "PartitionedCall/Cast_3", "op": "Cast", "input": ["PartitionedCall/unstack:1"], "attr": {"Truncate": {"b": false}, "SrcT": {"type": "DT_INT32"}, "DstT": {"type": "DT_FLOAT"}}}, {"name": "PartitionedCall/Cast_6", "op": "Cast", "input": ["PartitionedCall/unstack:1"], "attr": {"DstT": {"type": "DT_FLOAT"}, "Truncate": {"b": false}, "SrcT": {"type": "DT_INT32"}}}, {"name": "PartitionedCall/truediv_10", "op": "Mul", "input": ["PartitionedCall/truediv_10/Cast", "ConstantFolding/PartitionedCall/truediv_10_recip"], "attr": {"T": {"type": "DT_DOUBLE"}}}, {"name": "PartitionedCall/PartitionedCall_1/cond/pivot_f/_15", "op": "Identity", "input": ["PartitionedCall/PartitionedCall_1/cond/switch_pred/_14"], "attr": {"T": {"type": "DT_BOOL"}}}, {"name": "PartitionedCall/PartitionedCall_1/cond/pivot_t/_16", "op": "Identity", "input": ["PartitionedCall/PartitionedCall_1/cond/switch_pred/_14:1"], "attr": {"T": {"type": "DT_BOOL"}}}, {"name": "PartitionedCall/mul", "op": "Mul", "input": ["ConstantFolding/PartitionedCall/truediv_2_recip", "PartitionedCall/Cast_4"], "attr": {"_grappler_ArithmeticOptimizer_MinimizeBroadcasts": {"b": true}, "T": {"type": "DT_FLOAT"}}}, {"name": "PartitionedCall/truediv", "op": "RealDiv", "input": ["PartitionedCall/Cast", "PartitionedCall/Cast_1"], "attr": {"T": {"type": "DT_FLOAT"}}}, {"name": "PartitionedCall/truediv_1", "op": "RealDiv", "input": ["PartitionedCall/Cast_2", "PartitionedCall/Cast_3"], "attr": {"T": {"type": "DT_FLOAT"}}}, {"name": "PartitionedCall/mul_2", "op": "Mul", "input": ["ConstantFolding/PartitionedCall/truediv_3_recip", "PartitionedCall/Cast_6"], "attr": {"_grappler_ArithmeticOptimizer_MinimizeBroadcasts": {"b": true}, "T": {"type": "DT_FLOAT"}}}, {"name": "PartitionedCall/Cast_10", "op": "Cast", "input": ["PartitionedCall/truediv_10"], "attr": {"SrcT": {"type": "DT_DOUBLE"}, "Truncate": {"b": false}, "DstT": {"type": "DT_FLOAT"}}}, {"name": "PartitionedCall/PartitionedCall_1/cond/else/_13/cond/Equal/y", "op": "Const", "input": ["^PartitionedCall/PartitionedCall_1/cond/pivot_f/_15"], "attr": {"dtype": {"type": "DT_INT32"}, "value": {"tensor": {"dtype": "DT_INT32", "tensorShape": {}}}}}, {"name": "Func/PartitionedCall/PartitionedCall_1/cond/then/_12/output/_31", "op": "Const", "input": ["^PartitionedCall/PartitionedCall_1/cond/pivot_t/_16"], "attr": {"value": {"tensor": {"dtype": "DT_INT32", "tensorShape": {}}}, "dtype": {"type": "DT_INT32"}}}, {"name": "Func/PartitionedCall/PartitionedCall_1/cond/then/_12/output/_32", "op": "Const", "input": ["^PartitionedCall/PartitionedCall_1/cond/pivot_t/_16"], "attr": {"value": {"tensor": {"dtype": "DT_INT32", "tensorShape": {}}}, "dtype": {"type": "DT_INT32"}}}, {"name": "Func/PartitionedCall/PartitionedCall_1/cond/then/_12/output/_33", "op": "Const", "input": ["^PartitionedCall/PartitionedCall_1/cond/pivot_t/_16"], "attr": {"value": {"tensor": {"dtype": "DT_INT32", "tensorShape": {}}}, "dtype": {"type": "DT_INT32"}}}, {"name": "Func/PartitionedCall/PartitionedCall_1/cond/then/_12/output/_34", "op": "Const", "input": ["^PartitionedCall/PartitionedCall_1/cond/pivot_t/_16"], "attr": {"value": {"tensor": {"dtype": "DT_INT32", "tensorShape": {}}}, "dtype": {"type": "DT_INT32"}}}, {"name": "Func/PartitionedCall/PartitionedCall_1/cond/then/_12/output/_35", "op": "Const", "input": ["^PartitionedCall/PartitionedCall_1/cond/pivot_t/_16"], "attr": {"dtype": {"type": "DT_INT32"}, "value": {"tensor": {"dtype": "DT_INT32", "tensorShape": {}}}}}, {"name": "Func/PartitionedCall/PartitionedCall_1/cond/then/_12/output/_36", "op": "Const", "input": ["^PartitionedCall/PartitionedCall_1/cond/pivot_t/_16"], "attr": {"value": {"tensor": {"dtype": "DT_INT32", "tensorShape": {}}}, "dtype": {"type": "DT_INT32"}}}, {"name": "Func/PartitionedCall/PartitionedCall_1/cond/then/_12/output/_37", "op": "Const", "input": ["^PartitionedCall/PartitionedCall_1/cond/pivot_t/_16"], "attr": {"value": {"tensor": {"dtype": "DT_INT32", "tensorShape": {}}}, "dtype": {"type": "DT_INT32"}}}, {"name": "Func/PartitionedCall/PartitionedCall_1/cond/then/_12/output/_38", "op": "Const", "input": ["^PartitionedCall/PartitionedCall_1/cond/pivot_t/_16"], "attr": {"dtype": {"type": "DT_INT32"}, "value": {"tensor": {"dtype": "DT_INT32", "tensorShape": {}}}}}, {"name": "Func/PartitionedCall/PartitionedCall_1/cond/then/_12/output/_30", "op": "Const", "input": ["^PartitionedCall/PartitionedCall_1/cond/pivot_t/_16"], "attr": {"value": {"tensor": {"dtype": "DT_FLOAT", "tensorShape": {"dim": [{"size": "1"}, {"size": "1"}, {"size": "1"}, {"size": "1"}]}}}, "dtype": {"type": "DT_FLOAT"}}}, {"name": "PartitionedCall/Maximum", "op": "Maximum", "input": ["PartitionedCall/truediv", "PartitionedCall/truediv_1"], "attr": {"T": {"type": "DT_FLOAT"}}}, {"name": "PartitionedCall/strided_slice_2", "op": "StridedSlice", "input": ["PartitionedCall/Cast_10", "PartitionedCall/strided_slice_2/stack", "PartitionedCall/strided_slice_2/stack_1", "PartitionedCall/strided_slice_2/stack_2"], "attr": {"begin_mask": {"i": "0"}, "Index": {"type": "DT_INT32"}, "end_mask": {"i": "0"}, "T": {"type": "DT_FLOAT"}, "shrink_axis_mask": {"i": "1"}, "ellipsis_mask": {"i": "0"}, "new_axis_mask": {"i": "0"}}}, {"name": "PartitionedCall/strided_slice_3", "op": "StridedSlice", "input": ["PartitionedCall/Cast_10", "PartitionedCall/strided_slice_3/stack", "PartitionedCall/strided_slice_3/stack_1", "PartitionedCall/strided_slice_3/stack_2"], "attr": {"Index": {"type": "DT_INT32"}, "begin_mask": {"i": "0"}, "ellipsis_mask": {"i": "0"}, "end_mask": {"i": "0"}, "T": {"type": "DT_FLOAT"}, "shrink_axis_mask": {"i": "1"}, "new_axis_mask": {"i": "0"}}}, {"name": "PartitionedCall/PartitionedCall_1/cond/else/_13/cond/Equal", "op": "Equal", "input": ["PartitionedCall/PartitionedCall_1/cond/PartitionedCall/PartitionedCall_1/Cast/_17", "PartitionedCall/PartitionedCall_1/cond/else/_13/cond/Equal/y"], "attr": {"T": {"type": "DT_INT32"}, "incompatible_shape_error": {"b": false}}}, {"name": "PartitionedCall/truediv_2", "op": "Mul", "input": ["PartitionedCall/Maximum", "PartitionedCall/mul"], "attr": {"_grappler_ArithmeticOptimizer_MinimizeBroadcasts": {"b": true}, "T": {"type": "DT_FLOAT"}}}, {"name": "PartitionedCall/truediv_3", "op": "Mul", "input": ["PartitionedCall/Maximum", "PartitionedCall/mul_2"], "attr": {"_grappler_ArithmeticOptimizer_MinimizeBroadcasts": {"b": true}, "T": {"type": "DT_FLOAT"}}}, {"name": "PartitionedCall/PartitionedCall_1/cond/else/_13/cond/cond/switch_pred/_54", "op": "Switch", "input": ["PartitionedCall/PartitionedCall_1/cond/else/_13/cond/Equal", "PartitionedCall/PartitionedCall_1/cond/else/_13/cond/Equal"], "attr": {"T": {"type": "DT_BOOL"}}}, {"name": "PartitionedCall/PartitionedCall_1/cond/else/_13/cond/cond/Func/PartitionedCall/PartitionedCall_1/cond/else/_13/input/_41/_57", "op": "Switch", "input": ["PartitionedCall/PartitionedCall_1/cond/PartitionedCall/PartitionedCall_1/Cast/_17", "PartitionedCall/PartitionedCall_1/cond/else/_13/cond/Equal"], "attr": {"T": {"type": "DT_INT32"}}}, {"name": "PartitionedCall/Round", "op": "Round", "input": ["PartitionedCall/truediv_2"], "attr": {"T": {"type": "DT_FLOAT"}}}, {"name": "PartitionedCall/Round_1", "op": "Round", "input": ["PartitionedCall/truediv_3"], "attr": {"T": {"type": "DT_FLOAT"}}}, {"name": "PartitionedCall/PartitionedCall_1/cond/else/_13/cond/cond/pivot_f/_55", "op": "Identity", "input": ["PartitionedCall/PartitionedCall_1/cond/else/_13/cond/cond/switch_pred/_54"], "attr": {"T": {"type": "DT_BOOL"}}}, {"name": "PartitionedCall/PartitionedCall_1/cond/else/_13/cond/cond/pivot_t/_56", "op": "Identity", "input": ["PartitionedCall/PartitionedCall_1/cond/else/_13/cond/cond/switch_pred/_54:1"], "attr": {"T": {"type": "DT_BOOL"}}}, {"name": "PartitionedCall/mul_1", "op": "Mul", "input": ["PartitionedCall/Round", "PartitionedCall/mul_1/y"], "attr": {"T": {"type": "DT_FLOAT"}}}, {"name": "PartitionedCall/mul_3", "op": "Mul", "input": ["PartitionedCall/Round_1", "PartitionedCall/mul_3/y"], "attr": {"T": {"type": "DT_FLOAT"}}}, {"name": "PartitionedCall/PartitionedCall_1/cond/else/_13/cond/cond/else/_53/cond/cond/Equal/y", "op": "Const", "input": ["^PartitionedCall/PartitionedCall_1/cond/else/_13/cond/cond/pivot_f/_55"], "attr": {"value": {"tensor": {"dtype": "DT_INT32", "tensorShape": {}}}, "dtype": {"type": "DT_INT32"}}}, {"name": "Func/PartitionedCall/PartitionedCall_1/cond/else/_13/cond/cond/then/_52/output/_71", "op": "Const", "input": ["^PartitionedCall/PartitionedCall_1/cond/else/_13/cond/cond/pivot_t/_56"], "attr": {"dtype": {"type": "DT_INT32"}, "value": {"tensor": {"dtype": "DT_INT32", "tensorShape": {}}}}}, {"name": "Func/PartitionedCall/PartitionedCall_1/cond/else/_13/cond/cond/then/_52/output/_72", "op": "Const", "input": ["^PartitionedCall/PartitionedCall_1/cond/else/_13/cond/cond/pivot_t/_56"], "attr": {"value": {"tensor": {"dtype": "DT_INT32", "tensorShape": {}}}, "dtype": {"type": "DT_INT32"}}}, {"name": "Func/PartitionedCall/PartitionedCall_1/cond/else/_13/cond/cond/then/_52/output/_73", "op": "Const", "input": ["^PartitionedCall/PartitionedCall_1/cond/else/_13/cond/cond/pivot_t/_56"], "attr": {"value": {"tensor": {"dtype": "DT_INT32", "tensorShape": {}}}, "dtype": {"type": "DT_INT32"}}}, {"name": "Func/PartitionedCall/PartitionedCall_1/cond/else/_13/cond/cond/then/_52/output/_74", "op": "Const", "input": ["^PartitionedCall/PartitionedCall_1/cond/else/_13/cond/cond/pivot_t/_56"], "attr": {"value": {"tensor": {"dtype": "DT_INT32", "tensorShape": {}}}, "dtype": {"type": "DT_INT32"}}}, {"name": "Func/PartitionedCall/PartitionedCall_1/cond/else/_13/cond/cond/then/_52/output/_75", "op": "Const", "input": ["^PartitionedCall/PartitionedCall_1/cond/else/_13/cond/cond/pivot_t/_56"], "attr": {"value": {"tensor": {"dtype": "DT_INT32", "tensorShape": {}}}, "dtype": {"type": "DT_INT32"}}}, {"name": "Func/PartitionedCall/PartitionedCall_1/cond/else/_13/cond/cond/then/_52/output/_76", "op": "Const", "input": ["^PartitionedCall/PartitionedCall_1/cond/else/_13/cond/cond/pivot_t/_56"], "attr": {"value": {"tensor": {"dtype": "DT_INT32", "tensorShape": {}}}, "dtype": {"type": "DT_INT32"}}}, {"name": "Func/PartitionedCall/PartitionedCall_1/cond/else/_13/cond/cond/then/_52/output/_77", "op": "Const", "input": ["^PartitionedCall/PartitionedCall_1/cond/else/_13/cond/cond/pivot_t/_56"], "attr": {"value": {"tensor": {"dtype": "DT_INT32", "tensorShape": {}}}, "dtype": {"type": "DT_INT32"}}}, {"name": "Func/PartitionedCall/PartitionedCall_1/cond/else/_13/cond/cond/then/_52/output/_78", "op": "Const", "input": ["^PartitionedCall/PartitionedCall_1/cond/else/_13/cond/cond/pivot_t/_56"], "attr": {"value": {"tensor": {"dtype": "DT_INT32", "tensorShape": {}}}, "dtype": {"type": "DT_INT32"}}}, {"name": "Func/PartitionedCall/PartitionedCall_1/cond/else/_13/cond/cond/then/_52/output/_70", "op": "Const", "input": ["^PartitionedCall/PartitionedCall_1/cond/else/_13/cond/cond/pivot_t/_56"], "attr": {"dtype": {"type": "DT_FLOAT"}, "value": {"tensor": {"dtype": "DT_FLOAT", "tensorShape": {"dim": [{"size": "3"}, {"size": "3"}, {"size": "1"}, {"size": "1"}]}}}}}, {"name": "PartitionedCall/Cast_5", "op": "Cast", "input": ["PartitionedCall/mul_1"], "attr": {"SrcT": {"type": "DT_FLOAT"}, "Truncate": {"b": false}, "DstT": {"type": "DT_INT32"}}}, {"name": "PartitionedCall/Cast_7", "op": "Cast", "input": ["PartitionedCall/mul_3"], "attr": {"DstT": {"type": "DT_INT32"}, "SrcT": {"type": "DT_FLOAT"}, "Truncate": {"b": false}}}, {"name": "PartitionedCall/PartitionedCall_1/cond/else/_13/cond/cond/else/_53/cond/cond/Equal", "op": "Equal", "input": ["PartitionedCall/PartitionedCall_1/cond/else/_13/cond/cond/Func/PartitionedCall/PartitionedCall_1/cond/else/_13/input/_41/_57", "PartitionedCall/PartitionedCall_1/cond/else/_13/cond/cond/else/_53/cond/cond/Equal/y"], "attr": {"incompatible_shape_error": {"b": false}, "T": {"type": "DT_INT32"}}}, {"name": "PartitionedCall/resize/size", "op": "Pack", "input": ["PartitionedCall/Cast_5", "PartitionedCall/Cast_7"], "attr": {"N": {"i": "2"}, "T": {"type": "DT_INT32"}, "axis": {"i": "0"}}}, {"name": "PartitionedCall/PartitionedCall_1/cond/else/_13/cond/cond/else/_53/cond/cond/cond/switch_pred/_94", "op": "Switch", "input": ["PartitionedCall/PartitionedCall_1/cond/else/_13/cond/cond/else/_53/cond/cond/Equal", "PartitionedCall/PartitionedCall_1/cond/else/_13/cond/cond/else/_53/cond/cond/Equal"], "attr": {"T": {"type": "DT_BOOL"}}}, {"name": "PartitionedCall/PartitionedCall_1/cond/else/_13/cond/cond/else/_53/cond/cond/cond/Func/PartitionedCall/PartitionedCall_1/cond/else/_13/cond/cond/else/_53/input/_81/_97", "op": "Switch", "input": ["PartitionedCall/PartitionedCall_1/cond/else/_13/cond/cond/Func/PartitionedCall/PartitionedCall_1/cond/else/_13/input/_41/_57", "PartitionedCall/PartitionedCall_1/cond/else/_13/cond/cond/else/_53/cond/cond/Equal"], "attr": {"T": {"type": "DT_INT32"}}}, {"name": "PartitionedCall/resize/ResizeBilinear", "op": "ResizeBilinear", "input": ["inputs_0", "PartitionedCall/resize/size"], "attr": {"align_corners": {"b": false}, "half_pixel_centers": {"b": true}, "T": {"type": "DT_FLOAT"}}}, {"name": "PartitionedCall/PartitionedCall_1/cond/else/_13/cond/cond/else/_53/cond/cond/cond/pivot_f/_95", "op": "Identity", "input": ["PartitionedCall/PartitionedCall_1/cond/else/_13/cond/cond/else/_53/cond/cond/cond/switch_pred/_94"], "attr": {"T": {"type": "DT_BOOL"}}}, {"name": "PartitionedCall/PartitionedCall_1/cond/else/_13/cond/cond/else/_53/cond/cond/cond/pivot_t/_96", "op": "Identity", "input": ["PartitionedCall/PartitionedCall_1/cond/else/_13/cond/cond/else/_53/cond/cond/cond/switch_pred/_94:1"], "attr": {"T": {"type": "DT_BOOL"}}}, {"name": "PartitionedCall/truediv_4", "op": "Mul", "input": ["PartitionedCall/resize/ResizeBilinear", "ConstantFolding/PartitionedCall/truediv_4_recip"], "attr": {"T": {"type": "DT_FLOAT"}}}, {"name": "PartitionedCall/PartitionedCall_1/cond/else/_13/cond/cond/else/_53/cond/cond/cond/else/_93/cond/cond/cond/Equal/y", "op": "Const", "input": ["^PartitionedCall/PartitionedCall_1/cond/else/_13/cond/cond/else/_53/cond/cond/cond/pivot_f/_95"], "attr": {"dtype": {"type": "DT_INT32"}, "value": {"tensor": {"dtype": "DT_INT32", "tensorShape": {}}}}}, {"name": "Func/PartitionedCall/PartitionedCall_1/cond/else/_13/cond/cond/else/_53/cond/cond/cond/then/_92/output/_111", "op": "Const", "input": ["^PartitionedCall/PartitionedCall_1/cond/else/_13/cond/cond/else/_53/cond/cond/cond/pivot_t/_96"], "attr": {"dtype": {"type": "DT_INT32"}, "value": {"tensor": {"dtype": "DT_INT32", "tensorShape": {}}}}}, {"name": "Func/PartitionedCall/PartitionedCall_1/cond/else/_13/cond/cond/else/_53/cond/cond/cond/then/_92/output/_112", "op": "Const", "input": ["^PartitionedCall/PartitionedCall_1/cond/else/_13/cond/cond/else/_53/cond/cond/cond/pivot_t/_96"], "attr": {"value": {"tensor": {"dtype": "DT_INT32", "tensorShape": {}}}, "dtype": {"type": "DT_INT32"}}}, {"name": "Func/PartitionedCall/PartitionedCall_1/cond/else/_13/cond/cond/else/_53/cond/cond/cond/then/_92/output/_113", "op": "Const", "input": ["^PartitionedCall/PartitionedCall_1/cond/else/_13/cond/cond/else/_53/cond/cond/cond/pivot_t/_96"], "attr": {"dtype": {"type": "DT_INT32"}, "value": {"tensor": {"dtype": "DT_INT32", "tensorShape": {}}}}}, {"name": "Func/PartitionedCall/PartitionedCall_1/cond/else/_13/cond/cond/else/_53/cond/cond/cond/then/_92/output/_114", "op": "Const", "input": ["^PartitionedCall/PartitionedCall_1/cond/else/_13/cond/cond/else/_53/cond/cond/cond/pivot_t/_96"], "attr": {"value": {"tensor": {"dtype": "DT_INT32", "tensorShape": {}}}, "dtype": {"type": "DT_INT32"}}}, {"name": "Func/PartitionedCall/PartitionedCall_1/cond/else/_13/cond/cond/else/_53/cond/cond/cond/then/_92/output/_115", "op": "Const", "input": ["^PartitionedCall/PartitionedCall_1/cond/else/_13/cond/cond/else/_53/cond/cond/cond/pivot_t/_96"], "attr": {"dtype": {"type": "DT_INT32"}, "value": {"tensor": {"dtype": "DT_INT32", "tensorShape": {}}}}}, {"name": "Func/PartitionedCall/PartitionedCall_1/cond/else/_13/cond/cond/else/_53/cond/cond/cond/then/_92/output/_116", "op": "Const", "input": ["^PartitionedCall/PartitionedCall_1/cond/else/_13/cond/cond/else/_53/cond/cond/cond/pivot_t/_96"], "attr": {"value": {"tensor": {"dtype": "DT_INT32", "tensorShape": {}}}, "dtype": {"type": "DT_INT32"}}}, {"name": "Func/PartitionedCall/PartitionedCall_1/cond/else/_13/cond/cond/else/_53/cond/cond/cond/then/_92/output/_117", "op": "Const", "input": ["^PartitionedCall/PartitionedCall_1/cond/else/_13/cond/cond/else/_53/cond/cond/cond/pivot_t/_96"], "attr": {"dtype": {"type": "DT_INT32"}, "value": {"tensor": {"dtype": "DT_INT32", "tensorShape": {}}}}}, {"name": "Func/PartitionedCall/PartitionedCall_1/cond/else/_13/cond/cond/else/_53/cond/cond/cond/then/_92/output/_118", "op": "Const", "input": ["^PartitionedCall/PartitionedCall_1/cond/else/_13/cond/cond/else/_53/cond/cond/cond/pivot_t/_96"], "attr": {"dtype": {"type": "DT_INT32"}, "value": {"tensor": {"dtype": "DT_INT32", "tensorShape": {}}}}}, {"name": "Func/PartitionedCall/PartitionedCall_1/cond/else/_13/cond/cond/else/_53/cond/cond/cond/then/_92/output/_110", "op": "Const", "input": ["^PartitionedCall/PartitionedCall_1/cond/else/_13/cond/cond/else/_53/cond/cond/cond/pivot_t/_96"], "attr": {"value": {"tensor": {"dtype": "DT_FLOAT", "tensorShape": {"dim": [{"size": "5"}, {"size": "5"}, {"size": "1"}, {"size": "1"}]}}}, "dtype": {"type": "DT_FLOAT"}}}, {"name": "PartitionedCall/Sub", "op": "Sub", "input": ["PartitionedCall/truediv_4", "PartitionedCall/Sub/y"], "attr": {"T": {"type": "DT_FLOAT"}}}, {"name": "PartitionedCall/PartitionedCall_1/cond/else/_13/cond/cond/else/_53/cond/cond/cond/else/_93/cond/cond/cond/Equal", "op": "Equal", "input": ["PartitionedCall/PartitionedCall_1/cond/else/_13/cond/cond/else/_53/cond/cond/cond/Func/PartitionedCall/PartitionedCall_1/cond/else/_13/cond/cond/else/_53/input/_81/_97", "PartitionedCall/PartitionedCall_1/cond/else/_13/cond/cond/else/_53/cond/cond/cond/else/_93/cond/cond/cond/Equal/y"], "attr": {"incompatible_shape_error": {"b": false}, "T": {"type": "DT_INT32"}}}, {"name": "PartitionedCall/truediv_5", "op": "Mul", "input": ["PartitionedCall/Sub", "ConstantFolding/PartitionedCall/truediv_5_recip"], "attr": {"T": {"type": "DT_FLOAT"}}}, {"name": "PartitionedCall/PartitionedCall_1/cond/else/_13/cond/cond/else/_53/cond/cond/cond/else/_93/cond/cond/cond/cond/switch_pred/_134", "op": "Switch", "input": ["PartitionedCall/PartitionedCall_1/cond/else/_13/cond/cond/else/_53/cond/cond/cond/else/_93/cond/cond/cond/Equal", "PartitionedCall/PartitionedCall_1/cond/else/_13/cond/cond/else/_53/cond/cond/cond/else/_93/cond/cond/cond/Equal"], "attr": {"T": {"type": "DT_BOOL"}}}, {"name": "PartitionedCall/PartitionedCall_1/cond/else/_13/cond/cond/else/_53/cond/cond/cond/else/_93/cond/cond/cond/cond/Func/PartitionedCall/PartitionedCall_1/cond/else/_13/cond/cond/else/_53/cond/cond/cond/else/_93/input/_121/_137", "op": "Switch", "input": ["PartitionedCall/PartitionedCall_1/cond/else/_13/cond/cond/else/_53/cond/cond/cond/Func/PartitionedCall/PartitionedCall_1/cond/else/_13/cond/cond/else/_53/input/_81/_97", "PartitionedCall/PartitionedCall_1/cond/else/_13/cond/cond/else/_53/cond/cond/cond/else/_93/cond/cond/cond/Equal"], "attr": {"T": {"type": "DT_INT32"}}}, {"name": "PartitionedCall/PartitionedCall/Pad", "op": "Pad", "input": ["PartitionedCall/truediv_5", "PartitionedCall/PartitionedCall/Const"], "attr": {"T": {"type": "DT_FLOAT"}, "Tpaddings": {"type": "DT_INT32"}}}, {"name": "PartitionedCall/PartitionedCall_1/cond/else/_13/cond/cond/else/_53/cond/cond/cond/else/_93/cond/cond/cond/cond/pivot_f/_135", "op": "Identity", "input": ["PartitionedCall/PartitionedCall_1/cond/else/_13/cond/cond/else/_53/cond/cond/cond/else/_93/cond/cond/cond/cond/switch_pred/_134"], "attr": {"T": {"type": "DT_BOOL"}}}, {"name": "PartitionedCall/PartitionedCall_1/cond/else/_13/cond/cond/else/_53/cond/cond/cond/else/_93/cond/cond/cond/cond/pivot_t/_136", "op": "Identity", "input": ["PartitionedCall/PartitionedCall_1/cond/else/_13/cond/cond/else/_53/cond/cond/cond/else/_93/cond/cond/cond/cond/switch_pred/_134:1"], "attr": {"T": {"type": "DT_BOOL"}}}, {"name": "PartitionedCall/PartitionedCall/Relu6", "op": "_FusedConv2D", "input": ["PartitionedCall/PartitionedCall/Pad", "PartitionedCall/PartitionedCall/split", "PartitionedCall/PartitionedCall/BiasAdd/bias"], "device": "/device:CPU:0", "attr": {"epsilon": {"f": 0.0}, "data_format": {"s": "TkhXQw=="}, "padding": {"s": "VkFMSUQ="}, "fused_ops": {"list": {"s": ["Qmlhc0FkZA==", "UmVsdTY="]}}, "dilations": {"list": {"i": ["1", "1", "1", "1"]}}, "strides": {"list": {"i": ["1", "2", "2", "1"]}}, "explicit_paddings": {"list": {}}, "num_args": {"i": "1"}, "use_cudnn_on_gpu": {"b": true}, "T": {"type": "DT_FLOAT"}}}, {"name": "PartitionedCall/PartitionedCall_1/cond/else/_13/cond/cond/else/_53/cond/cond/cond/else/_93/cond/cond/cond/cond/else/_133/cond/cond/cond/cond/Equal/y", "op": "Const", "input": ["^PartitionedCall/PartitionedCall_1/cond/else/_13/cond/cond/else/_53/cond/cond/cond/else/_93/cond/cond/cond/cond/pivot_f/_135"], "attr": {"value": {"tensor": {"dtype": "DT_INT32", "tensorShape": {}}}, "dtype": {"type": "DT_INT32"}}}, {"name": "Func/PartitionedCall/PartitionedCall_1/cond/else/_13/cond/cond/else/_53/cond/cond/cond/else/_93/cond/cond/cond/cond/then/_132/output/_151", "op": "Const", "input": ["^PartitionedCall/PartitionedCall_1/cond/else/_13/cond/cond/else/_53/cond/cond/cond/else/_93/cond/cond/cond/cond/pivot_t/_136"], "attr": {"value": {"tensor": {"dtype": "DT_INT32", "tensorShape": {}}}, "dtype": {"type": "DT_INT32"}}}, {"name": "Func/PartitionedCall/PartitionedCall_1/cond/else/_13/cond/cond/else/_53/cond/cond/cond/else/_93/cond/cond/cond/cond/then/_132/output/_152", "op": "Const", "input": ["^PartitionedCall/PartitionedCall_1/cond/else/_13/cond/cond/else/_53/cond/cond/cond/else/_93/cond/cond/cond/cond/pivot_t/_136"], "attr": {"value": {"tensor": {"dtype": "DT_INT32", "tensorShape": {}}}, "dtype": {"type": "DT_INT32"}}}, {"name": "Func/PartitionedCall/PartitionedCall_1/cond/else/_13/cond/cond/else/_53/cond/cond/cond/else/_93/cond/cond/cond/cond/then/_132/output/_153", "op": "Const", "input": ["^PartitionedCall/PartitionedCall_1/cond/else/_13/cond/cond/else/_53/cond/cond/cond/else/_93/cond/cond/cond/cond/pivot_t/_136"], "attr": {"value": {"tensor": {"dtype": "DT_INT32", "tensorShape": {}}}, "dtype": {"type": "DT_INT32"}}}, {"name": "Func/PartitionedCall/PartitionedCall_1/cond/else/_13/cond/cond/else/_53/cond/cond/cond/else/_93/cond/cond/cond/cond/then/_132/output/_154", "op": "Const", "input": ["^PartitionedCall/PartitionedCall_1/cond/else/_13/cond/cond/else/_53/cond/cond/cond/else/_93/cond/cond/cond/cond/pivot_t/_136"], "attr": {"value": {"tensor": {"dtype": "DT_INT32", "tensorShape": {}}}, "dtype": {"type": "DT_INT32"}}}, {"name": "Func/PartitionedCall/PartitionedCall_1/cond/else/_13/cond/cond/else/_53/cond/cond/cond/else/_93/cond/cond/cond/cond/then/_132/output/_155", "op": "Const", "input": ["^PartitionedCall/PartitionedCall_1/cond/else/_13/cond/cond/else/_53/cond/cond/cond/else/_93/cond/cond/cond/cond/pivot_t/_136"], "attr": {"value": {"tensor": {"dtype": "DT_INT32", "tensorShape": {}}}, "dtype": {"type": "DT_INT32"}}}, {"name": "Func/PartitionedCall/PartitionedCall_1/cond/else/_13/cond/cond/else/_53/cond/cond/cond/else/_93/cond/cond/cond/cond/then/_132/output/_156", "op": "Const", "input": ["^PartitionedCall/PartitionedCall_1/cond/else/_13/cond/cond/else/_53/cond/cond/cond/else/_93/cond/cond/cond/cond/pivot_t/_136"], "attr": {"value": {"tensor": {"dtype": "DT_INT32", "tensorShape": {}}}, "dtype": {"type": "DT_INT32"}}}, {"name": "Func/PartitionedCall/PartitionedCall_1/cond/else/_13/cond/cond/else/_53/cond/cond/cond/else/_93/cond/cond/cond/cond/then/_132/output/_157", "op": "Const", "input": ["^PartitionedCall/PartitionedCall_1/cond/else/_13/cond/cond/else/_53/cond/cond/cond/else/_93/cond/cond/cond/cond/pivot_t/_136"], "attr": {"value": {"tensor": {"dtype": "DT_INT32", "tensorShape": {}}}, "dtype": {"type": "DT_INT32"}}}, {"name": "Func/PartitionedCall/PartitionedCall_1/cond/else/_13/cond/cond/else/_53/cond/cond/cond/else/_93/cond/cond/cond/cond/then/_132/output/_158", "op": "Const", "input": ["^PartitionedCall/PartitionedCall_1/cond/else/_13/cond/cond/else/_53/cond/cond/cond/else/_93/cond/cond/cond/cond/pivot_t/_136"], "attr": {"value": {"tensor": {"dtype": "DT_INT32", "tensorShape": {}}}, "dtype": {"type": "DT_INT32"}}}, {"name": "Func/PartitionedCall/PartitionedCall_1/cond/else/_13/cond/cond/else/_53/cond/cond/cond/else/_93/cond/cond/cond/cond/then/_132/output/_150", "op": "Const", "input": ["^PartitionedCall/PartitionedCall_1/cond/else/_13/cond/cond/else/_53/cond/cond/cond/else/_93/cond/cond/cond/cond/pivot_t/_136"], "attr": {"value": {"tensor": {"dtype": "DT_FLOAT", "tensorShape": {"dim": [{"size": "9"}, {"size": "9"}, {"size": "1"}, {"size": "1"}]}}}, "dtype": {"type": "DT_FLOAT"}}}, {"name": "PartitionedCall/PartitionedCall/Pad_1", "op": "Pad", "input": ["PartitionedCall/PartitionedCall/Relu6", "PartitionedCall/PartitionedCall/Const_1"], "attr": {"T": {"type": "DT_FLOAT"}, "Tpaddings": {"type": "DT_INT32"}}}, {"name": "PartitionedCall/PartitionedCall_1/cond/else/_13/cond/cond/else/_53/cond/cond/cond/else/_93/cond/cond/cond/cond/else/_133/cond/cond/cond/cond/Equal", "op": "Equal", "input": ["PartitionedCall/PartitionedCall_1/cond/else/_13/cond/cond/else/_53/cond/cond/cond/else/_93/cond/cond/cond/cond/Func/PartitionedCall/PartitionedCall_1/cond/else/_13/cond/cond/else/_53/cond/cond/cond/else/_93/input/_121/_137", "PartitionedCall/PartitionedCall_1/cond/else/_13/cond/cond/else/_53/cond/cond/cond/else/_93/cond/cond/cond/cond/else/_133/cond/cond/cond/cond/Equal/y"], "attr": {"T": {"type": "DT_INT32"}, "incompatible_shape_error": {"b": false}}}, {"name": "PartitionedCall/PartitionedCall/depthwise", "op": "FusedDepthwiseConv2dNative", "input": ["PartitionedCall/PartitionedCall/Pad_1", "PartitionedCall/PartitionedCall/Reshape", "PartitionedCall/PartitionedCall/BiasAdd_1/bias"], "attr": {"padding": {"s": "VkFMSUQ="}, "T": {"type": "DT_FLOAT"}, "num_args": {"i": "1"}, "strides": {"list": {"i": ["1", "1", "1", "1"]}}, "explicit_paddings": {"list": {}}, "dilations": {"list": {"i": ["1", "1", "1", "1"]}}, "fused_ops": {"list": {"s": ["Qmlhc0FkZA==", "UmVsdTY="]}}, "data_format": {"s": "TkhXQw=="}}}, {"name": "PartitionedCall/PartitionedCall_1/cond/else/_13/cond/cond/else/_53/cond/cond/cond/else/_93/cond/cond/cond/cond/else/_133/cond/cond/cond/cond/cond/switch_pred/_174", "op": "Switch", "input": ["PartitionedCall/PartitionedCall_1/cond/else/_13/cond/cond/else/_53/cond/cond/cond/else/_93/cond/cond/cond/cond/else/_133/cond/cond/cond/cond/Equal", "PartitionedCall/PartitionedCall_1/cond/else/_13/cond/cond/else/_53/cond/cond/cond/else/_93/cond/cond/cond/cond/else/_133/cond/cond/cond/cond/Equal"], "attr": {"T": {"type": "DT_BOOL"}}}, {"name": "PartitionedCall/PartitionedCall_1/cond/else/_13/cond/cond/else/_53/cond/cond/cond/else/_93/cond/cond/cond/cond/else/_133/cond/cond/cond/cond/cond/pivot_f/_175", "op": "Identity", "input": ["PartitionedCall/PartitionedCall_1/cond/else/_13/cond/cond/else/_53/cond/cond/cond/else/_93/cond/cond/cond/cond/else/_133/cond/cond/cond/cond/cond/switch_pred/_174"], "attr": {"T": {"type": "DT_BOOL"}}}, {"name": "PartitionedCall/PartitionedCall_1/cond/else/_13/cond/cond/else/_53/cond/cond/cond/else/_93/cond/cond/cond/cond/else/_133/cond/cond/cond/cond/cond/pivot_t/_176", "op": "Identity", "input": ["PartitionedCall/PartitionedCall_1/cond/else/_13/cond/cond/else/_53/cond/cond/cond/else/_93/cond/cond/cond/cond/else/_133/cond/cond/cond/cond/cond/switch_pred/_174:1"], "attr": {"T": {"type": "DT_BOOL"}}}, {"name": "Func/PartitionedCall/PartitionedCall_1/cond/else/_13/cond/cond/else/_53/cond/cond/cond/else/_93/cond/cond/cond/cond/else/_133/cond/cond/cond/cond/cond/else/_173/output/_200", "op": "Const", "input": ["^PartitionedCall/PartitionedCall_1/cond/else/_13/cond/cond/else/_53/cond/cond/cond/else/_93/cond/cond/cond/cond/else/_133/cond/cond/cond/cond/cond/pivot_f/_175"], "attr": {"dtype": {"type": "DT_INT32"}, "value": {"tensor": {"dtype": "DT_INT32", "tensorShape": {}}}}}, {"name": "Func/PartitionedCall/PartitionedCall_1/cond/else/_13/cond/cond/else/_53/cond/cond/cond/else/_93/cond/cond/cond/cond/else/_133/cond/cond/cond/cond/cond/else/_173/output/_201", "op": "Const", "input": ["^PartitionedCall/PartitionedCall_1/cond/else/_13/cond/cond/else/_53/cond/cond/cond/else/_93/cond/cond/cond/cond/else/_133/cond/cond/cond/cond/cond/pivot_f/_175"], "attr": {"value": {"tensor": {"dtype": "DT_INT32", "tensorShape": {}}}, "dtype": {"type": "DT_INT32"}}}, {"name": "Func/PartitionedCall/PartitionedCall_1/cond/else/_13/cond/cond/else/_53/cond/cond/cond/else/_93/cond/cond/cond/cond/else/_133/cond/cond/cond/cond/cond/else/_173/output/_202", "op": "Const", "input": ["^PartitionedCall/PartitionedCall_1/cond/else/_13/cond/cond/else/_53/cond/cond/cond/else/_93/cond/cond/cond/cond/else/_133/cond/cond/cond/cond/cond/pivot_f/_175"], "attr": {"dtype": {"type": "DT_INT32"}, "value": {"tensor": {"dtype": "DT_INT32", "tensorShape": {}}}}}, {"name": "Func/PartitionedCall/PartitionedCall_1/cond/else/_13/cond/cond/else/_53/cond/cond/cond/else/_93/cond/cond/cond/cond/else/_133/cond/cond/cond/cond/cond/else/_173/output/_203", "op": "Const", "input": ["^PartitionedCall/PartitionedCall_1/cond/else/_13/cond/cond/else/_53/cond/cond/cond/else/_93/cond/cond/cond/cond/else/_133/cond/cond/cond/cond/cond/pivot_f/_175"], "attr": {"dtype": {"type": "DT_INT32"}, "value": {"tensor": {"dtype": "DT_INT32", "tensorShape": {}}}}}, {"name": "Func/PartitionedCall/PartitionedCall_1/cond/else/_13/cond/cond/else/_53/cond/cond/cond/else/_93/cond/cond/cond/cond/else/_133/cond/cond/cond/cond/cond/else/_173/output/_204", "op": "Const", "input": ["^PartitionedCall/PartitionedCall_1/cond/else/_13/cond/cond/else/_53/cond/cond/cond/else/_93/cond/cond/cond/cond/else/_133/cond/cond/cond/cond/cond/pivot_f/_175"], "attr": {"dtype": {"type": "DT_INT32"}, "value": {"tensor": {"dtype": "DT_INT32", "tensorShape": {}}}}}, {"name": "Func/PartitionedCall/PartitionedCall_1/cond/else/_13/cond/cond/else/_53/cond/cond/cond/else/_93/cond/cond/cond/cond/else/_133/cond/cond/cond/cond/cond/else/_173/output/_205", "op": "Const", "input": ["^PartitionedCall/PartitionedCall_1/cond/else/_13/cond/cond/else/_53/cond/cond/cond/else/_93/cond/cond/cond/cond/else/_133/cond/cond/cond/cond/cond/pivot_f/_175"], "attr": {"dtype": {"type": "DT_INT32"}, "value": {"tensor": {"dtype": "DT_INT32", "tensorShape": {}}}}}, {"name": "Func/PartitionedCall/PartitionedCall_1/cond/else/_13/cond/cond/else/_53/cond/cond/cond/else/_93/cond/cond/cond/cond/else/_133/cond/cond/cond/cond/cond/else/_173/output/_206", "op": "Const", "input": ["^PartitionedCall/PartitionedCall_1/cond/else/_13/cond/cond/else/_53/cond/cond/cond/else/_93/cond/cond/cond/cond/else/_133/cond/cond/cond/cond/cond/pivot_f/_175"], "attr": {"dtype": {"type": "DT_INT32"}, "value": {"tensor": {"dtype": "DT_INT32", "tensorShape": {}}}}}, {"name": "Func/PartitionedCall/PartitionedCall_1/cond/else/_13/cond/cond/else/_53/cond/cond/cond/else/_93/cond/cond/cond/cond/else/_133/cond/cond/cond/cond/cond/else/_173/output/_207", "op": "Const", "input": ["^PartitionedCall/PartitionedCall_1/cond/else/_13/cond/cond/else/_53/cond/cond/cond/else/_93/cond/cond/cond/cond/else/_133/cond/cond/cond/cond/cond/pivot_f/_175"], "attr": {"dtype": {"type": "DT_INT32"}, "value": {"tensor": {"dtype": "DT_INT32", "tensorShape": {}}}}}, {"name": "Func/PartitionedCall/PartitionedCall_1/cond/else/_13/cond/cond/else/_53/cond/cond/cond/else/_93/cond/cond/cond/cond/else/_133/cond/cond/cond/cond/cond/else/_173/output/_199", "op": "Const", "input": ["^PartitionedCall/PartitionedCall_1/cond/else/_13/cond/cond/else/_53/cond/cond/cond/else/_93/cond/cond/cond/cond/else/_133/cond/cond/cond/cond/cond/pivot_f/_175"], "attr": {"dtype": {"type": "DT_FLOAT"}, "value": {"tensor": {"dtype": "DT_FLOAT", "tensorShape": {"dim": [{"size": "5"}, {"size": "5"}, {"size": "1"}, {"size": "1"}]}}}}}, {"name": "Func/PartitionedCall/PartitionedCall_1/cond/else/_13/cond/cond/else/_53/cond/cond/cond/else/_93/cond/cond/cond/cond/else/_133/cond/cond/cond/cond/cond/then/_172/output/_196", "op": "Const", "input": ["^PartitionedCall/PartitionedCall_1/cond/else/_13/cond/cond/else/_53/cond/cond/cond/else/_93/cond/cond/cond/cond/else/_133/cond/cond/cond/cond/cond/pivot_t/_176"], "attr": {"dtype": {"type": "DT_INT32"}, "value": {"tensor": {"dtype": "DT_INT32", "tensorShape": {}}}}}, {"name": "Func/PartitionedCall/PartitionedCall_1/cond/else/_13/cond/cond/else/_53/cond/cond/cond/else/_93/cond/cond/cond/cond/else/_133/cond/cond/cond/cond/cond/then/_172/output/_188", "op": "Const", "input": ["^PartitionedCall/PartitionedCall_1/cond/else/_13/cond/cond/else/_53/cond/cond/cond/else/_93/cond/cond/cond/cond/else/_133/cond/cond/cond/cond/cond/pivot_t/_176"], "attr": {"dtype": {"type": "DT_FLOAT"}, "value": {"tensor": {"dtype": "DT_FLOAT", "tensorShape": {"dim": [{"size": "17"}, {"size": "17"}, {"size": "1"}, {"size": "1"}]}}}}}, {"name": "Func/PartitionedCall/PartitionedCall_1/cond/else/_13/cond/cond/else/_53/cond/cond/cond/else/_93/cond/cond/cond/cond/else/_133/cond/cond/cond/cond/cond/then/_172/output/_189", "op": "Const", "input": ["^PartitionedCall/PartitionedCall_1/cond/else/_13/cond/cond/else/_53/cond/cond/cond/else/_93/cond/cond/cond/cond/else/_133/cond/cond/cond/cond/cond/pivot_t/_176"], "attr": {"value": {"tensor": {"dtype": "DT_INT32", "tensorShape": {}}}, "dtype": {"type": "DT_INT32"}}}, {"name": "Func/PartitionedCall/PartitionedCall_1/cond/else/_13/cond/cond/else/_53/cond/cond/cond/else/_93/cond/cond/cond/cond/else/_133/cond/cond/cond/cond/cond/then/_172/output/_190", "op": "Const", "input": ["^PartitionedCall/PartitionedCall_1/cond/else/_13/cond/cond/else/_53/cond/cond/cond/else/_93/cond/cond/cond/cond/else/_133/cond/cond/cond/cond/cond/pivot_t/_176"], "attr": {"dtype": {"type": "DT_INT32"}, "value": {"tensor": {"dtype": "DT_INT32", "tensorShape": {}}}}}, {"name": "Func/PartitionedCall/PartitionedCall_1/cond/else/_13/cond/cond/else/_53/cond/cond/cond/else/_93/cond/cond/cond/cond/else/_133/cond/cond/cond/cond/cond/then/_172/output/_191", "op": "Const", "input": ["^PartitionedCall/PartitionedCall_1/cond/else/_13/cond/cond/else/_53/cond/cond/cond/else/_93/cond/cond/cond/cond/else/_133/cond/cond/cond/cond/cond/pivot_t/_176"], "attr": {"dtype": {"type": "DT_INT32"}, "value": {"tensor": {"dtype": "DT_INT32", "tensorShape": {}}}}}, {"name": "Func/PartitionedCall/PartitionedCall_1/cond/else/_13/cond/cond/else/_53/cond/cond/cond/else/_93/cond/cond/cond/cond/else/_133/cond/cond/cond/cond/cond/then/_172/output/_192", "op": "Const", "input": ["^PartitionedCall/PartitionedCall_1/cond/else/_13/cond/cond/else/_53/cond/cond/cond/else/_93/cond/cond/cond/cond/else/_133/cond/cond/cond/cond/cond/pivot_t/_176"], "attr": {"dtype": {"type": "DT_INT32"}, "value": {"tensor": {"dtype": "DT_INT32", "tensorShape": {}}}}}, {"name": "Func/PartitionedCall/PartitionedCall_1/cond/else/_13/cond/cond/else/_53/cond/cond/cond/else/_93/cond/cond/cond/cond/else/_133/cond/cond/cond/cond/cond/then/_172/output/_193", "op": "Const", "input": ["^PartitionedCall/PartitionedCall_1/cond/else/_13/cond/cond/else/_53/cond/cond/cond/else/_93/cond/cond/cond/cond/else/_133/cond/cond/cond/cond/cond/pivot_t/_176"], "attr": {"dtype": {"type": "DT_INT32"}, "value": {"tensor": {"dtype": "DT_INT32", "tensorShape": {}}}}}, {"name": "Func/PartitionedCall/PartitionedCall_1/cond/else/_13/cond/cond/else/_53/cond/cond/cond/else/_93/cond/cond/cond/cond/else/_133/cond/cond/cond/cond/cond/then/_172/output/_194", "op": "Const", "input": ["^PartitionedCall/PartitionedCall_1/cond/else/_13/cond/cond/else/_53/cond/cond/cond/else/_93/cond/cond/cond/cond/else/_133/cond/cond/cond/cond/cond/pivot_t/_176"], "attr": {"value": {"tensor": {"dtype": "DT_INT32", "tensorShape": {}}}, "dtype": {"type": "DT_INT32"}}}, {"name": "Func/PartitionedCall/PartitionedCall_1/cond/else/_13/cond/cond/else/_53/cond/cond/cond/else/_93/cond/cond/cond/cond/else/_133/cond/cond/cond/cond/cond/then/_172/output/_195", "op": "Const", "input": ["^PartitionedCall/PartitionedCall_1/cond/else/_13/cond/cond/else/_53/cond/cond/cond/else/_93/cond/cond/cond/cond/else/_133/cond/cond/cond/cond/cond/pivot_t/_176"], "attr": {"dtype": {"type": "DT_INT32"}, "value": {"tensor": {"dtype": "DT_INT32", "tensorShape": {}}}}}, {"name": "PartitionedCall/PartitionedCall/BiasAdd_2", "op": "_FusedConv2D", "input": ["PartitionedCall/PartitionedCall/depthwise", "PartitionedCall/PartitionedCall/split_1", "PartitionedCall/PartitionedCall/BiasAdd_2/bias"], "device": "/device:CPU:0", "attr": {"num_args": {"i": "1"}, "use_cudnn_on_gpu": {"b": true}, "strides": {"list": {"i": ["1", "1", "1", "1"]}}, "dilations": {"list": {"i": ["1", "1", "1", "1"]}}, "T": {"type": "DT_FLOAT"}, "explicit_paddings": {"list": {}}, "epsilon": {"f": 0.0}, "fused_ops": {"list": {"s": ["Qmlhc0FkZA=="]}}, "padding": {"s": "VkFMSUQ="}, "data_format": {"s": "TkhXQw=="}}}, {"name": "PartitionedCall/PartitionedCall_1/cond/else/_13/cond/cond/else/_53/cond/cond/cond/else/_93/cond/cond/cond/cond/else/_133/cond/cond/cond/cond/cond/output/_185", "op": "Merge", "input": ["Func/PartitionedCall/PartitionedCall_1/cond/else/_13/cond/cond/else/_53/cond/cond/cond/else/_93/cond/cond/cond/cond/else/_133/cond/cond/cond/cond/cond/then/_172/output/_196", "Func/PartitionedCall/PartitionedCall_1/cond/else/_13/cond/cond/else/_53/cond/cond/cond/else/_93/cond/cond/cond/cond/else/_133/cond/cond/cond/cond/cond/else/_173/output/_207"], "attr": {"T": {"type": "DT_INT32"}, "N": {"i": "2"}}}, {"name": "PartitionedCall/PartitionedCall_1/cond/else/_13/cond/cond/else/_53/cond/cond/cond/else/_93/cond/cond/cond/cond/else/_133/cond/cond/cond/cond/cond/output/_177", "op": "Merge", "input": ["Func/PartitionedCall/PartitionedCall_1/cond/else/_13/cond/cond/else/_53/cond/cond/cond/else/_93/cond/cond/cond/cond/else/_133/cond/cond/cond/cond/cond/then/_172/output/_188", "Func/PartitionedCall/PartitionedCall_1/cond/else/_13/cond/cond/else/_53/cond/cond/cond/else/_93/cond/cond/cond/cond/else/_133/cond/cond/cond/cond/cond/else/_173/output/_199"], "attr": {"N": {"i": "2"}, "T": {"type": "DT_FLOAT"}}}, {"name": "PartitionedCall/PartitionedCall_1/cond/else/_13/cond/cond/else/_53/cond/cond/cond/else/_93/cond/cond/cond/cond/else/_133/cond/cond/cond/cond/cond/output/_178", "op": "Merge", "input": ["Func/PartitionedCall/PartitionedCall_1/cond/else/_13/cond/cond/else/_53/cond/cond/cond/else/_93/cond/cond/cond/cond/else/_133/cond/cond/cond/cond/cond/then/_172/output/_189", "Func/PartitionedCall/PartitionedCall_1/cond/else/_13/cond/cond/else/_53/cond/cond/cond/else/_93/cond/cond/cond/cond/else/_133/cond/cond/cond/cond/cond/else/_173/output/_200"], "attr": {"N": {"i": "2"}, "T": {"type": "DT_INT32"}}}, {"name": "PartitionedCall/PartitionedCall_1/cond/else/_13/cond/cond/else/_53/cond/cond/cond/else/_93/cond/cond/cond/cond/else/_133/cond/cond/cond/cond/cond/output/_179", "op": "Merge", "input": ["Func/PartitionedCall/PartitionedCall_1/cond/else/_13/cond/cond/else/_53/cond/cond/cond/else/_93/cond/cond/cond/cond/else/_133/cond/cond/cond/cond/cond/then/_172/output/_190", "Func/PartitionedCall/PartitionedCall_1/cond/else/_13/cond/cond/else/_53/cond/cond/cond/else/_93/cond/cond/cond/cond/else/_133/cond/cond/cond/cond/cond/else/_173/output/_201"], "attr": {"T": {"type": "DT_INT32"}, "N": {"i": "2"}}}, {"name": "PartitionedCall/PartitionedCall_1/cond/else/_13/cond/cond/else/_53/cond/cond/cond/else/_93/cond/cond/cond/cond/else/_133/cond/cond/cond/cond/cond/output/_180", "op": "Merge", "input": ["Func/PartitionedCall/PartitionedCall_1/cond/else/_13/cond/cond/else/_53/cond/cond/cond/else/_93/cond/cond/cond/cond/else/_133/cond/cond/cond/cond/cond/then/_172/output/_191", "Func/PartitionedCall/PartitionedCall_1/cond/else/_13/cond/cond/else/_53/cond/cond/cond/else/_93/cond/cond/cond/cond/else/_133/cond/cond/cond/cond/cond/else/_173/output/_202"], "attr": {"T": {"type": "DT_INT32"}, "N": {"i": "2"}}}, {"name": "PartitionedCall/PartitionedCall_1/cond/else/_13/cond/cond/else/_53/cond/cond/cond/else/_93/cond/cond/cond/cond/else/_133/cond/cond/cond/cond/cond/output/_181", "op": "Merge", "input": ["Func/PartitionedCall/PartitionedCall_1/cond/else/_13/cond/cond/else/_53/cond/cond/cond/else/_93/cond/cond/cond/cond/else/_133/cond/cond/cond/cond/cond/then/_172/output/_192", "Func/PartitionedCall/PartitionedCall_1/cond/else/_13/cond/cond/else/_53/cond/cond/cond/else/_93/cond/cond/cond/cond/else/_133/cond/cond/cond/cond/cond/else/_173/output/_203"], "attr": {"T": {"type": "DT_INT32"}, "N": {"i": "2"}}}, {"name": "PartitionedCall/PartitionedCall_1/cond/else/_13/cond/cond/else/_53/cond/cond/cond/else/_93/cond/cond/cond/cond/else/_133/cond/cond/cond/cond/cond/output/_182", "op": "Merge", "input": ["Func/PartitionedCall/PartitionedCall_1/cond/else/_13/cond/cond/else/_53/cond/cond/cond/else/_93/cond/cond/cond/cond/else/_133/cond/cond/cond/cond/cond/then/_172/output/_193", "Func/PartitionedCall/PartitionedCall_1/cond/else/_13/cond/cond/else/_53/cond/cond/cond/else/_93/cond/cond/cond/cond/else/_133/cond/cond/cond/cond/cond/else/_173/output/_204"], "attr": {"T": {"type": "DT_INT32"}, "N": {"i": "2"}}}, {"name": "PartitionedCall/PartitionedCall_1/cond/else/_13/cond/cond/else/_53/cond/cond/cond/else/_93/cond/cond/cond/cond/else/_133/cond/cond/cond/cond/cond/output/_183", "op": "Merge", "input": ["Func/PartitionedCall/PartitionedCall_1/cond/else/_13/cond/cond/else/_53/cond/cond/cond/else/_93/cond/cond/cond/cond/else/_133/cond/cond/cond/cond/cond/then/_172/output/_194", "Func/PartitionedCall/PartitionedCall_1/cond/else/_13/cond/cond/else/_53/cond/cond/cond/else/_93/cond/cond/cond/cond/else/_133/cond/cond/cond/cond/cond/else/_173/output/_205"], "attr": {"T": {"type": "DT_INT32"}, "N": {"i": "2"}}}, {"name": "PartitionedCall/PartitionedCall_1/cond/else/_13/cond/cond/else/_53/cond/cond/cond/else/_93/cond/cond/cond/cond/else/_133/cond/cond/cond/cond/cond/output/_184", "op": "Merge", "input": ["Func/PartitionedCall/PartitionedCall_1/cond/else/_13/cond/cond/else/_53/cond/cond/cond/else/_93/cond/cond/cond/cond/else/_133/cond/cond/cond/cond/cond/then/_172/output/_195", "Func/PartitionedCall/PartitionedCall_1/cond/else/_13/cond/cond/else/_53/cond/cond/cond/else/_93/cond/cond/cond/cond/else/_133/cond/cond/cond/cond/cond/else/_173/output/_206"], "attr": {"N": {"i": "2"}, "T": {"type": "DT_INT32"}}}, {"name": "PartitionedCall/PartitionedCall/Conv2D_30", "op": "Conv2D", "input": ["PartitionedCall/PartitionedCall/BiasAdd_2", "PartitionedCall/PartitionedCall/split_30"], "device": "/device:CPU:0", "attr": {"padding": {"s": "VkFMSUQ="}, "strides": {"list": {"i": ["1", "1", "1", "1"]}}, "T": {"type": "DT_FLOAT"}, "data_format": {"s": "TkhXQw=="}, "dilations": {"list": {"i": ["1", "1", "1", "1"]}}, "use_cudnn_on_gpu": {"b": true}, "explicit_paddings": {"list": {}}}}, {"name": "PartitionedCall/PartitionedCall/Relu6_2", "op": "_FusedConv2D", "input": ["PartitionedCall/PartitionedCall/BiasAdd_2", "PartitionedCall/PartitionedCall/split_2", "PartitionedCall/PartitionedCall/BiasAdd_3/bias"], "device": "/device:CPU:0", "attr": {"data_format": {"s": "TkhXQw=="}, "use_cudnn_on_gpu": {"b": true}, "strides": {"list": {"i": ["1", "1", "1", "1"]}}, "explicit_paddings": {"list": {}}, "epsilon": {"f": 0.0}, "fused_ops": {"list": {"s": ["Qmlhc0FkZA==", "UmVsdTY="]}}, "num_args": {"i": "1"}, "T": {"type": "DT_FLOAT"}, "padding": {"s": "VkFMSUQ="}, "dilations": {"list": {"i": ["1", "1", "1", "1"]}}}}, {"name": "PartitionedCall/PartitionedCall_1/cond/else/_13/cond/cond/else/_53/cond/cond/cond/else/_93/cond/cond/cond/cond/output/_146", "op": "Merge", "input": ["Func/PartitionedCall/PartitionedCall_1/cond/else/_13/cond/cond/else/_53/cond/cond/cond/else/_93/cond/cond/cond/cond/then/_132/output/_158", "PartitionedCall/PartitionedCall_1/cond/else/_13/cond/cond/else/_53/cond/cond/cond/else/_93/cond/cond/cond/cond/else/_133/cond/cond/cond/cond/cond/output/_185"], "attr": {"N": {"i": "2"}, "T": {"type": "DT_INT32"}}}, {"name": "PartitionedCall/PartitionedCall_1/cond/else/_13/cond/cond/else/_53/cond/cond/cond/else/_93/cond/cond/cond/cond/output/_138", "op": "Merge", "input": ["Func/PartitionedCall/PartitionedCall_1/cond/else/_13/cond/cond/else/_53/cond/cond/cond/else/_93/cond/cond/cond/cond/then/_132/output/_150", "PartitionedCall/PartitionedCall_1/cond/else/_13/cond/cond/else/_53/cond/cond/cond/else/_93/cond/cond/cond/cond/else/_133/cond/cond/cond/cond/cond/output/_177"], "attr": {"T": {"type": "DT_FLOAT"}, "N": {"i": "2"}}}, {"name": "PartitionedCall/PartitionedCall_1/cond/else/_13/cond/cond/else/_53/cond/cond/cond/else/_93/cond/cond/cond/cond/output/_139", "op": "Merge", "input": ["Func/PartitionedCall/PartitionedCall_1/cond/else/_13/cond/cond/else/_53/cond/cond/cond/else/_93/cond/cond/cond/cond/then/_132/output/_151", "PartitionedCall/PartitionedCall_1/cond/else/_13/cond/cond/else/_53/cond/cond/cond/else/_93/cond/cond/cond/cond/else/_133/cond/cond/cond/cond/cond/output/_178"], "attr": {"T": {"type": "DT_INT32"}, "N": {"i": "2"}}}, {"name": "PartitionedCall/PartitionedCall_1/cond/else/_13/cond/cond/else/_53/cond/cond/cond/else/_93/cond/cond/cond/cond/output/_140", "op": "Merge", "input": ["Func/PartitionedCall/PartitionedCall_1/cond/else/_13/cond/cond/else/_53/cond/cond/cond/else/_93/cond/cond/cond/cond/then/_132/output/_152", "PartitionedCall/PartitionedCall_1/cond/else/_13/cond/cond/else/_53/cond/cond/cond/else/_93/cond/cond/cond/cond/else/_133/cond/cond/cond/cond/cond/output/_179"], "attr": {"T": {"type": "DT_INT32"}, "N": {"i": "2"}}}, {"name": "PartitionedCall/PartitionedCall_1/cond/else/_13/cond/cond/else/_53/cond/cond/cond/else/_93/cond/cond/cond/cond/output/_141", "op": "Merge", "input": ["Func/PartitionedCall/PartitionedCall_1/cond/else/_13/cond/cond/else/_53/cond/cond/cond/else/_93/cond/cond/cond/cond/then/_132/output/_153", "PartitionedCall/PartitionedCall_1/cond/else/_13/cond/cond/else/_53/cond/cond/cond/else/_93/cond/cond/cond/cond/else/_133/cond/cond/cond/cond/cond/output/_180"], "attr": {"N": {"i": "2"}, "T": {"type": "DT_INT32"}}}, {"name": "PartitionedCall/PartitionedCall_1/cond/else/_13/cond/cond/else/_53/cond/cond/cond/else/_93/cond/cond/cond/cond/output/_142", "op": "Merge", "input": ["Func/PartitionedCall/PartitionedCall_1/cond/else/_13/cond/cond/else/_53/cond/cond/cond/else/_93/cond/cond/cond/cond/then/_132/output/_154", "PartitionedCall/PartitionedCall_1/cond/else/_13/cond/cond/else/_53/cond/cond/cond/else/_93/cond/cond/cond/cond/else/_133/cond/cond/cond/cond/cond/output/_181"], "attr": {"N": {"i": "2"}, "T": {"type": "DT_INT32"}}}, {"name": "PartitionedCall/PartitionedCall_1/cond/else/_13/cond/cond/else/_53/cond/cond/cond/else/_93/cond/cond/cond/cond/output/_143", "op": "Merge", "input": ["Func/PartitionedCall/PartitionedCall_1/cond/else/_13/cond/cond/else/_53/cond/cond/cond/else/_93/cond/cond/cond/cond/then/_132/output/_155", "PartitionedCall/PartitionedCall_1/cond/else/_13/cond/cond/else/_53/cond/cond/cond/else/_93/cond/cond/cond/cond/else/_133/cond/cond/cond/cond/cond/output/_182"], "attr": {"T": {"type": "DT_INT32"}, "N": {"i": "2"}}}, {"name": "PartitionedCall/PartitionedCall_1/cond/else/_13/cond/cond/else/_53/cond/cond/cond/else/_93/cond/cond/cond/cond/output/_144", "op": "Merge", "input": ["Func/PartitionedCall/PartitionedCall_1/cond/else/_13/cond/cond/else/_53/cond/cond/cond/else/_93/cond/cond/cond/cond/then/_132/output/_156", "PartitionedCall/PartitionedCall_1/cond/else/_13/cond/cond/else/_53/cond/cond/cond/else/_93/cond/cond/cond/cond/else/_133/cond/cond/cond/cond/cond/output/_183"], "attr": {"N": {"i": "2"}, "T": {"type": "DT_INT32"}}}, {"name": "PartitionedCall/PartitionedCall_1/cond/else/_13/cond/cond/else/_53/cond/cond/cond/else/_93/cond/cond/cond/cond/output/_145", "op": "Merge", "input": ["Func/PartitionedCall/PartitionedCall_1/cond/else/_13/cond/cond/else/_53/cond/cond/cond/else/_93/cond/cond/cond/cond/then/_132/output/_157", "PartitionedCall/PartitionedCall_1/cond/else/_13/cond/cond/else/_53/cond/cond/cond/else/_93/cond/cond/cond/cond/else/_133/cond/cond/cond/cond/cond/output/_184"], "attr": {"T": {"type": "DT_INT32"}, "N": {"i": "2"}}}, {"name": "PartitionedCall/PartitionedCall/Pad_2", "op": "Pad", "input": ["PartitionedCall/PartitionedCall/Relu6_2", "PartitionedCall/PartitionedCall/Const_2"], "attr": {"T": {"type": "DT_FLOAT"}, "Tpaddings": {"type": "DT_INT32"}}}, {"name": "PartitionedCall/PartitionedCall_1/cond/else/_13/cond/cond/else/_53/cond/cond/cond/output/_106", "op": "Merge", "input": ["Func/PartitionedCall/PartitionedCall_1/cond/else/_13/cond/cond/else/_53/cond/cond/cond/then/_92/output/_118", "PartitionedCall/PartitionedCall_1/cond/else/_13/cond/cond/else/_53/cond/cond/cond/else/_93/cond/cond/cond/cond/output/_146"], "attr": {"N": {"i": "2"}, "T": {"type": "DT_INT32"}}}, {"name": "PartitionedCall/PartitionedCall_1/cond/else/_13/cond/cond/else/_53/cond/cond/cond/output/_98", "op": "Merge", "input": ["Func/PartitionedCall/PartitionedCall_1/cond/else/_13/cond/cond/else/_53/cond/cond/cond/then/_92/output/_110", "PartitionedCall/PartitionedCall_1/cond/else/_13/cond/cond/else/_53/cond/cond/cond/else/_93/cond/cond/cond/cond/output/_138"], "attr": {"N": {"i": "2"}, "T": {"type": "DT_FLOAT"}}}, {"name": "PartitionedCall/PartitionedCall_1/cond/else/_13/cond/cond/else/_53/cond/cond/cond/output/_99", "op": "Merge", "input": ["Func/PartitionedCall/PartitionedCall_1/cond/else/_13/cond/cond/else/_53/cond/cond/cond/then/_92/output/_111", "PartitionedCall/PartitionedCall_1/cond/else/_13/cond/cond/else/_53/cond/cond/cond/else/_93/cond/cond/cond/cond/output/_139"], "attr": {"T": {"type": "DT_INT32"}, "N": {"i": "2"}}}, {"name": "PartitionedCall/PartitionedCall_1/cond/else/_13/cond/cond/else/_53/cond/cond/cond/output/_100", "op": "Merge", "input": ["Func/PartitionedCall/PartitionedCall_1/cond/else/_13/cond/cond/else/_53/cond/cond/cond/then/_92/output/_112", "PartitionedCall/PartitionedCall_1/cond/else/_13/cond/cond/else/_53/cond/cond/cond/else/_93/cond/cond/cond/cond/output/_140"], "attr": {"T": {"type": "DT_INT32"}, "N": {"i": "2"}}}, {"name": "PartitionedCall/PartitionedCall_1/cond/else/_13/cond/cond/else/_53/cond/cond/cond/output/_101", "op": "Merge", "input": ["Func/PartitionedCall/PartitionedCall_1/cond/else/_13/cond/cond/else/_53/cond/cond/cond/then/_92/output/_113", "PartitionedCall/PartitionedCall_1/cond/else/_13/cond/cond/else/_53/cond/cond/cond/else/_93/cond/cond/cond/cond/output/_141"], "attr": {"N": {"i": "2"}, "T": {"type": "DT_INT32"}}}, {"name": "PartitionedCall/PartitionedCall_1/cond/else/_13/cond/cond/else/_53/cond/cond/cond/output/_102", "op": "Merge", "input": ["Func/PartitionedCall/PartitionedCall_1/cond/else/_13/cond/cond/else/_53/cond/cond/cond/then/_92/output/_114", "PartitionedCall/PartitionedCall_1/cond/else/_13/cond/cond/else/_53/cond/cond/cond/else/_93/cond/cond/cond/cond/output/_142"], "attr": {"T": {"type": "DT_INT32"}, "N": {"i": "2"}}}, {"name": "PartitionedCall/PartitionedCall_1/cond/else/_13/cond/cond/else/_53/cond/cond/cond/output/_103", "op": "Merge", "input": ["Func/PartitionedCall/PartitionedCall_1/cond/else/_13/cond/cond/else/_53/cond/cond/cond/then/_92/output/_115", "PartitionedCall/PartitionedCall_1/cond/else/_13/cond/cond/else/_53/cond/cond/cond/else/_93/cond/cond/cond/cond/output/_143"], "attr": {"T": {"type": "DT_INT32"}, "N": {"i": "2"}}}, {"name": "PartitionedCall/PartitionedCall_1/cond/else/_13/cond/cond/else/_53/cond/cond/cond/output/_104", "op": "Merge", "input": ["Func/PartitionedCall/PartitionedCall_1/cond/else/_13/cond/cond/else/_53/cond/cond/cond/then/_92/output/_116", "PartitionedCall/PartitionedCall_1/cond/else/_13/cond/cond/else/_53/cond/cond/cond/else/_93/cond/cond/cond/cond/output/_144"], "attr": {"T": {"type": "DT_INT32"}, "N": {"i": "2"}}}, {"name": "PartitionedCall/PartitionedCall_1/cond/else/_13/cond/cond/else/_53/cond/cond/cond/output/_105", "op": "Merge", "input": ["Func/PartitionedCall/PartitionedCall_1/cond/else/_13/cond/cond/else/_53/cond/cond/cond/then/_92/output/_117", "PartitionedCall/PartitionedCall_1/cond/else/_13/cond/cond/else/_53/cond/cond/cond/else/_93/cond/cond/cond/cond/output/_145"], "attr": {"T": {"type": "DT_INT32"}, "N": {"i": "2"}}}, {"name": "PartitionedCall/PartitionedCall/depthwise_1", "op": "FusedDepthwiseConv2dNative", "input": ["PartitionedCall/PartitionedCall/Pad_2", "PartitionedCall/PartitionedCall/Reshape_1", "PartitionedCall/PartitionedCall/BiasAdd_4/bias"], "attr": {"num_args": {"i": "1"}, "data_format": {"s": "TkhXQw=="}, "T": {"type": "DT_FLOAT"}, "dilations": {"list": {"i": ["1", "1", "1", "1"]}}, "explicit_paddings": {"list": {}}, "fused_ops": {"list": {"s": ["Qmlhc0FkZA==", "UmVsdTY="]}}, "strides": {"list": {"i": ["1", "2", "2", "1"]}}, "padding": {"s": "VkFMSUQ="}}}, {"name": "PartitionedCall/PartitionedCall_1/cond/else/_13/cond/cond/output/_66", "op": "Merge", "input": ["Func/PartitionedCall/PartitionedCall_1/cond/else/_13/cond/cond/then/_52/output/_78", "PartitionedCall/PartitionedCall_1/cond/else/_13/cond/cond/else/_53/cond/cond/cond/output/_106"], "attr": {"N": {"i": "2"}, "T": {"type": "DT_INT32"}}}, {"name": "PartitionedCall/PartitionedCall_1/cond/else/_13/cond/cond/output/_58", "op": "Merge", "input": ["Func/PartitionedCall/PartitionedCall_1/cond/else/_13/cond/cond/then/_52/output/_70", "PartitionedCall/PartitionedCall_1/cond/else/_13/cond/cond/else/_53/cond/cond/cond/output/_98"], "attr": {"N": {"i": "2"}, "T": {"type": "DT_FLOAT"}}}, {"name": "PartitionedCall/PartitionedCall_1/cond/else/_13/cond/cond/output/_59", "op": "Merge", "input": ["Func/PartitionedCall/PartitionedCall_1/cond/else/_13/cond/cond/then/_52/output/_71", "PartitionedCall/PartitionedCall_1/cond/else/_13/cond/cond/else/_53/cond/cond/cond/output/_99"], "attr": {"N": {"i": "2"}, "T": {"type": "DT_INT32"}}}, {"name": "PartitionedCall/PartitionedCall_1/cond/else/_13/cond/cond/output/_60", "op": "Merge", "input": ["Func/PartitionedCall/PartitionedCall_1/cond/else/_13/cond/cond/then/_52/output/_72", "PartitionedCall/PartitionedCall_1/cond/else/_13/cond/cond/else/_53/cond/cond/cond/output/_100"], "attr": {"T": {"type": "DT_INT32"}, "N": {"i": "2"}}}, {"name": "PartitionedCall/PartitionedCall_1/cond/else/_13/cond/cond/output/_61", "op": "Merge", "input": ["Func/PartitionedCall/PartitionedCall_1/cond/else/_13/cond/cond/then/_52/output/_73", "PartitionedCall/PartitionedCall_1/cond/else/_13/cond/cond/else/_53/cond/cond/cond/output/_101"], "attr": {"N": {"i": "2"}, "T": {"type": "DT_INT32"}}}, {"name": "PartitionedCall/PartitionedCall_1/cond/else/_13/cond/cond/output/_62", "op": "Merge", "input": ["Func/PartitionedCall/PartitionedCall_1/cond/else/_13/cond/cond/then/_52/output/_74", "PartitionedCall/PartitionedCall_1/cond/else/_13/cond/cond/else/_53/cond/cond/cond/output/_102"], "attr": {"N": {"i": "2"}, "T": {"type": "DT_INT32"}}}, {"name": "PartitionedCall/PartitionedCall_1/cond/else/_13/cond/cond/output/_63", "op": "Merge", "input": ["Func/PartitionedCall/PartitionedCall_1/cond/else/_13/cond/cond/then/_52/output/_75", "PartitionedCall/PartitionedCall_1/cond/else/_13/cond/cond/else/_53/cond/cond/cond/output/_103"], "attr": {"T": {"type": "DT_INT32"}, "N": {"i": "2"}}}, {"name": "PartitionedCall/PartitionedCall_1/cond/else/_13/cond/cond/output/_64", "op": "Merge", "input": ["Func/PartitionedCall/PartitionedCall_1/cond/else/_13/cond/cond/then/_52/output/_76", "PartitionedCall/PartitionedCall_1/cond/else/_13/cond/cond/else/_53/cond/cond/cond/output/_104"], "attr": {"N": {"i": "2"}, "T": {"type": "DT_INT32"}}}, {"name": "PartitionedCall/PartitionedCall_1/cond/else/_13/cond/cond/output/_65", "op": "Merge", "input": ["Func/PartitionedCall/PartitionedCall_1/cond/else/_13/cond/cond/then/_52/output/_77", "PartitionedCall/PartitionedCall_1/cond/else/_13/cond/cond/else/_53/cond/cond/cond/output/_105"], "attr": {"N": {"i": "2"}, "T": {"type": "DT_INT32"}}}, {"name": "PartitionedCall/PartitionedCall_1/cond/output/_26", "op": "Merge", "input": ["Func/PartitionedCall/PartitionedCall_1/cond/then/_12/output/_38", "PartitionedCall/PartitionedCall_1/cond/else/_13/cond/cond/output/_66"], "attr": {"N": {"i": "2"}, "T": {"type": "DT_INT32"}}}, {"name": "PartitionedCall/PartitionedCall_1/cond/output/_18", "op": "Merge", "input": ["Func/PartitionedCall/PartitionedCall_1/cond/then/_12/output/_30", "PartitionedCall/PartitionedCall_1/cond/else/_13/cond/cond/output/_58"], "attr": {"N": {"i": "2"}, "T": {"type": "DT_FLOAT"}}}, {"name": "PartitionedCall/PartitionedCall_1/cond/output/_19", "op": "Merge", "input": ["Func/PartitionedCall/PartitionedCall_1/cond/then/_12/output/_31", "PartitionedCall/PartitionedCall_1/cond/else/_13/cond/cond/output/_59"], "attr": {"T": {"type": "DT_INT32"}, "N": {"i": "2"}}}, {"name": "PartitionedCall/PartitionedCall_1/cond/output/_20", "op": "Merge", "input": ["Func/PartitionedCall/PartitionedCall_1/cond/then/_12/output/_32", "PartitionedCall/PartitionedCall_1/cond/else/_13/cond/cond/output/_60"], "attr": {"N": {"i": "2"}, "T": {"type": "DT_INT32"}}}, {"name": "PartitionedCall/PartitionedCall_1/cond/output/_21", "op": "Merge", "input": ["Func/PartitionedCall/PartitionedCall_1/cond/then/_12/output/_33", "PartitionedCall/PartitionedCall_1/cond/else/_13/cond/cond/output/_61"], "attr": {"T": {"type": "DT_INT32"}, "N": {"i": "2"}}}, {"name": "PartitionedCall/PartitionedCall_1/cond/output/_22", "op": "Merge", "input": ["Func/PartitionedCall/PartitionedCall_1/cond/then/_12/output/_34", "PartitionedCall/PartitionedCall_1/cond/else/_13/cond/cond/output/_62"], "attr": {"N": {"i": "2"}, "T": {"type": "DT_INT32"}}}, {"name": "PartitionedCall/PartitionedCall_1/cond/output/_23", "op": "Merge", "input": ["Func/PartitionedCall/PartitionedCall_1/cond/then/_12/output/_35", "PartitionedCall/PartitionedCall_1/cond/else/_13/cond/cond/output/_63"], "attr": {"T": {"type": "DT_INT32"}, "N": {"i": "2"}}}, {"name": "PartitionedCall/PartitionedCall_1/cond/output/_24", "op": "Merge", "input": ["Func/PartitionedCall/PartitionedCall_1/cond/then/_12/output/_36", "PartitionedCall/PartitionedCall_1/cond/else/_13/cond/cond/output/_64"], "attr": {"T": {"type": "DT_INT32"}, "N": {"i": "2"}}}, {"name": "PartitionedCall/PartitionedCall_1/cond/output/_25", "op": "Merge", "input": ["Func/PartitionedCall/PartitionedCall_1/cond/then/_12/output/_37", "PartitionedCall/PartitionedCall_1/cond/else/_13/cond/cond/output/_65"], "attr": {"T": {"type": "DT_INT32"}, "N": {"i": "2"}}}, {"name": "PartitionedCall/PartitionedCall_1/MirrorPad_4/paddings/0", "op": "Pack", "input": ["PartitionedCall/PartitionedCall_1/cond/output/_19", "PartitionedCall/PartitionedCall_1/cond/output/_20"], "attr": {"axis": {"i": "0"}, "T": {"type": "DT_INT32"}, "N": {"i": "2"}}}, {"name": "PartitionedCall/PartitionedCall_1/MirrorPad_3/paddings/0", "op": "Pack", "input": ["PartitionedCall/PartitionedCall_1/cond/output/_19", "PartitionedCall/PartitionedCall_1/cond/output/_20"], "attr": {"N": {"i": "2"}, "axis": {"i": "0"}, "T": {"type": "DT_INT32"}}}, {"name": "PartitionedCall/PartitionedCall_1/MirrorPad_1/paddings/0", "op": "Pack", "input": ["PartitionedCall/PartitionedCall_1/cond/output/_19", "PartitionedCall/PartitionedCall_1/cond/output/_20"], "attr": {"N": {"i": "2"}, "T": {"type": "DT_INT32"}, "axis": {"i": "0"}}}, {"name": "PartitionedCall/PartitionedCall_1/MirrorPad_2/paddings/0", "op": "Pack", "input": ["PartitionedCall/PartitionedCall_1/cond/output/_19", "PartitionedCall/PartitionedCall_1/cond/output/_20"], "attr": {"axis": {"i": "0"}, "N": {"i": "2"}, "T": {"type": "DT_INT32"}}}, {"name": "PartitionedCall/PartitionedCall_1/MirrorPad/paddings/0", "op": "Pack", "input": ["PartitionedCall/PartitionedCall_1/cond/output/_19", "PartitionedCall/PartitionedCall_1/cond/output/_20"], "attr": {"N": {"i": "2"}, "axis": {"i": "0"}, "T": {"type": "DT_INT32"}}}, {"name": "PartitionedCall/PartitionedCall_1/MirrorPad_5/paddings/0", "op": "Pack", "input": ["PartitionedCall/PartitionedCall_1/cond/output/_19", "PartitionedCall/PartitionedCall_1/cond/output/_20"], "attr": {"T": {"type": "DT_INT32"}, "N": {"i": "2"}, "axis": {"i": "0"}}}, {"name": "PartitionedCall/PartitionedCall_1/MirrorPad_4/paddings/1", "op": "Pack", "input": ["PartitionedCall/PartitionedCall_1/cond/output/_21", "PartitionedCall/PartitionedCall_1/cond/output/_22"], "attr": {"axis": {"i": "0"}, "N": {"i": "2"}, "T": {"type": "DT_INT32"}}}, {"name": "PartitionedCall/PartitionedCall_1/MirrorPad_3/paddings/1", "op": "Pack", "input": ["PartitionedCall/PartitionedCall_1/cond/output/_21", "PartitionedCall/PartitionedCall_1/cond/output/_22"], "attr": {"T": {"type": "DT_INT32"}, "N": {"i": "2"}, "axis": {"i": "0"}}}, {"name": "PartitionedCall/PartitionedCall_1/MirrorPad_1/paddings/1", "op": "Pack", "input": ["PartitionedCall/PartitionedCall_1/cond/output/_21", "PartitionedCall/PartitionedCall_1/cond/output/_22"], "attr": {"T": {"type": "DT_INT32"}, "N": {"i": "2"}, "axis": {"i": "0"}}}, {"name": "PartitionedCall/PartitionedCall_1/MirrorPad_2/paddings/1", "op": "Pack", "input": ["PartitionedCall/PartitionedCall_1/cond/output/_21", "PartitionedCall/PartitionedCall_1/cond/output/_22"], "attr": {"N": {"i": "2"}, "T": {"type": "DT_INT32"}, "axis": {"i": "0"}}}, {"name": "PartitionedCall/PartitionedCall_1/MirrorPad/paddings/1", "op": "Pack", "input": ["PartitionedCall/PartitionedCall_1/cond/output/_21", "PartitionedCall/PartitionedCall_1/cond/output/_22"], "attr": {"N": {"i": "2"}, "axis": {"i": "0"}, "T": {"type": "DT_INT32"}}}, {"name": "PartitionedCall/PartitionedCall_1/MirrorPad_5/paddings/1", "op": "Pack", "input": ["PartitionedCall/PartitionedCall_1/cond/output/_21", "PartitionedCall/PartitionedCall_1/cond/output/_22"], "attr": {"axis": {"i": "0"}, "T": {"type": "DT_INT32"}, "N": {"i": "2"}}}, {"name": "PartitionedCall/PartitionedCall_1/MirrorPad_4/paddings/2", "op": "Pack", "input": ["PartitionedCall/PartitionedCall_1/cond/output/_23", "PartitionedCall/PartitionedCall_1/cond/output/_24"], "attr": {"T": {"type": "DT_INT32"}, "N": {"i": "2"}, "axis": {"i": "0"}}}, {"name": "PartitionedCall/PartitionedCall_1/MirrorPad_3/paddings/2", "op": "Pack", "input": ["PartitionedCall/PartitionedCall_1/cond/output/_23", "PartitionedCall/PartitionedCall_1/cond/output/_24"], "attr": {"T": {"type": "DT_INT32"}, "N": {"i": "2"}, "axis": {"i": "0"}}}, {"name": "PartitionedCall/PartitionedCall_1/MirrorPad_1/paddings/2", "op": "Pack", "input": ["PartitionedCall/PartitionedCall_1/cond/output/_23", "PartitionedCall/PartitionedCall_1/cond/output/_24"], "attr": {"axis": {"i": "0"}, "N": {"i": "2"}, "T": {"type": "DT_INT32"}}}, {"name": "PartitionedCall/PartitionedCall_1/MirrorPad_2/paddings/2", "op": "Pack", "input": ["PartitionedCall/PartitionedCall_1/cond/output/_23", "PartitionedCall/PartitionedCall_1/cond/output/_24"], "attr": {"N": {"i": "2"}, "T": {"type": "DT_INT32"}, "axis": {"i": "0"}}}, {"name": "PartitionedCall/PartitionedCall_1/MirrorPad/paddings/2", "op": "Pack", "input": ["PartitionedCall/PartitionedCall_1/cond/output/_23", "PartitionedCall/PartitionedCall_1/cond/output/_24"], "attr": {"T": {"type": "DT_INT32"}, "axis": {"i": "0"}, "N": {"i": "2"}}}, {"name": "PartitionedCall/PartitionedCall_1/MirrorPad_5/paddings/2", "op": "Pack", "input": ["PartitionedCall/PartitionedCall_1/cond/output/_23", "PartitionedCall/PartitionedCall_1/cond/output/_24"], "attr": {"N": {"i": "2"}, "T": {"type": "DT_INT32"}, "axis": {"i": "0"}}}, {"name": "PartitionedCall/PartitionedCall_1/MirrorPad_4/paddings/3", "op": "Pack", "input": ["PartitionedCall/PartitionedCall_1/cond/output/_25", "PartitionedCall/PartitionedCall_1/cond/output/_26"], "attr": {"axis": {"i": "0"}, "T": {"type": "DT_INT32"}, "N": {"i": "2"}}}, {"name": "PartitionedCall/PartitionedCall_1/MirrorPad_3/paddings/3", "op": "Pack", "input": ["PartitionedCall/PartitionedCall_1/cond/output/_25", "PartitionedCall/PartitionedCall_1/cond/output/_26"], "attr": {"N": {"i": "2"}, "T": {"type": "DT_INT32"}, "axis": {"i": "0"}}}, {"name": "PartitionedCall/PartitionedCall_1/MirrorPad_1/paddings/3", "op": "Pack", "input": ["PartitionedCall/PartitionedCall_1/cond/output/_25", "PartitionedCall/PartitionedCall_1/cond/output/_26"], "attr": {"N": {"i": "2"}, "T": {"type": "DT_INT32"}, "axis": {"i": "0"}}}, {"name": "PartitionedCall/PartitionedCall_1/MirrorPad_2/paddings/3", "op": "Pack", "input": ["PartitionedCall/PartitionedCall_1/cond/output/_25", "PartitionedCall/PartitionedCall_1/cond/output/_26"], "attr": {"N": {"i": "2"}, "axis": {"i": "0"}, "T": {"type": "DT_INT32"}}}, {"name": "PartitionedCall/PartitionedCall_1/MirrorPad/paddings/3", "op": "Pack", "input": ["PartitionedCall/PartitionedCall_1/cond/output/_25", "PartitionedCall/PartitionedCall_1/cond/output/_26"], "attr": {"N": {"i": "2"}, "T": {"type": "DT_INT32"}, "axis": {"i": "0"}}}, {"name": "PartitionedCall/PartitionedCall_1/MirrorPad_5/paddings/3", "op": "Pack", "input": ["PartitionedCall/PartitionedCall_1/cond/output/_25", "PartitionedCall/PartitionedCall_1/cond/output/_26"], "attr": {"T": {"type": "DT_INT32"}, "N": {"i": "2"}, "axis": {"i": "0"}}}, {"name": "PartitionedCall/PartitionedCall/BiasAdd_5", "op": "_FusedConv2D", "input": ["PartitionedCall/PartitionedCall/depthwise_1", "PartitionedCall/PartitionedCall/split_3", "PartitionedCall/PartitionedCall/BiasAdd_5/bias"], "device": "/device:CPU:0", "attr": {"num_args": {"i": "1"}, "epsilon": {"f": 0.0}, "use_cudnn_on_gpu": {"b": true}, "explicit_paddings": {"list": {}}, "dilations": {"list": {"i": ["1", "1", "1", "1"]}}, "data_format": {"s": "TkhXQw=="}, "padding": {"s": "VkFMSUQ="}, "fused_ops": {"list": {"s": ["Qmlhc0FkZA=="]}}, "strides": {"list": {"i": ["1", "1", "1", "1"]}}, "T": {"type": "DT_FLOAT"}}}, {"name": "PartitionedCall/PartitionedCall_1/MirrorPad_4/paddings", "op": "Pack", "input": ["PartitionedCall/PartitionedCall_1/MirrorPad_4/paddings/0", "PartitionedCall/PartitionedCall_1/MirrorPad_4/paddings/1", "PartitionedCall/PartitionedCall_1/MirrorPad_4/paddings/2", "PartitionedCall/PartitionedCall_1/MirrorPad_4/paddings/3"], "attr": {"T": {"type": "DT_INT32"}, "N": {"i": "4"}, "axis": {"i": "0"}}}, {"name": "PartitionedCall/PartitionedCall_1/MirrorPad_3/paddings", "op": "Pack", "input": ["PartitionedCall/PartitionedCall_1/MirrorPad_3/paddings/0", "PartitionedCall/PartitionedCall_1/MirrorPad_3/paddings/1", "PartitionedCall/PartitionedCall_1/MirrorPad_3/paddings/2", "PartitionedCall/PartitionedCall_1/MirrorPad_3/paddings/3"], "attr": {"N": {"i": "4"}, "T": {"type": "DT_INT32"}, "axis": {"i": "0"}}}, {"name": "PartitionedCall/PartitionedCall_1/MirrorPad_1/paddings", "op": "Pack", "input": ["PartitionedCall/PartitionedCall_1/MirrorPad_1/paddings/0", "PartitionedCall/PartitionedCall_1/MirrorPad_1/paddings/1", "PartitionedCall/PartitionedCall_1/MirrorPad_1/paddings/2", "PartitionedCall/PartitionedCall_1/MirrorPad_1/paddings/3"], "attr": {"T": {"type": "DT_INT32"}, "axis": {"i": "0"}, "N": {"i": "4"}}}, {"name": "PartitionedCall/PartitionedCall_1/MirrorPad_2/paddings", "op": "Pack", "input": ["PartitionedCall/PartitionedCall_1/MirrorPad_2/paddings/0", "PartitionedCall/PartitionedCall_1/MirrorPad_2/paddings/1", "PartitionedCall/PartitionedCall_1/MirrorPad_2/paddings/2", "PartitionedCall/PartitionedCall_1/MirrorPad_2/paddings/3"], "attr": {"N": {"i": "4"}, "T": {"type": "DT_INT32"}, "axis": {"i": "0"}}}, {"name": "PartitionedCall/PartitionedCall_1/MirrorPad/paddings", "op": "Pack", "input": ["PartitionedCall/PartitionedCall_1/MirrorPad/paddings/0", "PartitionedCall/PartitionedCall_1/MirrorPad/paddings/1", "PartitionedCall/PartitionedCall_1/MirrorPad/paddings/2", "PartitionedCall/PartitionedCall_1/MirrorPad/paddings/3"], "attr": {"N": {"i": "4"}, "T": {"type": "DT_INT32"}, "axis": {"i": "0"}}}, {"name": "PartitionedCall/PartitionedCall_1/MirrorPad_5/paddings", "op": "Pack", "input": ["PartitionedCall/PartitionedCall_1/MirrorPad_5/paddings/0", "PartitionedCall/PartitionedCall_1/MirrorPad_5/paddings/1", "PartitionedCall/PartitionedCall_1/MirrorPad_5/paddings/2", "PartitionedCall/PartitionedCall_1/MirrorPad_5/paddings/3"], "attr": {"N": {"i": "4"}, "axis": {"i": "0"}, "T": {"type": "DT_INT32"}}}, {"name": "PartitionedCall/PartitionedCall/Relu6_4", "op": "_FusedConv2D", "input": ["PartitionedCall/PartitionedCall/BiasAdd_5", "PartitionedCall/PartitionedCall/split_4", "PartitionedCall/PartitionedCall/BiasAdd_6/bias"], "device": "/device:CPU:0", "attr": {"num_args": {"i": "1"}, "T": {"type": "DT_FLOAT"}, "padding": {"s": "VkFMSUQ="}, "explicit_paddings": {"list": {}}, "use_cudnn_on_gpu": {"b": true}, "fused_ops": {"list": {"s": ["Qmlhc0FkZA==", "UmVsdTY="]}}, "dilations": {"list": {"i": ["1", "1", "1", "1"]}}, "data_format": {"s": "TkhXQw=="}, "strides": {"list": {"i": ["1", "1", "1", "1"]}}, "epsilon": {"f": 0.0}}}, {"name": "PartitionedCall/PartitionedCall/Pad_3", "op": "Pad", "input": ["PartitionedCall/PartitionedCall/Relu6_4", "PartitionedCall/PartitionedCall/Const_3"], "attr": {"Tpaddings": {"type": "DT_INT32"}, "T": {"type": "DT_FLOAT"}}}, {"name": "PartitionedCall/PartitionedCall/depthwise_2", "op": "FusedDepthwiseConv2dNative", "input": ["PartitionedCall/PartitionedCall/Pad_3", "PartitionedCall/PartitionedCall/Reshape_2", "PartitionedCall/PartitionedCall/BiasAdd_7/bias"], "attr": {"data_format": {"s": "TkhXQw=="}, "num_args": {"i": "1"}, "T": {"type": "DT_FLOAT"}, "dilations": {"list": {"i": ["1", "1", "1", "1"]}}, "strides": {"list": {"i": ["1", "1", "1", "1"]}}, "explicit_paddings": {"list": {}}, "fused_ops": {"list": {"s": ["Qmlhc0FkZA==", "UmVsdTY="]}}, "padding": {"s": "VkFMSUQ="}}}, {"name": "PartitionedCall/PartitionedCall/BiasAdd_8", "op": "_FusedConv2D", "input": ["PartitionedCall/PartitionedCall/depthwise_2", "PartitionedCall/PartitionedCall/split_5", "PartitionedCall/PartitionedCall/BiasAdd_8/bias"], "device": "/device:CPU:0", "attr": {"dilations": {"list": {"i": ["1", "1", "1", "1"]}}, "fused_ops": {"list": {"s": ["Qmlhc0FkZA=="]}}, "padding": {"s": "VkFMSUQ="}, "use_cudnn_on_gpu": {"b": true}, "strides": {"list": {"i": ["1", "1", "1", "1"]}}, "T": {"type": "DT_FLOAT"}, "explicit_paddings": {"list": {}}, "data_format": {"s": "TkhXQw=="}, "num_args": {"i": "1"}, "epsilon": {"f": 0.0}}}, {"name": "PartitionedCall/PartitionedCall/Add", "op": "AddV2", "input": ["PartitionedCall/PartitionedCall/BiasAdd_5", "PartitionedCall/PartitionedCall/BiasAdd_8"], "attr": {"T": {"type": "DT_FLOAT"}}}, {"name": "PartitionedCall/PartitionedCall/Conv2D_28", "op": "Conv2D", "input": ["PartitionedCall/PartitionedCall/Add", "PartitionedCall/PartitionedCall/split_28"], "device": "/device:CPU:0", "attr": {"strides": {"list": {"i": ["1", "1", "1", "1"]}}, "padding": {"s": "VkFMSUQ="}, "dilations": {"list": {"i": ["1", "1", "1", "1"]}}, "T": {"type": "DT_FLOAT"}, "data_format": {"s": "TkhXQw=="}, "explicit_paddings": {"list": {}}, "use_cudnn_on_gpu": {"b": true}}}, {"name": "PartitionedCall/PartitionedCall/Relu6_6", "op": "_FusedConv2D", "input": ["PartitionedCall/PartitionedCall/Add", "PartitionedCall/PartitionedCall/split_6", "PartitionedCall/PartitionedCall/BiasAdd_9/bias"], "device": "/device:CPU:0", "attr": {"explicit_paddings": {"list": {}}, "fused_ops": {"list": {"s": ["Qmlhc0FkZA==", "UmVsdTY="]}}, "num_args": {"i": "1"}, "strides": {"list": {"i": ["1", "1", "1", "1"]}}, "padding": {"s": "VkFMSUQ="}, "epsilon": {"f": 0.0}, "data_format": {"s": "TkhXQw=="}, "T": {"type": "DT_FLOAT"}, "use_cudnn_on_gpu": {"b": true}, "dilations": {"list": {"i": ["1", "1", "1", "1"]}}}}, {"name": "PartitionedCall/PartitionedCall/Pad_4", "op": "Pad", "input": ["PartitionedCall/PartitionedCall/Relu6_6", "PartitionedCall/PartitionedCall/Const_4"], "attr": {"Tpaddings": {"type": "DT_INT32"}, "T": {"type": "DT_FLOAT"}}}, {"name": "PartitionedCall/PartitionedCall/depthwise_3", "op": "FusedDepthwiseConv2dNative", "input": ["PartitionedCall/PartitionedCall/Pad_4", "PartitionedCall/PartitionedCall/Reshape_3", "PartitionedCall/PartitionedCall/BiasAdd_10/bias"], "attr": {"num_args": {"i": "1"}, "fused_ops": {"list": {"s": ["Qmlhc0FkZA==", "UmVsdTY="]}}, "dilations": {"list": {"i": ["1", "1", "1", "1"]}}, "padding": {"s": "VkFMSUQ="}, "explicit_paddings": {"list": {}}, "T": {"type": "DT_FLOAT"}, "strides": {"list": {"i": ["1", "2", "2", "1"]}}, "data_format": {"s": "TkhXQw=="}}}, {"name": "PartitionedCall/PartitionedCall/BiasAdd_11", "op": "_FusedConv2D", "input": ["PartitionedCall/PartitionedCall/depthwise_3", "PartitionedCall/PartitionedCall/split_7", "PartitionedCall/PartitionedCall/BiasAdd_11/bias"], "device": "/device:CPU:0", "attr": {"strides": {"list": {"i": ["1", "1", "1", "1"]}}, "padding": {"s": "VkFMSUQ="}, "T": {"type": "DT_FLOAT"}, "use_cudnn_on_gpu": {"b": true}, "data_format": {"s": "TkhXQw=="}, "epsilon": {"f": 0.0}, "dilations": {"list": {"i": ["1", "1", "1", "1"]}}, "explicit_paddings": {"list": {}}, "fused_ops": {"list": {"s": ["Qmlhc0FkZA=="]}}, "num_args": {"i": "1"}}}, {"name": "PartitionedCall/PartitionedCall/Relu6_8", "op": "_FusedConv2D", "input": ["PartitionedCall/PartitionedCall/BiasAdd_11", "PartitionedCall/PartitionedCall/split_8", "PartitionedCall/PartitionedCall/BiasAdd_12/bias"], "device": "/device:CPU:0", "attr": {"epsilon": {"f": 0.0}, "padding": {"s": "VkFMSUQ="}, "num_args": {"i": "1"}, "explicit_paddings": {"list": {}}, "use_cudnn_on_gpu": {"b": true}, "fused_ops": {"list": {"s": ["Qmlhc0FkZA==", "UmVsdTY="]}}, "strides": {"list": {"i": ["1", "1", "1", "1"]}}, "data_format": {"s": "TkhXQw=="}, "dilations": {"list": {"i": ["1", "1", "1", "1"]}}, "T": {"type": "DT_FLOAT"}}}, {"name": "PartitionedCall/PartitionedCall/Pad_5", "op": "Pad", "input": ["PartitionedCall/PartitionedCall/Relu6_8", "PartitionedCall/PartitionedCall/Const_5"], "attr": {"Tpaddings": {"type": "DT_INT32"}, "T": {"type": "DT_FLOAT"}}}, {"name": "PartitionedCall/PartitionedCall/depthwise_4", "op": "FusedDepthwiseConv2dNative", "input": ["PartitionedCall/PartitionedCall/Pad_5", "PartitionedCall/PartitionedCall/Reshape_4", "PartitionedCall/PartitionedCall/BiasAdd_13/bias"], "attr": {"strides": {"list": {"i": ["1", "1", "1", "1"]}}, "T": {"type": "DT_FLOAT"}, "data_format": {"s": "TkhXQw=="}, "fused_ops": {"list": {"s": ["Qmlhc0FkZA==", "UmVsdTY="]}}, "explicit_paddings": {"list": {}}, "padding": {"s": "VkFMSUQ="}, "dilations": {"list": {"i": ["1", "1", "1", "1"]}}, "num_args": {"i": "1"}}}, {"name": "PartitionedCall/PartitionedCall/BiasAdd_14", "op": "_FusedConv2D", "input": ["PartitionedCall/PartitionedCall/depthwise_4", "PartitionedCall/PartitionedCall/split_9", "PartitionedCall/PartitionedCall/BiasAdd_14/bias"], "device": "/device:CPU:0", "attr": {"use_cudnn_on_gpu": {"b": true}, "epsilon": {"f": 0.0}, "padding": {"s": "VkFMSUQ="}, "strides": {"list": {"i": ["1", "1", "1", "1"]}}, "fused_ops": {"list": {"s": ["Qmlhc0FkZA=="]}}, "explicit_paddings": {"list": {}}, "dilations": {"list": {"i": ["1", "1", "1", "1"]}}, "T": {"type": "DT_FLOAT"}, "data_format": {"s": "TkhXQw=="}, "num_args": {"i": "1"}}}, {"name": "PartitionedCall/PartitionedCall/Add_1", "op": "AddV2", "input": ["PartitionedCall/PartitionedCall/BiasAdd_11", "PartitionedCall/PartitionedCall/BiasAdd_14"], "attr": {"T": {"type": "DT_FLOAT"}}}, {"name": "PartitionedCall/PartitionedCall/Relu6_10", "op": "_FusedConv2D", "input": ["PartitionedCall/PartitionedCall/Add_1", "PartitionedCall/PartitionedCall/split_10", "PartitionedCall/PartitionedCall/BiasAdd_15/bias"], "device": "/device:CPU:0", "attr": {"explicit_paddings": {"list": {}}, "T": {"type": "DT_FLOAT"}, "fused_ops": {"list": {"s": ["Qmlhc0FkZA==", "UmVsdTY="]}}, "data_format": {"s": "TkhXQw=="}, "padding": {"s": "VkFMSUQ="}, "epsilon": {"f": 0.0}, "dilations": {"list": {"i": ["1", "1", "1", "1"]}}, "strides": {"list": {"i": ["1", "1", "1", "1"]}}, "num_args": {"i": "1"}, "use_cudnn_on_gpu": {"b": true}}}, {"name": "PartitionedCall/PartitionedCall/Pad_6", "op": "Pad", "input": ["PartitionedCall/PartitionedCall/Relu6_10", "PartitionedCall/PartitionedCall/Const_6"], "attr": {"T": {"type": "DT_FLOAT"}, "Tpaddings": {"type": "DT_INT32"}}}, {"name": "PartitionedCall/PartitionedCall/depthwise_5", "op": "FusedDepthwiseConv2dNative", "input": ["PartitionedCall/PartitionedCall/Pad_6", "PartitionedCall/PartitionedCall/Reshape_5", "PartitionedCall/PartitionedCall/BiasAdd_16/bias"], "attr": {"fused_ops": {"list": {"s": ["Qmlhc0FkZA==", "UmVsdTY="]}}, "dilations": {"list": {"i": ["1", "1", "1", "1"]}}, "T": {"type": "DT_FLOAT"}, "num_args": {"i": "1"}, "padding": {"s": "VkFMSUQ="}, "explicit_paddings": {"list": {}}, "data_format": {"s": "TkhXQw=="}, "strides": {"list": {"i": ["1", "1", "1", "1"]}}}}, {"name": "PartitionedCall/PartitionedCall/BiasAdd_17", "op": "_FusedConv2D", "input": ["PartitionedCall/PartitionedCall/depthwise_5", "PartitionedCall/PartitionedCall/split_11", "PartitionedCall/PartitionedCall/BiasAdd_17/bias"], "device": "/device:CPU:0", "attr": {"fused_ops": {"list": {"s": ["Qmlhc0FkZA=="]}}, "strides": {"list": {"i": ["1", "1", "1", "1"]}}, "explicit_paddings": {"list": {}}, "epsilon": {"f": 0.0}, "use_cudnn_on_gpu": {"b": true}, "data_format": {"s": "TkhXQw=="}, "dilations": {"list": {"i": ["1", "1", "1", "1"]}}, "num_args": {"i": "1"}, "padding": {"s": "VkFMSUQ="}, "T": {"type": "DT_FLOAT"}}}, {"name": "PartitionedCall/PartitionedCall/Add_2", "op": "AddV2", "input": ["PartitionedCall/PartitionedCall/Add_1", "PartitionedCall/PartitionedCall/BiasAdd_17"], "attr": {"T": {"type": "DT_FLOAT"}}}, {"name": "PartitionedCall/PartitionedCall/Conv2D_26", "op": "Conv2D", "input": ["PartitionedCall/PartitionedCall/Add_2", "PartitionedCall/PartitionedCall/split_26"], "device": "/device:CPU:0", "attr": {"data_format": {"s": "TkhXQw=="}, "dilations": {"list": {"i": ["1", "1", "1", "1"]}}, "use_cudnn_on_gpu": {"b": true}, "strides": {"list": {"i": ["1", "1", "1", "1"]}}, "T": {"type": "DT_FLOAT"}, "padding": {"s": "VkFMSUQ="}, "explicit_paddings": {"list": {}}}}, {"name": "PartitionedCall/PartitionedCall/Relu6_12", "op": "_FusedConv2D", "input": ["PartitionedCall/PartitionedCall/Add_2", "PartitionedCall/PartitionedCall/split_12", "PartitionedCall/PartitionedCall/BiasAdd_18/bias"], "device": "/device:CPU:0", "attr": {"epsilon": {"f": 0.0}, "num_args": {"i": "1"}, "use_cudnn_on_gpu": {"b": true}, "padding": {"s": "VkFMSUQ="}, "dilations": {"list": {"i": ["1", "1", "1", "1"]}}, "fused_ops": {"list": {"s": ["Qmlhc0FkZA==", "UmVsdTY="]}}, "explicit_paddings": {"list": {}}, "strides": {"list": {"i": ["1", "1", "1", "1"]}}, "data_format": {"s": "TkhXQw=="}, "T": {"type": "DT_FLOAT"}}}, {"name": "PartitionedCall/PartitionedCall/Pad_7", "op": "Pad", "input": ["PartitionedCall/PartitionedCall/Relu6_12", "PartitionedCall/PartitionedCall/Const_7"], "attr": {"Tpaddings": {"type": "DT_INT32"}, "T": {"type": "DT_FLOAT"}}}, {"name": "PartitionedCall/PartitionedCall/depthwise_6", "op": "FusedDepthwiseConv2dNative", "input": ["PartitionedCall/PartitionedCall/Pad_7", "PartitionedCall/PartitionedCall/Reshape_6", "PartitionedCall/PartitionedCall/BiasAdd_19/bias"], "attr": {"dilations": {"list": {"i": ["1", "1", "1", "1"]}}, "T": {"type": "DT_FLOAT"}, "strides": {"list": {"i": ["1", "2", "2", "1"]}}, "num_args": {"i": "1"}, "data_format": {"s": "TkhXQw=="}, "padding": {"s": "VkFMSUQ="}, "fused_ops": {"list": {"s": ["Qmlhc0FkZA==", "UmVsdTY="]}}, "explicit_paddings": {"list": {}}}}, {"name": "PartitionedCall/PartitionedCall/BiasAdd_20", "op": "_FusedConv2D", "input": ["PartitionedCall/PartitionedCall/depthwise_6", "PartitionedCall/PartitionedCall/split_13", "PartitionedCall/PartitionedCall/BiasAdd_20/bias"], "device": "/device:CPU:0", "attr": {"num_args": {"i": "1"}, "T": {"type": "DT_FLOAT"}, "data_format": {"s": "TkhXQw=="}, "fused_ops": {"list": {"s": ["Qmlhc0FkZA=="]}}, "use_cudnn_on_gpu": {"b": true}, "explicit_paddings": {"list": {}}, "strides": {"list": {"i": ["1", "1", "1", "1"]}}, "epsilon": {"f": 0.0}, "dilations": {"list": {"i": ["1", "1", "1", "1"]}}, "padding": {"s": "VkFMSUQ="}}}, {"name": "PartitionedCall/PartitionedCall/Relu6_14", "op": "_FusedConv2D", "input": ["PartitionedCall/PartitionedCall/BiasAdd_20", "PartitionedCall/PartitionedCall/split_14", "PartitionedCall/PartitionedCall/BiasAdd_21/bias"], "device": "/device:CPU:0", "attr": {"T": {"type": "DT_FLOAT"}, "explicit_paddings": {"list": {}}, "fused_ops": {"list": {"s": ["Qmlhc0FkZA==", "UmVsdTY="]}}, "dilations": {"list": {"i": ["1", "1", "1", "1"]}}, "num_args": {"i": "1"}, "strides": {"list": {"i": ["1", "1", "1", "1"]}}, "epsilon": {"f": 0.0}, "padding": {"s": "VkFMSUQ="}, "use_cudnn_on_gpu": {"b": true}, "data_format": {"s": "TkhXQw=="}}}, {"name": "PartitionedCall/PartitionedCall/Pad_8", "op": "Pad", "input": ["PartitionedCall/PartitionedCall/Relu6_14", "PartitionedCall/PartitionedCall/Const_8"], "attr": {"Tpaddings": {"type": "DT_INT32"}, "T": {"type": "DT_FLOAT"}}}, {"name": "PartitionedCall/PartitionedCall/depthwise_7", "op": "FusedDepthwiseConv2dNative", "input": ["PartitionedCall/PartitionedCall/Pad_8", "PartitionedCall/PartitionedCall/Reshape_7", "PartitionedCall/PartitionedCall/BiasAdd_22/bias"], "attr": {"strides": {"list": {"i": ["1", "1", "1", "1"]}}, "fused_ops": {"list": {"s": ["Qmlhc0FkZA==", "UmVsdTY="]}}, "dilations": {"list": {"i": ["1", "1", "1", "1"]}}, "explicit_paddings": {"list": {}}, "T": {"type": "DT_FLOAT"}, "data_format": {"s": "TkhXQw=="}, "padding": {"s": "VkFMSUQ="}, "num_args": {"i": "1"}}}, {"name": "PartitionedCall/PartitionedCall/BiasAdd_23", "op": "_FusedConv2D", "input": ["PartitionedCall/PartitionedCall/depthwise_7", "PartitionedCall/PartitionedCall/split_15", "PartitionedCall/PartitionedCall/BiasAdd_23/bias"], "device": "/device:CPU:0", "attr": {"epsilon": {"f": 0.0}, "padding": {"s": "VkFMSUQ="}, "num_args": {"i": "1"}, "data_format": {"s": "TkhXQw=="}, "strides": {"list": {"i": ["1", "1", "1", "1"]}}, "use_cudnn_on_gpu": {"b": true}, "fused_ops": {"list": {"s": ["Qmlhc0FkZA=="]}}, "dilations": {"list": {"i": ["1", "1", "1", "1"]}}, "explicit_paddings": {"list": {}}, "T": {"type": "DT_FLOAT"}}}, {"name": "PartitionedCall/PartitionedCall/Add_3", "op": "AddV2", "input": ["PartitionedCall/PartitionedCall/BiasAdd_20", "PartitionedCall/PartitionedCall/BiasAdd_23"], "attr": {"T": {"type": "DT_FLOAT"}}}, {"name": "PartitionedCall/PartitionedCall/Relu6_16", "op": "_FusedConv2D", "input": ["PartitionedCall/PartitionedCall/Add_3", "PartitionedCall/PartitionedCall/split_16", "PartitionedCall/PartitionedCall/BiasAdd_24/bias"], "device": "/device:CPU:0", "attr": {"padding": {"s": "VkFMSUQ="}, "T": {"type": "DT_FLOAT"}, "explicit_paddings": {"list": {}}, "num_args": {"i": "1"}, "strides": {"list": {"i": ["1", "1", "1", "1"]}}, "epsilon": {"f": 0.0}, "fused_ops": {"list": {"s": ["Qmlhc0FkZA==", "UmVsdTY="]}}, "use_cudnn_on_gpu": {"b": true}, "data_format": {"s": "TkhXQw=="}, "dilations": {"list": {"i": ["1", "1", "1", "1"]}}}}, {"name": "PartitionedCall/PartitionedCall/Pad_9", "op": "Pad", "input": ["PartitionedCall/PartitionedCall/Relu6_16", "PartitionedCall/PartitionedCall/Const_9"], "attr": {"Tpaddings": {"type": "DT_INT32"}, "T": {"type": "DT_FLOAT"}}}, {"name": "PartitionedCall/PartitionedCall/depthwise_8", "op": "FusedDepthwiseConv2dNative", "input": ["PartitionedCall/PartitionedCall/Pad_9", "PartitionedCall/PartitionedCall/Reshape_8", "PartitionedCall/PartitionedCall/BiasAdd_25/bias"], "attr": {"T": {"type": "DT_FLOAT"}, "data_format": {"s": "TkhXQw=="}, "num_args": {"i": "1"}, "explicit_paddings": {"list": {}}, "padding": {"s": "VkFMSUQ="}, "dilations": {"list": {"i": ["1", "1", "1", "1"]}}, "strides": {"list": {"i": ["1", "1", "1", "1"]}}, "fused_ops": {"list": {"s": ["Qmlhc0FkZA==", "UmVsdTY="]}}}}, {"name": "PartitionedCall/PartitionedCall/BiasAdd_26", "op": "_FusedConv2D", "input": ["PartitionedCall/PartitionedCall/depthwise_8", "PartitionedCall/PartitionedCall/split_17", "PartitionedCall/PartitionedCall/BiasAdd_26/bias"], "device": "/device:CPU:0", "attr": {"T": {"type": "DT_FLOAT"}, "dilations": {"list": {"i": ["1", "1", "1", "1"]}}, "data_format": {"s": "TkhXQw=="}, "num_args": {"i": "1"}, "use_cudnn_on_gpu": {"b": true}, "epsilon": {"f": 0.0}, "explicit_paddings": {"list": {}}, "strides": {"list": {"i": ["1", "1", "1", "1"]}}, "fused_ops": {"list": {"s": ["Qmlhc0FkZA=="]}}, "padding": {"s": "VkFMSUQ="}}}, {"name": "PartitionedCall/PartitionedCall/Add_4", "op": "AddV2", "input": ["PartitionedCall/PartitionedCall/Add_3", "PartitionedCall/PartitionedCall/BiasAdd_26"], "attr": {"T": {"type": "DT_FLOAT"}}}, {"name": "PartitionedCall/PartitionedCall/Relu6_18", "op": "_FusedConv2D", "input": ["PartitionedCall/PartitionedCall/Add_4", "PartitionedCall/PartitionedCall/split_18", "PartitionedCall/PartitionedCall/BiasAdd_27/bias"], "device": "/device:CPU:0", "attr": {"explicit_paddings": {"list": {}}, "strides": {"list": {"i": ["1", "1", "1", "1"]}}, "dilations": {"list": {"i": ["1", "1", "1", "1"]}}, "data_format": {"s": "TkhXQw=="}, "num_args": {"i": "1"}, "padding": {"s": "VkFMSUQ="}, "fused_ops": {"list": {"s": ["Qmlhc0FkZA==", "UmVsdTY="]}}, "T": {"type": "DT_FLOAT"}, "epsilon": {"f": 0.0}, "use_cudnn_on_gpu": {"b": true}}}, {"name": "PartitionedCall/PartitionedCall/Pad_10", "op": "Pad", "input": ["PartitionedCall/PartitionedCall/Relu6_18", "PartitionedCall/PartitionedCall/Const_10"], "attr": {"T": {"type": "DT_FLOAT"}, "Tpaddings": {"type": "DT_INT32"}}}, {"name": "PartitionedCall/PartitionedCall/depthwise_9", "op": "FusedDepthwiseConv2dNative", "input": ["PartitionedCall/PartitionedCall/Pad_10", "PartitionedCall/PartitionedCall/Reshape_9", "PartitionedCall/PartitionedCall/BiasAdd_28/bias"], "attr": {"dilations": {"list": {"i": ["1", "1", "1", "1"]}}, "fused_ops": {"list": {"s": ["Qmlhc0FkZA==", "UmVsdTY="]}}, "strides": {"list": {"i": ["1", "1", "1", "1"]}}, "padding": {"s": "VkFMSUQ="}, "num_args": {"i": "1"}, "data_format": {"s": "TkhXQw=="}, "explicit_paddings": {"list": {}}, "T": {"type": "DT_FLOAT"}}}, {"name": "PartitionedCall/PartitionedCall/BiasAdd_29", "op": "_FusedConv2D", "input": ["PartitionedCall/PartitionedCall/depthwise_9", "PartitionedCall/PartitionedCall/split_19", "PartitionedCall/PartitionedCall/BiasAdd_29/bias"], "device": "/device:CPU:0", "attr": {"fused_ops": {"list": {"s": ["Qmlhc0FkZA=="]}}, "strides": {"list": {"i": ["1", "1", "1", "1"]}}, "T": {"type": "DT_FLOAT"}, "num_args": {"i": "1"}, "explicit_paddings": {"list": {}}, "use_cudnn_on_gpu": {"b": true}, "data_format": {"s": "TkhXQw=="}, "epsilon": {"f": 0.0}, "dilations": {"list": {"i": ["1", "1", "1", "1"]}}, "padding": {"s": "VkFMSUQ="}}}, {"name": "PartitionedCall/PartitionedCall/Add_5", "op": "AddV2", "input": ["PartitionedCall/PartitionedCall/Add_4", "PartitionedCall/PartitionedCall/BiasAdd_29"], "attr": {"T": {"type": "DT_FLOAT"}}}, {"name": "PartitionedCall/PartitionedCall/Relu6_20", "op": "_FusedConv2D", "input": ["PartitionedCall/PartitionedCall/Add_5", "PartitionedCall/PartitionedCall/split_20", "PartitionedCall/PartitionedCall/BiasAdd_30/bias"], "device": "/device:CPU:0", "attr": {"T": {"type": "DT_FLOAT"}, "fused_ops": {"list": {"s": ["Qmlhc0FkZA==", "UmVsdTY="]}}, "epsilon": {"f": 0.0}, "use_cudnn_on_gpu": {"b": true}, "data_format": {"s": "TkhXQw=="}, "dilations": {"list": {"i": ["1", "1", "1", "1"]}}, "explicit_paddings": {"list": {}}, "num_args": {"i": "1"}, "strides": {"list": {"i": ["1", "1", "1", "1"]}}, "padding": {"s": "VkFMSUQ="}}}, {"name": "PartitionedCall/PartitionedCall/Pad_11", "op": "Pad", "input": ["PartitionedCall/PartitionedCall/Relu6_20", "PartitionedCall/PartitionedCall/Const_11"], "attr": {"Tpaddings": {"type": "DT_INT32"}, "T": {"type": "DT_FLOAT"}}}, {"name": "PartitionedCall/PartitionedCall/depthwise_10", "op": "FusedDepthwiseConv2dNative", "input": ["PartitionedCall/PartitionedCall/Pad_11", "PartitionedCall/PartitionedCall/Reshape_10", "PartitionedCall/PartitionedCall/BiasAdd_31/bias"], "attr": {"data_format": {"s": "TkhXQw=="}, "num_args": {"i": "1"}, "fused_ops": {"list": {"s": ["Qmlhc0FkZA==", "UmVsdTY="]}}, "T": {"type": "DT_FLOAT"}, "dilations": {"list": {"i": ["1", "1", "1", "1"]}}, "explicit_paddings": {"list": {}}, "strides": {"list": {"i": ["1", "1", "1", "1"]}}, "padding": {"s": "VkFMSUQ="}}}, {"name": "PartitionedCall/PartitionedCall/BiasAdd_32", "op": "_FusedConv2D", "input": ["PartitionedCall/PartitionedCall/depthwise_10", "PartitionedCall/PartitionedCall/split_21", "PartitionedCall/PartitionedCall/BiasAdd_32/bias"], "device": "/device:CPU:0", "attr": {"fused_ops": {"list": {"s": ["Qmlhc0FkZA=="]}}, "strides": {"list": {"i": ["1", "1", "1", "1"]}}, "dilations": {"list": {"i": ["1", "1", "1", "1"]}}, "data_format": {"s": "TkhXQw=="}, "num_args": {"i": "1"}, "epsilon": {"f": 0.0}, "T": {"type": "DT_FLOAT"}, "use_cudnn_on_gpu": {"b": true}, "padding": {"s": "VkFMSUQ="}, "explicit_paddings": {"list": {}}}}, {"name": "PartitionedCall/PartitionedCall/Relu6_22", "op": "_FusedConv2D", "input": ["PartitionedCall/PartitionedCall/BiasAdd_32", "PartitionedCall/PartitionedCall/split_22", "PartitionedCall/PartitionedCall/BiasAdd_33/bias"], "device": "/device:CPU:0", "attr": {"data_format": {"s": "TkhXQw=="}, "epsilon": {"f": 0.0}, "T": {"type": "DT_FLOAT"}, "fused_ops": {"list": {"s": ["Qmlhc0FkZA==", "UmVsdTY="]}}, "explicit_paddings": {"list": {}}, "dilations": {"list": {"i": ["1", "1", "1", "1"]}}, "num_args": {"i": "1"}, "strides": {"list": {"i": ["1", "1", "1", "1"]}}, "use_cudnn_on_gpu": {"b": true}, "padding": {"s": "VkFMSUQ="}}}, {"name": "PartitionedCall/PartitionedCall/Pad_12", "op": "Pad", "input": ["PartitionedCall/PartitionedCall/Relu6_22", "PartitionedCall/PartitionedCall/Const_12"], "attr": {"Tpaddings": {"type": "DT_INT32"}, "T": {"type": "DT_FLOAT"}}}, {"name": "PartitionedCall/PartitionedCall/depthwise_11", "op": "FusedDepthwiseConv2dNative", "input": ["PartitionedCall/PartitionedCall/Pad_12", "PartitionedCall/PartitionedCall/Reshape_11", "PartitionedCall/PartitionedCall/BiasAdd_34/bias"], "attr": {"fused_ops": {"list": {"s": ["Qmlhc0FkZA==", "UmVsdTY="]}}, "padding": {"s": "VkFMSUQ="}, "data_format": {"s": "TkhXQw=="}, "num_args": {"i": "1"}, "dilations": {"list": {"i": ["1", "1", "1", "1"]}}, "T": {"type": "DT_FLOAT"}, "strides": {"list": {"i": ["1", "1", "1", "1"]}}, "explicit_paddings": {"list": {}}}}, {"name": "PartitionedCall/PartitionedCall/BiasAdd_35", "op": "_FusedConv2D", "input": ["PartitionedCall/PartitionedCall/depthwise_11", "PartitionedCall/PartitionedCall/split_23", "PartitionedCall/PartitionedCall/BiasAdd_35/bias"], "device": "/device:CPU:0", "attr": {"use_cudnn_on_gpu": {"b": true}, "padding": {"s": "VkFMSUQ="}, "data_format": {"s": "TkhXQw=="}, "dilations": {"list": {"i": ["1", "1", "1", "1"]}}, "T": {"type": "DT_FLOAT"}, "fused_ops": {"list": {"s": ["Qmlhc0FkZA=="]}}, "explicit_paddings": {"list": {}}, "num_args": {"i": "1"}, "epsilon": {"f": 0.0}, "strides": {"list": {"i": ["1", "1", "1", "1"]}}}}, {"name": "PartitionedCall/PartitionedCall/Add_6", "op": "AddV2", "input": ["PartitionedCall/PartitionedCall/BiasAdd_32", "PartitionedCall/PartitionedCall/BiasAdd_35"], "attr": {"T": {"type": "DT_FLOAT"}}}, {"name": "PartitionedCall/PartitionedCall/Relu6_24", "op": "_FusedConv2D", "input": ["PartitionedCall/PartitionedCall/Add_6", "PartitionedCall/PartitionedCall/split_24", "PartitionedCall/PartitionedCall/BiasAdd_36/bias"], "device": "/device:CPU:0", "attr": {"fused_ops": {"list": {"s": ["Qmlhc0FkZA==", "UmVsdTY="]}}, "use_cudnn_on_gpu": {"b": true}, "dilations": {"list": {"i": ["1", "1", "1", "1"]}}, "explicit_paddings": {"list": {}}, "T": {"type": "DT_FLOAT"}, "epsilon": {"f": 0.0}, "num_args": {"i": "1"}, "padding": {"s": "VkFMSUQ="}, "strides": {"list": {"i": ["1", "1", "1", "1"]}}, "data_format": {"s": "TkhXQw=="}}}, {"name": "PartitionedCall/PartitionedCall/Pad_13", "op": "Pad", "input": ["PartitionedCall/PartitionedCall/Relu6_24", "PartitionedCall/PartitionedCall/Const_13"], "attr": {"Tpaddings": {"type": "DT_INT32"}, "T": {"type": "DT_FLOAT"}}}, {"name": "PartitionedCall/PartitionedCall/depthwise_12", "op": "FusedDepthwiseConv2dNative", "input": ["PartitionedCall/PartitionedCall/Pad_13", "PartitionedCall/PartitionedCall/Reshape_12", "PartitionedCall/PartitionedCall/BiasAdd_37/bias"], "attr": {"T": {"type": "DT_FLOAT"}, "fused_ops": {"list": {"s": ["Qmlhc0FkZA==", "UmVsdTY="]}}, "dilations": {"list": {"i": ["1", "1", "1", "1"]}}, "padding": {"s": "VkFMSUQ="}, "strides": {"list": {"i": ["1", "1", "1", "1"]}}, "data_format": {"s": "TkhXQw=="}, "explicit_paddings": {"list": {}}, "num_args": {"i": "1"}}}, {"name": "PartitionedCall/PartitionedCall/BiasAdd_38", "op": "_FusedConv2D", "input": ["PartitionedCall/PartitionedCall/depthwise_12", "PartitionedCall/PartitionedCall/split_25", "PartitionedCall/PartitionedCall/BiasAdd_38/bias"], "device": "/device:CPU:0", "attr": {"use_cudnn_on_gpu": {"b": true}, "dilations": {"list": {"i": ["1", "1", "1", "1"]}}, "T": {"type": "DT_FLOAT"}, "fused_ops": {"list": {"s": ["Qmlhc0FkZA=="]}}, "explicit_paddings": {"list": {}}, "padding": {"s": "VkFMSUQ="}, "data_format": {"s": "TkhXQw=="}, "num_args": {"i": "1"}, "strides": {"list": {"i": ["1", "1", "1", "1"]}}, "epsilon": {"f": 0.0}}}, {"name": "PartitionedCall/PartitionedCall/Add_7", "op": "AddV2", "input": ["PartitionedCall/PartitionedCall/Add_6", "PartitionedCall/PartitionedCall/BiasAdd_38"], "attr": {"T": {"type": "DT_FLOAT"}}}, {"name": "PartitionedCall/PartitionedCall/Shape_39", "op": "Shape", "input": ["PartitionedCall/PartitionedCall/Add_7"], "attr": {"T": {"type": "DT_FLOAT"}, "out_type": {"type": "DT_INT32"}}}, {"name": "PartitionedCall/PartitionedCall/BiasAdd_50", "op": "_FusedConv2D", "input": ["PartitionedCall/PartitionedCall/Add_7", "PartitionedCall/PartitionedCall/split_35", "PartitionedCall/PartitionedCall/BiasAdd_50/bias"], "device": "/device:CPU:0", "attr": {"data_format": {"s": "TkhXQw=="}, "T": {"type": "DT_FLOAT"}, "fused_ops": {"list": {"s": ["Qmlhc0FkZA=="]}}, "explicit_paddings": {"list": {}}, "use_cudnn_on_gpu": {"b": true}, "num_args": {"i": "1"}, "dilations": {"list": {"i": ["1", "1", "1", "1"]}}, "strides": {"list": {"i": ["1", "1", "1", "1"]}}, "epsilon": {"f": 0.0}, "padding": {"s": "VkFMSUQ="}}}, {"name": "PartitionedCall/PartitionedCall/strided_slice_1", "op": "StridedSlice", "input": ["PartitionedCall/PartitionedCall/Shape_39", "PartitionedCall/PartitionedCall/strided_slice_1/stack", "PartitionedCall/PartitionedCall/strided_slice_1/stack_1", "PartitionedCall/PartitionedCall/strided_slice_1/stack_2"], "attr": {"begin_mask": {"i": "0"}, "Index": {"type": "DT_INT32"}, "ellipsis_mask": {"i": "0"}, "end_mask": {"i": "0"}, "T": {"type": "DT_INT32"}, "new_axis_mask": {"i": "0"}, "shrink_axis_mask": {"i": "0"}}}, {"name": "PartitionedCall/PartitionedCall/Shape_58", "op": "Shape", "input": ["PartitionedCall/PartitionedCall/BiasAdd_50"], "attr": {"T": {"type": "DT_FLOAT"}, "out_type": {"type": "DT_INT32"}}}, {"name": "PartitionedCall/PartitionedCall/Cast", "op": "Cast", "input": ["PartitionedCall/PartitionedCall/strided_slice_1"], "attr": {"SrcT": {"type": "DT_INT32"}, "DstT": {"type": "DT_FLOAT"}, "Truncate": {"b": false}}}, {"name": "PartitionedCall/PartitionedCall/strided_slice_9", "op": "StridedSlice", "input": ["PartitionedCall/PartitionedCall/Shape_58", "PartitionedCall/PartitionedCall/strided_slice_9/stack", "PartitionedCall/PartitionedCall/strided_slice_9/stack_1", "PartitionedCall/PartitionedCall/strided_slice_9/stack_2"], "attr": {"end_mask": {"i": "0"}, "Index": {"type": "DT_INT32"}, "begin_mask": {"i": "0"}, "shrink_axis_mask": {"i": "0"}, "ellipsis_mask": {"i": "0"}, "T": {"type": "DT_INT32"}, "new_axis_mask": {"i": "0"}}}, {"name": "PartitionedCall/PartitionedCall/mul", "op": "Mul", "input": ["PartitionedCall/PartitionedCall/strided_slice", "PartitionedCall/PartitionedCall/Cast"], "attr": {"T": {"type": "DT_FLOAT"}}}, {"name": "PartitionedCall/PartitionedCall/Cast_8", "op": "Cast", "input": ["PartitionedCall/PartitionedCall/strided_slice_9"], "attr": {"Truncate": {"b": false}, "DstT": {"type": "DT_FLOAT"}, "SrcT": {"type": "DT_INT32"}}}, {"name": "PartitionedCall/PartitionedCall/Cast_1", "op": "Cast", "input": ["PartitionedCall/PartitionedCall/mul"], "attr": {"Truncate": {"b": false}, "SrcT": {"type": "DT_FLOAT"}, "DstT": {"type": "DT_INT32"}}}, {"name": "PartitionedCall/PartitionedCall/mul_4", "op": "Mul", "input": ["PartitionedCall/PartitionedCall/strided_slice_8", "PartitionedCall/PartitionedCall/Cast_8"], "attr": {"T": {"type": "DT_FLOAT"}}}, {"name": "PartitionedCall/PartitionedCall/resize/ResizeBilinear", "op": "ResizeBilinear", "input": ["PartitionedCall/PartitionedCall/Add_7", "PartitionedCall/PartitionedCall/Cast_1"], "attr": {"align_corners": {"b": false}, "T": {"type": "DT_FLOAT"}, "half_pixel_centers": {"b": true}}}, {"name": "PartitionedCall/PartitionedCall/Cast_9", "op": "Cast", "input": ["PartitionedCall/PartitionedCall/mul_4"], "attr": {"DstT": {"type": "DT_INT32"}, "SrcT": {"type": "DT_FLOAT"}, "Truncate": {"b": false}}}, {"name": "PartitionedCall/PartitionedCall/Add_8", "op": "AddV2", "input": ["PartitionedCall/PartitionedCall/resize/ResizeBilinear", "PartitionedCall/PartitionedCall/Conv2D_26"], "attr": {"T": {"type": "DT_FLOAT"}}}, {"name": "PartitionedCall/PartitionedCall/resize_4/ResizeBilinear", "op": "ResizeBilinear", "input": ["PartitionedCall/PartitionedCall/BiasAdd_50", "PartitionedCall/PartitionedCall/Cast_9"], "attr": {"T": {"type": "DT_FLOAT"}, "half_pixel_centers": {"b": true}, "align_corners": {"b": false}}}, {"name": "PartitionedCall/PartitionedCall/Pad_14", "op": "Pad", "input": ["PartitionedCall/PartitionedCall/Add_8", "PartitionedCall/PartitionedCall/Const_15"], "attr": {"T": {"type": "DT_FLOAT"}, "Tpaddings": {"type": "DT_INT32"}}}, {"name": "PartitionedCall/PartitionedCall/Pad_19", "op": "Pad", "input": ["PartitionedCall/PartitionedCall/resize_4/ResizeBilinear", "PartitionedCall/PartitionedCall/Const_24"], "attr": {"T": {"type": "DT_FLOAT"}, "Tpaddings": {"type": "DT_INT32"}}}, {"name": "PartitionedCall/PartitionedCall/depthwise_13", "op": "FusedDepthwiseConv2dNative", "input": ["PartitionedCall/PartitionedCall/Pad_14", "PartitionedCall/PartitionedCall/Reshape_13", "PartitionedCall/PartitionedCall/BiasAdd_39/bias"], "attr": {"data_format": {"s": "TkhXQw=="}, "T": {"type": "DT_FLOAT"}, "dilations": {"list": {"i": ["1", "1", "1", "1"]}}, "explicit_paddings": {"list": {}}, "padding": {"s": "VkFMSUQ="}, "strides": {"list": {"i": ["1", "1", "1", "1"]}}, "fused_ops": {"list": {"s": ["Qmlhc0FkZA==", "UmVsdQ=="]}}, "num_args": {"i": "1"}}}, {"name": "PartitionedCall/PartitionedCall/Relu_10", "op": "_FusedConv2D", "input": ["PartitionedCall/PartitionedCall/Pad_19", "PartitionedCall/PartitionedCall/split_36", "PartitionedCall/PartitionedCall/BiasAdd_51/bias"], "device": "/device:CPU:0", "attr": {"data_format": {"s": "TkhXQw=="}, "epsilon": {"f": 0.0}, "T": {"type": "DT_FLOAT"}, "explicit_paddings": {"list": {}}, "fused_ops": {"list": {"s": ["Qmlhc0FkZA==", "UmVsdQ=="]}}, "padding": {"s": "VkFMSUQ="}, "use_cudnn_on_gpu": {"b": true}, "dilations": {"list": {"i": ["1", "1", "1", "1"]}}, "strides": {"list": {"i": ["1", "1", "1", "1"]}}, "num_args": {"i": "1"}}}, {"name": "PartitionedCall/PartitionedCall/BiasAdd_52", "op": "_FusedConv2D", "input": ["PartitionedCall/PartitionedCall/Relu_10", "PartitionedCall/PartitionedCall/split_37", "PartitionedCall/PartitionedCall/BiasAdd_52/bias"], "device": "/device:CPU:0", "attr": {"T": {"type": "DT_FLOAT"}, "num_args": {"i": "1"}, "strides": {"list": {"i": ["1", "1", "1", "1"]}}, "padding": {"s": "VkFMSUQ="}, "use_cudnn_on_gpu": {"b": true}, "epsilon": {"f": 0.0}, "fused_ops": {"list": {"s": ["Qmlhc0FkZA=="]}}, "dilations": {"list": {"i": ["1", "1", "1", "1"]}}, "data_format": {"s": "TkhXQw=="}, "explicit_paddings": {"list": {}}}}, {"name": "PartitionedCall/PartitionedCall/Shape_61", "op": "Shape", "input": ["PartitionedCall/PartitionedCall/BiasAdd_52"], "attr": {"out_type": {"type": "DT_INT32"}, "T": {"type": "DT_FLOAT"}}}, {"name": "PartitionedCall/PartitionedCall/Relu_1", "op": "_FusedConv2D", "input": ["PartitionedCall/PartitionedCall/depthwise_13", "PartitionedCall/PartitionedCall/split_27", "PartitionedCall/PartitionedCall/BiasAdd_40/bias"], "device": "/device:CPU:0", "attr": {"dilations": {"list": {"i": ["1", "1", "1", "1"]}}, "data_format": {"s": "TkhXQw=="}, "use_cudnn_on_gpu": {"b": true}, "fused_ops": {"list": {"s": ["Qmlhc0FkZA==", "UmVsdQ=="]}}, "explicit_paddings": {"list": {}}, "padding": {"s": "VkFMSUQ="}, "num_args": {"i": "1"}, "epsilon": {"f": 0.0}, "T": {"type": "DT_FLOAT"}, "strides": {"list": {"i": ["1", "1", "1", "1"]}}}}, {"name": "PartitionedCall/PartitionedCall/strided_slice_11", "op": "StridedSlice", "input": ["PartitionedCall/PartitionedCall/Shape_61", "PartitionedCall/PartitionedCall/strided_slice_11/stack", "PartitionedCall/PartitionedCall/strided_slice_11/stack_1", "PartitionedCall/PartitionedCall/strided_slice_11/stack_2"], "attr": {"end_mask": {"i": "0"}, "ellipsis_mask": {"i": "0"}, "begin_mask": {"i": "0"}, "T": {"type": "DT_INT32"}, "new_axis_mask": {"i": "0"}, "shrink_axis_mask": {"i": "0"}, "Index": {"type": "DT_INT32"}}}, {"name": "PartitionedCall/PartitionedCall/Shape_43", "op": "Shape", "input": ["PartitionedCall/PartitionedCall/Relu_1"], "attr": {"out_type": {"type": "DT_INT32"}, "T": {"type": "DT_FLOAT"}}}, {"name": "PartitionedCall/PartitionedCall/Cast_10", "op": "Cast", "input": ["PartitionedCall/PartitionedCall/strided_slice_11"], "attr": {"SrcT": {"type": "DT_INT32"}, "DstT": {"type": "DT_FLOAT"}, "Truncate": {"b": false}}}, {"name": "PartitionedCall/PartitionedCall/strided_slice_3", "op": "StridedSlice", "input": ["PartitionedCall/PartitionedCall/Shape_43", "PartitionedCall/PartitionedCall/strided_slice_3/stack", "PartitionedCall/PartitionedCall/strided_slice_3/stack_1", "PartitionedCall/PartitionedCall/strided_slice_3/stack_2"], "attr": {"ellipsis_mask": {"i": "0"}, "end_mask": {"i": "0"}, "new_axis_mask": {"i": "0"}, "begin_mask": {"i": "0"}, "shrink_axis_mask": {"i": "0"}, "T": {"type": "DT_INT32"}, "Index": {"type": "DT_INT32"}}}, {"name": "PartitionedCall/PartitionedCall/mul_5", "op": "Mul", "input": ["PartitionedCall/PartitionedCall/strided_slice_10", "PartitionedCall/PartitionedCall/Cast_10"], "attr": {"T": {"type": "DT_FLOAT"}}}, {"name": "PartitionedCall/PartitionedCall/Cast_2", "op": "Cast", "input": ["PartitionedCall/PartitionedCall/strided_slice_3"], "attr": {"DstT": {"type": "DT_FLOAT"}, "SrcT": {"type": "DT_INT32"}, "Truncate": {"b": false}}}, {"name": "PartitionedCall/PartitionedCall/Cast_11", "op": "Cast", "input": ["PartitionedCall/PartitionedCall/mul_5"], "attr": {"SrcT": {"type": "DT_FLOAT"}, "Truncate": {"b": false}, "DstT": {"type": "DT_INT32"}}}, {"name": "PartitionedCall/PartitionedCall/mul_1", "op": "Mul", "input": ["PartitionedCall/PartitionedCall/strided_slice_2", "PartitionedCall/PartitionedCall/Cast_2"], "attr": {"T": {"type": "DT_FLOAT"}}}, {"name": "PartitionedCall/PartitionedCall/resize_5/ResizeBilinear", "op": "ResizeBilinear", "input": ["PartitionedCall/PartitionedCall/BiasAdd_52", "PartitionedCall/PartitionedCall/Cast_11"], "attr": {"align_corners": {"b": false}, "half_pixel_centers": {"b": true}, "T": {"type": "DT_FLOAT"}}}, {"name": "PartitionedCall/PartitionedCall/Cast_3", "op": "Cast", "input": ["PartitionedCall/PartitionedCall/mul_1"], "attr": {"Truncate": {"b": false}, "SrcT": {"type": "DT_FLOAT"}, "DstT": {"type": "DT_INT32"}}}, {"name": "PartitionedCall/Shape_1", "op": "Shape", "input": ["PartitionedCall/PartitionedCall/resize_5/ResizeBilinear"], "attr": {"out_type": {"type": "DT_INT32"}, "T": {"type": "DT_FLOAT"}}}, {"name": "PartitionedCall/PartitionedCall/resize_1/ResizeBilinear", "op": "ResizeBilinear", "input": ["PartitionedCall/PartitionedCall/Relu_1", "PartitionedCall/PartitionedCall/Cast_3"], "attr": {"half_pixel_centers": {"b": true}, "T": {"type": "DT_FLOAT"}, "align_corners": {"b": false}}}, {"name": "PartitionedCall/strided_slice_1", "op": "StridedSlice", "input": ["PartitionedCall/Shape_1", "PartitionedCall/strided_slice_1/stack", "PartitionedCall/strided_slice_1/stack_1", "PartitionedCall/strided_slice_1/stack_2"], "attr": {"Index": {"type": "DT_INT32"}, "T": {"type": "DT_INT32"…
="}, "num_args": {"i": "1"}, "T": {"type": "DT_FLOAT"}}}, {"name": "PartitionedCall/PartitionedCall/BiasAdd_49", "op": "_FusedConv2D", "input": ["PartitionedCall/PartitionedCall/Relu_9", "PartitionedCall/PartitionedCall/split_34", "PartitionedCall/PartitionedCall/BiasAdd_49/bias"], "device": "/device:CPU:0", "attr": {"strides": {"list": {"i": ["1", "1", "1", "1"]}}, "use_cudnn_on_gpu": {"b": true}, "padding": {"s": "VkFMSUQ="}, "epsilon": {"f": 0.0}, "fused_ops": {"list": {"s": ["Qmlhc0FkZA=="]}}, "explicit_paddings": {"list": {}}, "data_format": {"s": "TkhXQw=="}, "T": {"type": "DT_FLOAT"}, "num_args": {"i": "1"}, "dilations": {"list": {"i": ["1", "1", "1", "1"]}}}}, {"name": "PartitionedCall/resize_1/ResizeBilinear", "op": "ResizeBilinear", "input": ["PartitionedCall/PartitionedCall/BiasAdd_49", "PartitionedCall/strided_slice"], "attr": {"T": {"type": "DT_FLOAT"}, "align_corners": {"b": false}, "half_pixel_centers": {"b": true}}}, {"name": "PartitionedCall/PartitionedCall_1/Shape", "op": "Shape", "input": ["PartitionedCall/resize_1/ResizeBilinear"], "attr": {"T": {"type": "DT_FLOAT"}, "out_type": {"type": "DT_INT32"}}}, {"name": "PartitionedCall/truediv_7", "op": "Mul", "input": ["PartitionedCall/resize_1/ResizeBilinear", "ConstantFolding/PartitionedCall/truediv_7_recip"], "attr": {"T": {"type": "DT_FLOAT"}}}, {"name": "PartitionedCall/PartitionedCall_1/strided_slice", "op": "StridedSlice", "input": ["PartitionedCall/PartitionedCall_1/Shape", "PartitionedCall/PartitionedCall_1/strided_slice/stack", "PartitionedCall/PartitionedCall_1/strided_slice/stack_1", "PartitionedCall/PartitionedCall_1/strided_slice/stack_2"], "attr": {"shrink_axis_mask": {"i": "0"}, "T": {"type": "DT_INT32"}, "Index": {"type": "DT_INT32"}, "ellipsis_mask": {"i": "0"}, "begin_mask": {"i": "0"}, "new_axis_mask": {"i": "0"}, "end_mask": {"i": "0"}}}, {"name": "PartitionedCall/Sigmoid", "op": "Sigmoid", "input": ["PartitionedCall/truediv_7"], "attr": {"T": {"type": "DT_FLOAT"}}}, {"name": "PartitionedCall/PartitionedCall_1/floordiv", "op": "FloorDiv", "input": ["PartitionedCall/PartitionedCall_1/strided_slice", "PartitionedCall/PartitionedCall_1/floordiv/y"], "attr": {"T": {"type": "DT_INT32"}}}, {"name": "PartitionedCall/mul_4", "op": "Mul", "input": ["PartitionedCall/Sigmoid", "PartitionedCall/mul_4/y"], "attr": {"T": {"type": "DT_FLOAT"}}}, {"name": "PartitionedCall/PartitionedCall_1/resize/ResizeBilinear", "op": "ResizeBilinear", "input": ["PartitionedCall/PartitionedCall_1/Mean", "PartitionedCall/PartitionedCall_1/floordiv"], "attr": {"T": {"type": "DT_FLOAT"}, "align_corners": {"b": false}, "half_pixel_centers": {"b": true}}}, {"name": "PartitionedCall/PartitionedCall_1/resize_1/ResizeBilinear", "op": "ResizeBilinear", "input": ["PartitionedCall/resize_1/ResizeBilinear", "PartitionedCall/PartitionedCall_1/floordiv"], "attr": {"half_pixel_centers": {"b": true}, "align_corners": {"b": false}, "T": {"type": "DT_FLOAT"}}}, {"name": "Identity_1", "op": "Identity", "input": ["PartitionedCall/mul_4"], "attr": {"T": {"type": "DT_FLOAT"}}}, {"name": "PartitionedCall/PartitionedCall_1/pow", "op": "Square", "input": ["PartitionedCall/PartitionedCall_1/resize/ResizeBilinear"], "attr": {"T": {"type": "DT_FLOAT"}}}, {"name": "PartitionedCall/PartitionedCall_1/MirrorPad", "op": "MirrorPad", "input": ["PartitionedCall/PartitionedCall_1/resize/ResizeBilinear", "PartitionedCall/PartitionedCall_1/MirrorPad/paddings"], "attr": {"mode": {"s": "UkVGTEVDVA=="}, "T": {"type": "DT_FLOAT"}, "Tpaddings": {"type": "DT_INT32"}}}, {"name": "PartitionedCall/PartitionedCall_1/mul", "op": "Mul", "input": ["PartitionedCall/PartitionedCall_1/resize/ResizeBilinear", "PartitionedCall/PartitionedCall_1/resize_1/ResizeBilinear"], "attr": {"T": {"type": "DT_FLOAT"}}}, {"name": "PartitionedCall/PartitionedCall_1/MirrorPad_1", "op": "MirrorPad", "input": ["PartitionedCall/PartitionedCall_1/resize_1/ResizeBilinear", "PartitionedCall/PartitionedCall_1/MirrorPad_1/paddings"], "attr": {"T": {"type": "DT_FLOAT"}, "Tpaddings": {"type": "DT_INT32"}, "mode": {"s": "UkVGTEVDVA=="}}}, {"name": "PartitionedCall/PartitionedCall_1/MirrorPad_2", "op": "MirrorPad", "input": ["PartitionedCall/PartitionedCall_1/pow", "PartitionedCall/PartitionedCall_1/MirrorPad_2/paddings"], "attr": {"mode": {"s": "UkVGTEVDVA=="}, "T": {"type": "DT_FLOAT"}, "Tpaddings": {"type": "DT_INT32"}}}, {"name": "PartitionedCall/PartitionedCall_1/Conv2D", "op": "Conv2D", "input": ["PartitionedCall/PartitionedCall_1/MirrorPad", "PartitionedCall/PartitionedCall_1/cond/output/_18"], "device": "/device:CPU:0", "attr": {"explicit_paddings": {"list": {}}, "use_cudnn_on_gpu": {"b": true}, "strides": {"list": {"i": ["1", "1", "1", "1"]}}, "T": {"type": "DT_FLOAT"}, "dilations": {"list": {"i": ["1", "1", "1", "1"]}}, "data_format": {"s": "TkhXQw=="}, "padding": {"s": "VkFMSUQ="}}}, {"name": "PartitionedCall/PartitionedCall_1/MirrorPad_3", "op": "MirrorPad", "input": ["PartitionedCall/PartitionedCall_1/mul", "PartitionedCall/PartitionedCall_1/MirrorPad_3/paddings"], "attr": {"mode": {"s": "UkVGTEVDVA=="}, "Tpaddings": {"type": "DT_INT32"}, "T": {"type": "DT_FLOAT"}}}, {"name": "PartitionedCall/PartitionedCall_1/Conv2D_1", "op": "Conv2D", "input": ["PartitionedCall/PartitionedCall_1/MirrorPad_1", "PartitionedCall/PartitionedCall_1/cond/output/_18"], "device": "/device:CPU:0", "attr": {"use_cudnn_on_gpu": {"b": true}, "T": {"type": "DT_FLOAT"}, "padding": {"s": "VkFMSUQ="}, "explicit_paddings": {"list": {}}, "dilations": {"list": {"i": ["1", "1", "1", "1"]}}, "strides": {"list": {"i": ["1", "1", "1", "1"]}}, "data_format": {"s": "TkhXQw=="}}}, {"name": "PartitionedCall/PartitionedCall_1/Conv2D_2", "op": "Conv2D", "input": ["PartitionedCall/PartitionedCall_1/MirrorPad_2", "PartitionedCall/PartitionedCall_1/cond/output/_18"], "device": "/device:CPU:0", "attr": {"padding": {"s": "VkFMSUQ="}, "data_format": {"s": "TkhXQw=="}, "strides": {"list": {"i": ["1", "1", "1", "1"]}}, "use_cudnn_on_gpu": {"b": true}, "explicit_paddings": {"list": {}}, "T": {"type": "DT_FLOAT"}, "dilations": {"list": {"i": ["1", "1", "1", "1"]}}}}, {"name": "PartitionedCall/PartitionedCall_1/pow_1", "op": "Square", "input": ["PartitionedCall/PartitionedCall_1/Conv2D"], "attr": {"T": {"type": "DT_FLOAT"}}}, {"name": "PartitionedCall/PartitionedCall_1/Conv2D_3", "op": "Conv2D", "input": ["PartitionedCall/PartitionedCall_1/MirrorPad_3", "PartitionedCall/PartitionedCall_1/cond/output/_18"], "device": "/device:CPU:0", "attr": {"strides": {"list": {"i": ["1", "1", "1", "1"]}}, "use_cudnn_on_gpu": {"b": true}, "data_format": {"s": "TkhXQw=="}, "padding": {"s": "VkFMSUQ="}, "T": {"type": "DT_FLOAT"}, "dilations": {"list": {"i": ["1", "1", "1", "1"]}}, "explicit_paddings": {"list": {}}}}, {"name": "PartitionedCall/PartitionedCall_1/mul_1", "op": "Mul", "input": ["PartitionedCall/PartitionedCall_1/Conv2D", "PartitionedCall/PartitionedCall_1/Conv2D_1"], "attr": {"T": {"type": "DT_FLOAT"}}}, {"name": "PartitionedCall/PartitionedCall_1/sub", "op": "Sub", "input": ["PartitionedCall/PartitionedCall_1/Conv2D_2", "PartitionedCall/PartitionedCall_1/pow_1"], "attr": {"T": {"type": "DT_FLOAT"}}}, {"name": "PartitionedCall/PartitionedCall_1/sub_1", "op": "Sub", "input": ["PartitionedCall/PartitionedCall_1/Conv2D_3", "PartitionedCall/PartitionedCall_1/mul_1"], "attr": {"T": {"type": "DT_FLOAT"}}}, {"name": "PartitionedCall/PartitionedCall_1/clip_by_value/Minimum", "op": "Minimum", "input": ["PartitionedCall/PartitionedCall_1/sub", "PartitionedCall/PartitionedCall_1/clip_by_value/Minimum/y"], "attr": {"T": {"type": "DT_FLOAT"}}}, {"name": "PartitionedCall/PartitionedCall_1/clip_by_value", "op": "Maximum", "input": ["PartitionedCall/PartitionedCall_1/clip_by_value/Minimum", "PartitionedCall/PartitionedCall_1/clip_by_value/y"], "attr": {"T": {"type": "DT_FLOAT"}}}, {"name": "PartitionedCall/PartitionedCall_1/add", "op": "AddV2", "input": ["PartitionedCall/PartitionedCall_1/clip_by_value", "PartitionedCall/PartitionedCall_1/add/y"], "attr": {"T": {"type": "DT_FLOAT"}}}, {"name": "PartitionedCall/PartitionedCall_1/truediv", "op": "RealDiv", "input": ["PartitionedCall/PartitionedCall_1/sub_1", "PartitionedCall/PartitionedCall_1/add"], "attr": {"T": {"type": "DT_FLOAT"}}}, {"name": "PartitionedCall/PartitionedCall_1/MirrorPad_4", "op": "MirrorPad", "input": ["PartitionedCall/PartitionedCall_1/truediv", "PartitionedCall/PartitionedCall_1/MirrorPad_4/paddings"], "attr": {"mode": {"s": "UkVGTEVDVA=="}, "Tpaddings": {"type": "DT_INT32"}, "T": {"type": "DT_FLOAT"}}}, {"name": "PartitionedCall/PartitionedCall_1/mul_2", "op": "Mul", "input": ["PartitionedCall/PartitionedCall_1/truediv", "PartitionedCall/PartitionedCall_1/Conv2D"], "attr": {"T": {"type": "DT_FLOAT"}}}, {"name": "PartitionedCall/PartitionedCall_1/Conv2D_4", "op": "Conv2D", "input": ["PartitionedCall/PartitionedCall_1/MirrorPad_4", "PartitionedCall/PartitionedCall_1/cond/output/_18"], "device": "/device:CPU:0", "attr": {"dilations": {"list": {"i": ["1", "1", "1", "1"]}}, "data_format": {"s": "TkhXQw=="}, "padding": {"s": "VkFMSUQ="}, "use_cudnn_on_gpu": {"b": true}, "explicit_paddings": {"list": {}}, "strides": {"list": {"i": ["1", "1", "1", "1"]}}, "T": {"type": "DT_FLOAT"}}}, {"name": "PartitionedCall/PartitionedCall_1/sub_2", "op": "Sub", "input": ["PartitionedCall/PartitionedCall_1/Conv2D_1", "PartitionedCall/PartitionedCall_1/mul_2"], "attr": {"T": {"type": "DT_FLOAT"}}}, {"name": "PartitionedCall/PartitionedCall_1/resize_2/ResizeBilinear", "op": "ResizeBilinear", "input": ["PartitionedCall/PartitionedCall_1/Conv2D_4", "PartitionedCall/PartitionedCall_1/strided_slice"], "attr": {"half_pixel_centers": {"b": true}, "align_corners": {"b": false}, "T": {"type": "DT_FLOAT"}}}, {"name": "PartitionedCall/PartitionedCall_1/MirrorPad_5", "op": "MirrorPad", "input": ["PartitionedCall/PartitionedCall_1/sub_2", "PartitionedCall/PartitionedCall_1/MirrorPad_5/paddings"], "attr": {"Tpaddings": {"type": "DT_INT32"}, "mode": {"s": "UkVGTEVDVA=="}, "T": {"type": "DT_FLOAT"}}}, {"name": "PartitionedCall/PartitionedCall_1/mul_3", "op": "Mul", "input": ["PartitionedCall/PartitionedCall_1/resize_2/ResizeBilinear", "PartitionedCall/PartitionedCall_1/Mean"], "attr": {"T": {"type": "DT_FLOAT"}}}, {"name": "PartitionedCall/PartitionedCall_1/Conv2D_5", "op": "Conv2D", "input": ["PartitionedCall/PartitionedCall_1/MirrorPad_5", "PartitionedCall/PartitionedCall_1/cond/output/_18"], "device": "/device:CPU:0", "attr": {"dilations": {"list": {"i": ["1", "1", "1", "1"]}}, "T": {"type": "DT_FLOAT"}, "data_format": {"s": "TkhXQw=="}, "explicit_paddings": {"list": {}}, "padding": {"s": "VkFMSUQ="}, "strides": {"list": {"i": ["1", "1", "1", "1"]}}, "use_cudnn_on_gpu": {"b": true}}}, {"name": "PartitionedCall/PartitionedCall_1/resize_3/ResizeBilinear", "op": "ResizeBilinear", "input": ["PartitionedCall/PartitionedCall_1/Conv2D_5", "PartitionedCall/PartitionedCall_1/strided_slice"], "attr": {"T": {"type": "DT_FLOAT"}, "half_pixel_centers": {"b": true}, "align_corners": {"b": false}}}, {"name": "PartitionedCall/PartitionedCall_1/add_1", "op": "AddV2", "input": ["PartitionedCall/PartitionedCall_1/mul_3", "PartitionedCall/PartitionedCall_1/resize_3/ResizeBilinear"], "attr": {"T": {"type": "DT_FLOAT"}}}, {"name": "PartitionedCall/truediv_8", "op": "Mul", "input": ["PartitionedCall/PartitionedCall_1/add_1", "ConstantFolding/PartitionedCall/truediv_8_recip"], "attr": {"T": {"type": "DT_FLOAT"}}}, {"name": "PartitionedCall/Sigmoid_1", "op": "Sigmoid", "input": ["PartitionedCall/truediv_8"], "attr": {"T": {"type": "DT_FLOAT"}}}, {"name": "PartitionedCall/mul_5", "op": "Mul", "input": ["PartitionedCall/Sigmoid_1", "PartitionedCall/mul_5/y"], "attr": {"T": {"type": "DT_FLOAT"}}}, {"name": "Identity", "op": "Identity", "input": ["PartitionedCall/mul_5"], "attr": {"T": {"type": "DT_FLOAT"}}}], "library": {}, "versions": {"producer": 1087}}, "weightsManifest": [{"paths": ["group1-shard1of1.bin"], "weights": [{"name": "PartitionedCall/PartitionedCall_1/clip_by_value/Minimum/y", "shape": [], "dtype": "float32", "quantization": {"dtype": "float16", "original_dtype": "float32"}}, {"name": "PartitionedCall/PartitionedCall_1/clip_by_value/y", "shape": [], "dtype": "float32", "quantization": {"dtype": "float16", "original_dtype": "float32"}}, {"name": "PartitionedCall/PartitionedCall_1/add/y", "shape": [], "dtype": "float32", "quantization": {"dtype": "float16", "original_dtype": "float32"}}, {"name": "PartitionedCall/sub_1/y", "shape": [], "dtype": "float32", "quantization": {"dtype": "float16", "original_dtype": "float32"}}, {"name": "ConstantFolding/PartitionedCall/truediv_6_recip", "shape": [], "dtype": "float32", "quantization": {"dtype": "float16", "original_dtype": "float32"}}, {"name": "PartitionedCall/PartitionedCall_1/Mean/reduction_indices", "shape": [], "dtype": "int32"}, {"name": "PartitionedCall/PartitionedCall_1/floordiv/y", "shape": [], "dtype": "int32"}, {"name": "PartitionedCall/PartitionedCall_1/Equal/y", "shape": [], "dtype": "int32"}, {"name": "PartitionedCall/PartitionedCall_1/strided_slice/stack", "shape": [1], "dtype": "int32"}, {"name": "PartitionedCall/PartitionedCall_1/strided_slice/stack_1", "shape": [1], "dtype": "int32"}, {"name": "PartitionedCall/PartitionedCall_1/strided_slice/stack_2", "shape": [1], "dtype": "int32"}, {"name": "ConstantFolding/PartitionedCall/truediv_8_recip", "shape": [], "dtype": "float32", "quantization": {"dtype": "float16", "original_dtype": "float32"}}, {"name": "PartitionedCall/mul_5/y", "shape": [], "dtype": "float32", "quantization": {"dtype": "float16", "original_dtype": "float32"}}, {"name": "PartitionedCall/PartitionedCall/strided_slice_6", "shape": [2], "dtype": "float32", "quantization": {"dtype": "float16", "original_dtype": "float32"}}, {"name": "PartitionedCall/PartitionedCall/strided_slice_4", "shape": [2], "dtype": "float32", "quantization": {"dtype": "float16", "original_dtype": "float32"}}, {"name": "PartitionedCall/PartitionedCall/strided_slice_2", "shape": [2], "dtype": "float32", "quantization": {"dtype": "float16", "original_dtype": "float32"}}, {"name": "PartitionedCall/PartitionedCall/strided_slice", "shape": [2], "dtype": "float32", "quantization": {"dtype": "float16", "original_dtype": "float32"}}, {"name": "PartitionedCall/PartitionedCall/strided_slice_1/stack", "shape": [1], "dtype": "int32"}, {"name": "PartitionedCall/PartitionedCall/strided_slice_1/stack_1", "shape": [1], "dtype": "int32"}, {"name": "PartitionedCall/PartitionedCall/strided_slice_1/stack_2", "shape": [1], "dtype": "int32"}, {"name": "PartitionedCall/PartitionedCall/split_26", "shape": [1, 1, 32, 96], "dtype": "float32", "quantization": {"dtype": "float16", "original_dtype": "float32"}}, {"name": "PartitionedCall/PartitionedCall/Const_15", "shape": [4, 2], "dtype": "int32"}, {"name": "PartitionedCall/PartitionedCall/Reshape_13", "shape": [3, 3, 96, 1], "dtype": "float32", "quantization": {"dtype": "float16", "original_dtype": "float32"}}, {"name": "PartitionedCall/PartitionedCall/BiasAdd_39/bias", "shape": [96], "dtype": "float32", "quantization": {"dtype": "float16", "original_dtype": "float32"}}, {"name": "PartitionedCall/PartitionedCall/split_27", "shape": [1, 1, 96, 32], "dtype": "float32", "quantization": {"dtype": "float16", "original_dtype": "float32"}}, {"name": "PartitionedCall/PartitionedCall/BiasAdd_40/bias", "shape": [32], "dtype": "float32", "quantization": {"dtype": "float16", "original_dtype": "float32"}}, {"name": "PartitionedCall/PartitionedCall/strided_slice_3/stack", "shape": [1], "dtype": "int32"}, {"name": "PartitionedCall/PartitionedCall/strided_slice_3/stack_1", "shape": [1], "dtype": "int32"}, {"name": "PartitionedCall/PartitionedCall/strided_slice_3/stack_2", "shape": [1], "dtype": "int32"}, {"name": "PartitionedCall/PartitionedCall/split_28", "shape": [1, 1, 24, 32], "dtype": "float32", "quantization": {"dtype": "float16", "original_dtype": "float32"}}, {"name": "PartitionedCall/PartitionedCall/Const_17", "shape": [4, 2], "dtype": "int32"}, {"name": "PartitionedCall/PartitionedCall/Reshape_14", "shape": [3, 3, 32, 1], "dtype": "float32", "quantization": {"dtype": "float16", "original_dtype": "float32"}}, {"name": "PartitionedCall/PartitionedCall/BiasAdd_41/bias", "shape": [32], "dtype": "float32", "quantization": {"dtype": "float16", "original_dtype": "float32"}}, {"name": "PartitionedCall/PartitionedCall/split_29", "shape": [1, 1, 32, 24], "dtype": "float32", "quantization": {"dtype": "float16", "original_dtype": "float32"}}, {"name": "PartitionedCall/PartitionedCall/BiasAdd_42/bias", "shape": [24], "dtype": "float32", "quantization": {"dtype": "float16", "original_dtype": "float32"}}, {"name": "PartitionedCall/PartitionedCall/strided_slice_5/stack", "shape": [1], "dtype": "int32"}, {"name": "PartitionedCall/PartitionedCall/strided_slice_5/stack_1", "shape": [1], "dtype": "int32"}, {"name": "PartitionedCall/PartitionedCall/strided_slice_5/stack_2", "shape": [1], "dtype": "int32"}, {"name": "PartitionedCall/PartitionedCall/split_30", "shape": [1, 1, 16, 24], "dtype": "float32", "quantization": {"dtype": "float16", "original_dtype": "float32"}}, {"name": "PartitionedCall/PartitionedCall/Const_19", "shape": [4, 2], "dtype": "int32"}, {"name": "PartitionedCall/PartitionedCall/Reshape_15", "shape": [3, 3, 24, 1], "dtype": "float32", "quantization": {"dtype": "float16", "original_dtype": "float32"}}, {"name": "PartitionedCall/PartitionedCall/BiasAdd_43/bias", "shape": [24], "dtype": "float32", "quantization": {"dtype": "float16", "original_dtype": "float32"}}, {"name": "PartitionedCall/PartitionedCall/split_31", "shape": [1, 1, 24, 16], "dtype": "float32", "quantization": {"dtype": "float16", "original_dtype": "float32"}}, {"name": "PartitionedCall/PartitionedCall/BiasAdd_44/bias", "shape": [16], "dtype": "float32", "quantization": {"dtype": "float16", "original_dtype": "float32"}}, {"name": "PartitionedCall/PartitionedCall/strided_slice_7/stack", "shape": [1], "dtype": "int32"}, {"name": "PartitionedCall/PartitionedCall/strided_slice_7/stack_1", "shape": [1], "dtype": "int32"}, {"name": "PartitionedCall/PartitionedCall/strided_slice_7/stack_2", "shape": [1], "dtype": "int32"}, {"name": "PartitionedCall/PartitionedCall/Const_21", "shape": [4, 2], "dtype": "int32"}, {"name": "PartitionedCall/PartitionedCall/Reshape_16", "shape": [3, 3, 16, 1], "dtype": "float32", "quantization": {"dtype": "float16", "original_dtype": "float32"}}, {"name": "PartitionedCall/PartitionedCall/BiasAdd_45/bias", "shape": [16], "dtype": "float32", "quantization": {"dtype": "float16", "original_dtype": "float32"}}, {"name": "PartitionedCall/PartitionedCall/split_32", "shape": [1, 1, 16, 16], "dtype": "float32", "quantization": {"dtype": "float16", "original_dtype": "float32"}}, {"name": "PartitionedCall/PartitionedCall/BiasAdd_46/bias", "shape": [16], "dtype": "float32", "quantization": {"dtype": "float16", "original_dtype": "float32"}}, {"name": "PartitionedCall/PartitionedCall/Const_22", "shape": [4, 2], "dtype": "int32"}, {"name": "PartitionedCall/PartitionedCall/Reshape_17", "shape": [3, 3, 16, 1], "dtype": "float32", "quantization": {"dtype": "float16", "original_dtype": "float32"}}, {"name": "PartitionedCall/PartitionedCall/BiasAdd_47/bias", "shape": [16], "dtype": "float32", "quantization": {"dtype": "float16", "original_dtype": "float32"}}, {"name": "PartitionedCall/PartitionedCall/split_33", "shape": [1, 1, 16, 16], "dtype": "float32", "quantization": {"dtype": "float16", "original_dtype": "float32"}}, {"name": "PartitionedCall/PartitionedCall/BiasAdd_48/bias", "shape": [16], "dtype": "float32", "quantization": {"dtype": "float16", "original_dtype": "float32"}}, {"name": "PartitionedCall/PartitionedCall/split_34", "shape": [1, 1, 16, 1], "dtype": "float32", "quantization": {"dtype": "float16", "original_dtype": "float32"}}, {"name": "PartitionedCall/PartitionedCall/BiasAdd_49/bias", "shape": [1], "dtype": "float32", "quantization": {"dtype": "float16", "original_dtype": "float32"}}, {"name": "ConstantFolding/PartitionedCall/truediv_7_recip", "shape": [], "dtype": "float32", "quantization": {"dtype": "float16", "original_dtype": "float32"}}, {"name": "PartitionedCall/mul_4/y", "shape": [], "dtype": "float32", "quantization": {"dtype": "float16", "original_dtype": "float32"}}, {"name": "PartitionedCall/add/y", "shape": [], "dtype": "float32", "quantization": {"dtype": "float16", "original_dtype": "float32"}}, {"name": "PartitionedCall/ExpandDims/dim", "shape": [], "dtype": "int32"}, {"name": "PartitionedCall/strided_slice_2/stack", "shape": [1], "dtype": "int32"}, {"name": "PartitionedCall/strided_slice_2/stack_1", "shape": [1], "dtype": "int32"}, {"name": "PartitionedCall/strided_slice_2/stack_2", "shape": [1], "dtype": "int32"}, {"name": "PartitionedCall/PartitionedCall/strided_slice_10", "shape": [2], "dtype": "float32", "quantization": {"dtype": "float16", "original_dtype": "float32"}}, {"name": "PartitionedCall/PartitionedCall/strided_slice_8", "shape": [2], "dtype": "float32", "quantization": {"dtype": "float16", "original_dtype": "float32"}}, {"name": "ConstantFolding/PartitionedCall/truediv_2_recip", "shape": [], "dtype": "float32", "quantization": {"dtype": "float16", "original_dtype": "float32"}}, {"name": "PartitionedCall/mul_1/y", "shape": [], "dtype": "float32", "quantization": {"dtype": "float16", "original_dtype": "float32"}}, {"name": "PartitionedCall/Cast", "shape": [], "dtype": "float32", "quantization": {"dtype": "float16", "original_dtype": "float32"}}, {"name": "PartitionedCall/Cast_2", "shape": [], "dtype": "float32", "quantization": {"dtype": "float16", "original_dtype": "float32"}}, {"name": "ConstantFolding/PartitionedCall/truediv_3_recip", "shape": [], "dtype": "float32", "quantization": {"dtype": "float16", "original_dtype": "float32"}}, {"name": "PartitionedCall/mul_3/y", "shape": [], "dtype": "float32", "quantization": {"dtype": "float16", "original_dtype": "float32"}}, {"name": "ConstantFolding/PartitionedCall/truediv_4_recip", "shape": [], "dtype": "float32", "quantization": {"dtype": "float16", "original_dtype": "float32"}}, {"name": "PartitionedCall/Sub/y", "shape": [1, 1, 1, 3], "dtype": "float32", "quantization": {"dtype": "float16", "original_dtype": "float32"}}, {"name": "ConstantFolding/PartitionedCall/truediv_5_recip", "shape": [1, 1, 1, 3], "dtype": "float32", "quantization": {"dtype": "float16", "original_dtype": "float32"}}, {"name": "PartitionedCall/PartitionedCall/Const", "shape": [4, 2], "dtype": "int32"}, {"name": "PartitionedCall/PartitionedCall/split", "shape": [3, 3, 3, 32], "dtype": "float32", "quantization": {"dtype": "float16", "original_dtype": "float32"}}, {"name": "PartitionedCall/PartitionedCall/BiasAdd/bias", "shape": [32], "dtype": "float32", "quantization": {"dtype": "float16", "original_dtype": "float32"}}, {"name": "PartitionedCall/PartitionedCall/Const_1", "shape": [4, 2], "dtype": "int32"}, {"name": "PartitionedCall/PartitionedCall/Reshape", "shape": [3, 3, 32, 1], "dtype": "float32", "quantization": {"dtype": "float16", "original_dtype": "float32"}}, {"name": "PartitionedCall/PartitionedCall/BiasAdd_1/bias", "shape": [32], "dtype": "float32", "quantization": {"dtype": "float16", "original_dtype": "float32"}}, {"name": "PartitionedCall/PartitionedCall/split_1", "shape": [1, 1, 32, 16], "dtype": "float32", "quantization": {"dtype": "float16", "original_dtype": "float32"}}, {"name": "PartitionedCall/PartitionedCall/BiasAdd_2/bias", "shape": [16], "dtype": "float32", "quantization": {"dtype": "float16", "original_dtype": "float32"}}, {"name": "PartitionedCall/PartitionedCall/split_2", "shape": [1, 1, 16, 96], "dtype": "float32", "quantization": {"dtype": "float16", "original_dtype": "float32"}}, {"name": "PartitionedCall/PartitionedCall/BiasAdd_3/bias", "shape": [96], "dtype": "float32", "quantization": {"dtype": "float16", "original_dtype": "float32"}}, {"name": "PartitionedCall/PartitionedCall/Const_2", "shape": [4, 2], "dtype": "int32"}, {"name": "PartitionedCall/PartitionedCall/Reshape_1", "shape": [3, 3, 96, 1], "dtype": "float32", "quantization": {"dtype": "float16", "original_dtype": "float32"}}, {"name": "PartitionedCall/PartitionedCall/BiasAdd_4/bias", "shape": [96], "dtype": "float32", "quantization": {"dtype": "float16", "original_dtype": "float32"}}, {"name": "PartitionedCall/PartitionedCall/split_3", "shape": [1, 1, 96, 24], "dtype": "float32", "quantization": {"dtype": "float16", "original_dtype": "float32"}}, {"name": "PartitionedCall/PartitionedCall/BiasAdd_5/bias", "shape": [24], "dtype": "float32", "quantization": {"dtype": "float16", "original_dtype": "float32"}}, {"name": "PartitionedCall/PartitionedCall/split_4", "shape": [1, 1, 24, 144], "dtype": "float32", "quantization": {"dtype": "float16", "original_dtype": "float32"}}, {"name": "PartitionedCall/PartitionedCall/BiasAdd_6/bias", "shape": [144], "dtype": "float32", "quantization": {"dtype": "float16", "original_dtype": "float32"}}, {"name": "PartitionedCall/PartitionedCall/Const_3", "shape": [4, 2], "dtype": "int32"}, {"name": "PartitionedCall/PartitionedCall/Reshape_2", "shape": [3, 3, 144, 1], "dtype": "float32", "quantization": {"dtype": "float16", "original_dtype": "float32"}}, {"name": "PartitionedCall/PartitionedCall/BiasAdd_7/bias", "shape": [144], "dtype": "float32", "quantization": {"dtype": "float16", "original_dtype": "float32"}}, {"name": "PartitionedCall/PartitionedCall/split_5", "shape": [1, 1, 144, 24], "dtype": "float32", "quantization": {"dtype": "float16", "original_dtype": "float32"}}, {"name": "PartitionedCall/PartitionedCall/BiasAdd_8/bias", "shape": [24], "dtype": "float32", "quantization": {"dtype": "float16", "original_dtype": "float32"}}, {"name": "PartitionedCall/PartitionedCall/split_6", "shape": [1, 1, 24, 144], "dtype": "float32", "quantization": {"dtype": "float16", "original_dtype": "float32"}}, {"name": "PartitionedCall/PartitionedCall/BiasAdd_9/bias", "shape": [144], "dtype": "float32", "quantization": {"dtype": "float16", "original_dtype": "float32"}}, {"name": "PartitionedCall/PartitionedCall/Const_4", "shape": [4, 2], "dtype": "int32"}, {"name": "PartitionedCall/PartitionedCall/Reshape_3", "shape": [3, 3, 144, 1], "dtype": "float32", "quantization": {"dtype": "float16", "original_dtype": "float32"}}, {"name": "PartitionedCall/PartitionedCall/BiasAdd_10/bias", "shape": [144], "dtype": "float32", "quantization": {"dtype": "float16", "original_dtype": "float32"}}, {"name": "PartitionedCall/PartitionedCall/split_7", "shape": [1, 1, 144, 32], "dtype": "float32", "quantization": {"dtype": "float16", "original_dtype": "float32"}}, {"name": "PartitionedCall/PartitionedCall/BiasAdd_11/bias", "shape": [32], "dtype": "float32", "quantization": {"dtype": "float16", "original_dtype": "float32"}}, {"name": "PartitionedCall/PartitionedCall/split_8", "shape": [1, 1, 32, 192], "dtype": "float32", "quantization": {"dtype": "float16", "original_dtype": "float32"}}, {"name": "PartitionedCall/PartitionedCall/BiasAdd_12/bias", "shape": [192], "dtype": "float32", "quantization": {"dtype": "float16", "original_dtype": "float32"}}, {"name": "PartitionedCall/PartitionedCall/Const_5", "shape": [4, 2], "dtype": "int32"}, {"name": "PartitionedCall/PartitionedCall/Reshape_4", "shape": [3, 3, 192, 1], "dtype": "float32", "quantization": {"dtype": "float16", "original_dtype": "float32"}}, {"name": "PartitionedCall/PartitionedCall/BiasAdd_13/bias", "shape": [192], "dtype": "float32", "quantization": {"dtype": "float16", "original_dtype": "float32"}}, {"name": "PartitionedCall/PartitionedCall/split_9", "shape": [1, 1, 192, 32], "dtype": "float32", "quantization": {"dtype": "float16", "original_dtype": "float32"}}, {"name": "PartitionedCall/PartitionedCall/BiasAdd_14/bias", "shape": [32], "dtype": "float32", "quantization": {"dtype": "float16", "original_dtype": "float32"}}, {"name": "PartitionedCall/PartitionedCall/split_10", "shape": [1, 1, 32, 192], "dtype": "float32", "quantization": {"dtype": "float16", "original_dtype": "float32"}}, {"name": "PartitionedCall/PartitionedCall/BiasAdd_15/bias", "shape": [192], "dtype": "float32", "quantization": {"dtype": "float16", "original_dtype": "float32"}}, {"name": "PartitionedCall/PartitionedCall/Const_6", "shape": [4, 2], "dtype": "int32"}, {"name": "PartitionedCall/PartitionedCall/Reshape_5", "shape": [3, 3, 192, 1], "dtype": "float32", "quantization": {"dtype": "float16", "original_dtype": "float32"}}, {"name": "PartitionedCall/PartitionedCall/BiasAdd_16/bias", "shape": [192], "dtype": "float32", "quantization": {"dtype": "float16", "original_dtype": "float32"}}, {"name": "PartitionedCall/PartitionedCall/split_11", "shape": [1, 1, 192, 32], "dtype": "float32", "quantization": {"dtype": "float16", "original_dtype": "float32"}}, {"name": "PartitionedCall/PartitionedCall/BiasAdd_17/bias", "shape": [32], "dtype": "float32", "quantization": {"dtype": "float16", "original_dtype": "float32"}}, {"name": "PartitionedCall/PartitionedCall/split_12", "shape": [1, 1, 32, 192], "dtype": "float32", "quantization": {"dtype": "float16", "original_dtype": "float32"}}, {"name": "PartitionedCall/PartitionedCall/BiasAdd_18/bias", "shape": [192], "dtype": "float32", "quantization": {"dtype": "float16", "original_dtype": "float32"}}, {"name": "PartitionedCall/PartitionedCall/Const_7", "shape": [4, 2], "dtype": "int32"}, {"name": "PartitionedCall/PartitionedCall/Reshape_6", "shape": [3, 3, 192, 1], "dtype": "float32", "quantization": {"dtype": "float16", "original_dtype": "float32"}}, {"name": "PartitionedCall/PartitionedCall/BiasAdd_19/bias", "shape": [192], "dtype": "float32", "quantization": {"dtype": "float16", "original_dtype": "float32"}}, {"name": "PartitionedCall/PartitionedCall/split_13", "shape": [1, 1, 192, 64], "dtype": "float32", "quantization": {"dtype": "float16", "original_dtype": "float32"}}, {"name": "PartitionedCall/PartitionedCall/BiasAdd_20/bias", "shape": [64], "dtype": "float32", "quantization": {"dtype": "float16", "original_dtype": "float32"}}, {"name": "PartitionedCall/PartitionedCall/split_14", "shape": [1, 1, 64, 384], "dtype": "float32", "quantization": {"dtype": "float16", "original_dtype": "float32"}}, {"name": "PartitionedCall/PartitionedCall/BiasAdd_21/bias", "shape": [384], "dtype": "float32", "quantization": {"dtype": "float16", "original_dtype": "float32"}}, {"name": "PartitionedCall/PartitionedCall/Const_8", "shape": [4, 2], "dtype": "int32"}, {"name": "PartitionedCall/PartitionedCall/Reshape_7", "shape": [3, 3, 384, 1], "dtype": "float32", "quantization": {"dtype": "float16", "original_dtype": "float32"}}, {"name": "PartitionedCall/PartitionedCall/BiasAdd_22/bias", "shape": [384], "dtype": "float32", "quantization": {"dtype": "float16", "original_dtype": "float32"}}, {"name": "PartitionedCall/PartitionedCall/split_15", "shape": [1, 1, 384, 64], "dtype": "float32", "quantization": {"dtype": "float16", "original_dtype": "float32"}}, {"name": "PartitionedCall/PartitionedCall/BiasAdd_23/bias", "shape": [64], "dtype": "float32", "quantization": {"dtype": "float16", "original_dtype": "float32"}}, {"name": "PartitionedCall/PartitionedCall/split_16", "shape": [1, 1, 64, 384], "dtype": "float32", "quantization": {"dtype": "float16", "original_dtype": "float32"}}, {"name": "PartitionedCall/PartitionedCall/BiasAdd_24/bias", "shape": [384], "dtype": "float32", "quantization": {"dtype": "float16", "original_dtype": "float32"}}, {"name": "PartitionedCall/PartitionedCall/Const_9", "shape": [4, 2], "dtype": "int32"}, {"name": "PartitionedCall/PartitionedCall/Reshape_8", "shape": [3, 3, 384, 1], "dtype": "float32", "quantization": {"dtype": "float16", "original_dtype": "float32"}}, {"name": "PartitionedCall/PartitionedCall/BiasAdd_25/bias", "shape": [384], "dtype": "float32", "quantization": {"dtype": "float16", "original_dtype": "float32"}}, {"name": "PartitionedCall/PartitionedCall/split_17", "shape": [1, 1, 384, 64], "dtype": "float32", "quantization": {"dtype": "float16", "original_dtype": "float32"}}, {"name": "PartitionedCall/PartitionedCall/BiasAdd_26/bias", "shape": [64], "dtype": "float32", "quantization": {"dtype": "float16", "original_dtype": "float32"}}, {"name": "PartitionedCall/PartitionedCall/split_18", "shape": [1, 1, 64, 384], "dtype": "float32", "quantization": {"dtype": "float16", "original_dtype": "float32"}}, {"name": "PartitionedCall/PartitionedCall/BiasAdd_27/bias", "shape": [384], "dtype": "float32", "quantization": {"dtype": "float16", "original_dtype": "float32"}}, {"name": "PartitionedCall/PartitionedCall/Const_10", "shape": [4, 2], "dtype": "int32"}, {"name": "PartitionedCall/PartitionedCall/Reshape_9", "shape": [3, 3, 384, 1], "dtype": "float32", "quantization": {"dtype": "float16", "original_dtype": "float32"}}, {"name": "PartitionedCall/PartitionedCall/BiasAdd_28/bias", "shape": [384], "dtype": "float32", "quantization": {"dtype": "float16", "original_dtype": "float32"}}, {"name": "PartitionedCall/PartitionedCall/split_19", "shape": [1, 1, 384, 64], "dtype": "float32", "quantization": {"dtype": "float16", "original_dtype": "float32"}}, {"name": "PartitionedCall/PartitionedCall/BiasAdd_29/bias", "shape": [64], "dtype": "float32", "quantization": {"dtype": "float16", "original_dtype": "float32"}}, {"name": "PartitionedCall/PartitionedCall/split_20", "shape": [1, 1, 64, 384], "dtype": "float32", "quantization": {"dtype": "float16", "original_dtype": "float32"}}, {"name": "PartitionedCall/PartitionedCall/BiasAdd_30/bias", "shape": [384], "dtype": "float32", "quantization": {"dtype": "float16", "original_dtype": "float32"}}, {"name": "PartitionedCall/PartitionedCall/Const_11", "shape": [4, 2], "dtype": "int32"}, {"name": "PartitionedCall/PartitionedCall/Reshape_10", "shape": [3, 3, 384, 1], "dtype": "float32", "quantization": {"dtype": "float16", "original_dtype": "float32"}}, {"name": "PartitionedCall/PartitionedCall/BiasAdd_31/bias", "shape": [384], "dtype": "float32", "quantization": {"dtype": "float16", "original_dtype": "float32"}}, {"name": "PartitionedCall/PartitionedCall/split_21", "shape": [1, 1, 384, 96], "dtype": "float32", "quantization": {"dtype": "float16", "original_dtype": "float32"}}, {"name": "PartitionedCall/PartitionedCall/BiasAdd_32/bias", "shape": [96], "dtype": "float32", "quantization": {"dtype": "float16", "original_dtype": "float32"}}, {"name": "PartitionedCall/PartitionedCall/split_22", "shape": [1, 1, 96, 576], "dtype": "float32", "quantization": {"dtype": "float16", "original_dtype": "float32"}}, {"name": "PartitionedCall/PartitionedCall/BiasAdd_33/bias", "shape": [576], "dtype": "float32", "quantization": {"dtype": "float16", "original_dtype": "float32"}}, {"name": "PartitionedCall/PartitionedCall/Const_12", "shape": [4, 2], "dtype": "int32"}, {"name": "PartitionedCall/PartitionedCall/Reshape_11", "shape": [3, 3, 576, 1], "dtype": "float32", "quantization": {"dtype": "float16", "original_dtype": "float32"}}, {"name": "PartitionedCall/PartitionedCall/BiasAdd_34/bias", "shape": [576], "dtype": "float32", "quantization": {"dtype": "float16", "original_dtype": "float32"}}, {"name": "PartitionedCall/PartitionedCall/split_23", "shape": [1, 1, 576, 96], "dtype": "float32", "quantization": {"dtype": "float16", "original_dtype": "float32"}}, {"name": "PartitionedCall/PartitionedCall/BiasAdd_35/bias", "shape": [96], "dtype": "float32", "quantization": {"dtype": "float16", "original_dtype": "float32"}}, {"name": "PartitionedCall/PartitionedCall/split_24", "shape": [1, 1, 96, 576], "dtype": "float32", "quantization": {"dtype": "float16", "original_dtype": "float32"}}, {"name": "PartitionedCall/PartitionedCall/BiasAdd_36/bias", "shape": [576], "dtype": "float32", "quantization": {"dtype": "float16", "original_dtype": "float32"}}, {"name": "PartitionedCall/PartitionedCall/Const_13", "shape": [4, 2], "dtype": "int32"}, {"name": "PartitionedCall/PartitionedCall/Reshape_12", "shape": [3, 3, 576, 1], "dtype": "float32", "quantization": {"dtype": "float16", "original_dtype": "float32"}}, {"name": "PartitionedCall/PartitionedCall/BiasAdd_37/bias", "shape": [576], "dtype": "float32", "quantization": {"dtype": "float16", "original_dtype": "float32"}}, {"name": "PartitionedCall/PartitionedCall/split_25", "shape": [1, 1, 576, 96], "dtype": "float32", "quantization": {"dtype": "float16", "original_dtype": "float32"}}, {"name": "PartitionedCall/PartitionedCall/BiasAdd_38/bias", "shape": [96], "dtype": "float32", "quantization": {"dtype": "float16", "original_dtype": "float32"}}, {"name": "PartitionedCall/PartitionedCall/split_35", "shape": [1, 1, 96, 48], "dtype": "float32", "quantization": {"dtype": "float16", "original_dtype": "float32"}}, {"name": "PartitionedCall/PartitionedCall/BiasAdd_50/bias", "shape": [48], "dtype": "float32", "quantization": {"dtype": "float16", "original_dtype": "float32"}}, {"name": "PartitionedCall/PartitionedCall/strided_slice_9/stack", "shape": [1], "dtype": "int32"}, {"name": "PartitionedCall/PartitionedCall/strided_slice_9/stack_1", "shape": [1], "dtype": "int32"}, {"name": "PartitionedCall/PartitionedCall/strided_slice_9/stack_2", "shape": [1], "dtype": "int32"}, {"name": "PartitionedCall/PartitionedCall/Const_24", "shape": [4, 2], "dtype": "int32"}, {"name": "PartitionedCall/PartitionedCall/split_36", "shape": [3, 3, 48, 48], "dtype": "float32", "quantization": {"dtype": "float16", "original_dtype": "float32"}}, {"name": "PartitionedCall/PartitionedCall/BiasAdd_51/bias", "shape": [48], "dtype": "float32", "quantization": {"dtype": "float16", "original_dtype": "float32"}}, {"name": "PartitionedCall/PartitionedCall/split_37", "shape": [1, 1, 48, 3], "dtype": "float32", "quantization": {"dtype": "float16", "original_dtype": "float32"}}, {"name": "PartitionedCall/PartitionedCall/BiasAdd_52/bias", "shape": [3], "dtype": "float32", "quantization": {"dtype": "float16", "original_dtype": "float32"}}, {"name": "PartitionedCall/PartitionedCall/strided_slice_11/stack", "shape": [1], "dtype": "int32"}, {"name": "PartitionedCall/PartitionedCall/strided_slice_11/stack_1", "shape": [1], "dtype": "int32"}, {"name": "PartitionedCall/PartitionedCall/strided_slice_11/stack_2", "shape": [1], "dtype": "int32"}, {"name": "PartitionedCall/strided_slice_1/stack", "shape": [1], "dtype": "int32"}, {"name": "PartitionedCall/strided_slice_1/stack_1", "shape": [1], "dtype": "int32"}, {"name": "PartitionedCall/strided_slice_1/stack_2", "shape": [1], "dtype": "int32"}, {"name": "PartitionedCall/Reshape/shape/1", "shape": [], "dtype": "int32"}, {"name": "PartitionedCall/Reshape/shape/2", "shape": [], "dtype": "int32"}, {"name": "PartitionedCall/ArgMax/dimension", "shape": [], "dtype": "int32"}, {"name": "PartitionedCall/FloorMod/y", "shape": [], "dtype": "int32"}, {"name": "ConstantFolding/PartitionedCall/truediv_9_recip", "shape": [], "dtype": "float32", "quantization": {"dtype": "float16", "original_dtype": "float32"}}, {"name": "PartitionedCall/add_1/y", "shape": [], "dtype": "float32", "quantization": {"dtype": "float16", "original_dtype": "float32"}}, {"name": "PartitionedCall/ExpandDims_1/dim", "shape": [], "dtype": "int32"}, {"name": "PartitionedCall/strided_slice/stack", "shape": [1], "dtype": "int32"}, {"name": "PartitionedCall/strided_slice/stack_1", "shape": [1], "dtype": "int32"}, {"name": "PartitionedCall/strided_slice/stack_2", "shape": [1], "dtype": "int32"}, {"name": "ConstantFolding/PartitionedCall/truediv_10_recip", "shape": [], "dtype": "float32", "quantization": {"dtype": "float16", "original_dtype": "float32"}}, {"name": "PartitionedCall/strided_slice_3/stack", "shape": [1], "dtype": "int32"}, {"name": "PartitionedCall/strided_slice_3/stack_1", "shape": [1], "dtype": "int32"}, {"name": "PartitionedCall/strided_slice_3/stack_2", "shape": [1], "dtype": "int32"}, {"name": "PartitionedCall/concat/axis", "shape": [], "dtype": "int32"}, {"name": "PartitionedCall/PartitionedCall_1/cond/else/_13/cond/Equal/y", "shape": [], "dtype": "int32"}, {"name": "Func/PartitionedCall/PartitionedCall_1/cond/then/_12/output/_31", "shape": [], "dtype": "int32"}, {"name": "Func/PartitionedCall/PartitionedCall_1/cond/then/_12/output/_32", "shape": [], "dtype": "int32"}, {"name": "Func/PartitionedCall/PartitionedCall_1/cond/then/_12/output/_33", "shape": [], "dtype": "int32"}, {"name": "Func/PartitionedCall/PartitionedCall_1/cond/then/_12/output/_34", "shape": [], "dtype": "int32"}, {"name": "Func/PartitionedCall/PartitionedCall_1/cond/then/_12/output/_35", "shape": [], "dtype": "int32"}, {"name": "Func/PartitionedCall/PartitionedCall_1/cond/then/_12/output/_36", "shape": [], "dtype": "int32"}, {"name": "Func/PartitionedCall/PartitionedCall_1/cond/then/_12/output/_37", "shape": [], "dtype": "int32"}, {"name": "Func/PartitionedCall/PartitionedCall_1/cond/then/_12/output/_38", "shape": [], "dtype": "int32"}, {"name": "Func/PartitionedCall/PartitionedCall_1/cond/then/_12/output/_30", "shape": [1, 1, 1, 1], "dtype": "float32", "quantization": {"dtype": "float16", "original_dtype": "float32"}}, {"name": "PartitionedCall/PartitionedCall_1/cond/else/_13/cond/cond/else/_53/cond/cond/Equal/y", "shape": [], "dtype": "int32"}, {"name": "Func/PartitionedCall/PartitionedCall_1/cond/else/_13/cond/cond/then/_52/output/_71", "shape": [], "dtype": "int32"}, {"name": "Func/PartitionedCall/PartitionedCall_1/cond/else/_13/cond/cond/then/_52/output/_72", "shape": [], "dtype": "int32"}, {"name": "Func/PartitionedCall/PartitionedCall_1/cond/else/_13/cond/cond/then/_52/output/_73", "shape": [], "dtype": "int32"}, {"name": "Func/PartitionedCall/PartitionedCall_1/cond/else/_13/cond/cond/then/_52/output/_74", "shape": [], "dtype": "int32"}, {"name": "Func/PartitionedCall/PartitionedCall_1/cond/else/_13/cond/cond/then/_52/output/_75", "shape": [], "dtype": "int32"}, {"name": "Func/PartitionedCall/PartitionedCall_1/cond/else/_13/cond/cond/then/_52/output/_76", "shape": [], "dtype": "int32"}, {"name": "Func/PartitionedCall/PartitionedCall_1/cond/else/_13/cond/cond/then/_52/output/_77", "shape": [], "dtype": "int32"}, {"name": "Func/PartitionedCall/PartitionedCall_1/cond/else/_13/cond/cond/then/_52/output/_78", "shape": [], "dtype": "int32"}, {"name": "Func/PartitionedCall/PartitionedCall_1/cond/else/_13/cond/cond/then/_52/output/_70", "shape": [3, 3, 1, 1], "dtype": "float32", "quantization": {"dtype": "float16", "original_dtype": "float32"}}, {"name": "PartitionedCall/PartitionedCall_1/cond/else/_13/cond/cond/else/_53/cond/cond/cond/else/_93/cond/cond/cond/Equal/y", "shape": [], "dtype": "int32"}, {"name": "Func/PartitionedCall/PartitionedCall_1/cond/else/_13/cond/cond/else/_53/cond/cond/cond/then/_92/output/_111", "shape": [], "dtype": "int32"}, {"name": "Func/PartitionedCall/PartitionedCall_1/cond/else/_13/cond/cond/else/_53/cond/cond/cond/then/_92/output/_112", "shape": [], "dtype": "int32"}, {"name": "Func/PartitionedCall/PartitionedCall_1/cond/else/_13/cond/cond/else/_53/cond/cond/cond/then/_92/output/_113", "shape": [], "dtype": "int32"}, {"name": "Func/PartitionedCall/PartitionedCall_1/cond/else/_13/cond/cond/else/_53/cond/cond/cond/then/_92/output/_114", "shape": [], "dtype": "int32"}, {"name": "Func/PartitionedCall/PartitionedCall_1/cond/else/_13/cond/cond/else/_53/cond/cond/cond/then/_92/output/_115", "shape": [], "dtype": "int32"}, {"name": "Func/PartitionedCall/PartitionedCall_1/cond/else/_13/cond/cond/else/_53/cond/cond/cond/then/_92/output/_116", "shape": [], "dtype": "int32"}, {"name": "Func/PartitionedCall/PartitionedCall_1/cond/else/_13/cond/cond/else/_53/cond/cond/cond/then/_92/output/_117", "shape": [], "dtype": "int32"}, {"name": "Func/PartitionedCall/PartitionedCall_1/cond/else/_13/cond/cond/else/_53/cond/cond/cond/then/_92/output/_118", "shape": [], "dtype": "int32"}, {"name": "Func/PartitionedCall/PartitionedCall_1/cond/else/_13/cond/cond/else/_53/cond/cond/cond/then/_92/output/_110", "shape": [5, 5, 1, 1], "dtype": "float32", "quantization": {"dtype": "float16", "original_dtype": "float32"}}, {"name": "PartitionedCall/PartitionedCall_1/cond/else/_13/cond/cond/else/_53/cond/cond/cond/else/_93/cond/cond/cond/cond/else/_133/cond/cond/cond/cond/Equal/y", "shape": [], "dtype": "int32"}, {"name": "Func/PartitionedCall/PartitionedCall_1/cond/else/_13/cond/cond/else/_53/cond/cond/cond/else/_93/cond/cond/cond/cond/then/_132/output/_151", "shape": [], "dtype": "int32"}, {"name": "Func/PartitionedCall/PartitionedCall_1/cond/else/_13/cond/cond/else/_53/cond/cond/cond/else/_93/cond/cond/cond/cond/then/_132/output/_152", "shape": [], "dtype": "int32"}, {"name": "Func/PartitionedCall/PartitionedCall_1/cond/else/_13/cond/cond/else/_53/cond/cond/cond/else/_93/cond/cond/cond/cond/then/_132/output/_153", "shape": [], "dtype": "int32"}, {"name": "Func/PartitionedCall/PartitionedCall_1/cond/else/_13/cond/cond/else/_53/cond/cond/cond/else/_93/cond/cond/cond/cond/then/_132/output/_154", "shape": [], "dtype": "int32"}, {"name": "Func/PartitionedCall/PartitionedCall_1/cond/else/_13/cond/cond/else/_53/cond/cond/cond/else/_93/cond/cond/cond/cond/then/_132/output/_155", "shape": [], "dtype": "int32"}, {"name": "Func/PartitionedCall/PartitionedCall_1/cond/else/_13/cond/cond/else/_53/cond/cond/cond/else/_93/cond/cond/cond/cond/then/_132/output/_156", "shape": [], "dtype": "int32"}, {"name": "Func/PartitionedCall/PartitionedCall_1/cond/else/_13/cond/cond/else/_53/cond/cond/cond/else/_93/cond/cond/cond/cond/then/_132/output/_157", "shape": [], "dtype": "int32"}, {"name": "Func/PartitionedCall/PartitionedCall_1/cond/else/_13/cond/cond/else/_53/cond/cond/cond/else/_93/cond/cond/cond/cond/then/_132/output/_158", "shape": [], "dtype": "int32"}, {"name": "Func/PartitionedCall/PartitionedCall_1/cond/else/_13/cond/cond/else/_53/cond/cond/cond/else/_93/cond/cond/cond/cond/then/_132/output/_150", "shape": [9, 9, 1, 1], "dtype": "float32", "quantization": {"dtype": "float16", "original_dtype": "float32"}}, {"name": "Func/PartitionedCall/PartitionedCall_1/cond/else/_13/cond/cond/else/_53/cond/cond/cond/else/_93/cond/cond/cond/cond/else/_133/cond/cond/cond/cond/cond/else/_173/output/_200", "shape": [], "dtype": "int32"}, {"name": "Func/PartitionedCall/PartitionedCall_1/cond/else/_13/cond/cond/else/_53/cond/cond/cond/else/_93/cond/cond/cond/cond/else/_133/cond/cond/cond/cond/cond/else/_173/output/_201", "shape": [], "dtype": "int32"}, {"name": "Func/PartitionedCall/PartitionedCall_1/cond/else/_13/cond/cond/else/_53/cond/cond/cond/else/_93/cond/cond/cond/cond/else/_133/cond/cond/cond/cond/cond/else/_173/output/_202", "shape": [], "dtype": "int32"}, {"name": "Func/PartitionedCall/PartitionedCall_1/cond/else/_13/cond/cond/else/_53/cond/cond/cond/else/_93/cond/cond/cond/cond/else/_133/cond/cond/cond/cond/cond/else/_173/output/_203", "shape": [], "dtype": "int32"}, {"name": "Func/PartitionedCall/PartitionedCall_1/cond/else/_13/cond/cond/else/_53/cond/cond/cond/else/_93/cond/cond/cond/cond/else/_133/cond/cond/cond/cond/cond/else/_173/output/_204", "shape": [], "dtype": "int32"}, {"name": "Func/PartitionedCall/PartitionedCall_1/cond/else/_13/cond/cond/else/_53/cond/cond/cond/else/_93/cond/cond/cond/cond/else/_133/cond/cond/cond/cond/cond/else/_173/output/_205", "shape": [], "dtype": "int32"}, {"name": "Func/PartitionedCall/PartitionedCall_1/cond/else/_13/cond/cond/else/_53/cond/cond/cond/else/_93/cond/cond/cond/cond/else/_133/cond/cond/cond/cond/cond/else/_173/output/_206", "shape": [], "dtype": "int32"}, {"name": "Func/PartitionedCall/PartitionedCall_1/cond/else/_13/cond/cond/else/_53/cond/cond/cond/else/_93/cond/cond/cond/cond/else/_133/cond/cond/cond/cond/cond/else/_173/output/_207", "shape": [], "dtype": "int32"}, {"name": "Func/PartitionedCall/PartitionedCall_1/cond/else/_13/cond/cond/else/_53/cond/cond/cond/else/_93/cond/cond/cond/cond/else/_133/cond/cond/cond/cond/cond/else/_173/output/_199", "shape": [5, 5, 1, 1], "dtype": "float32", "quantization": {"dtype": "float16", "original_dtype": "float32"}}, {"name": "Func/PartitionedCall/PartitionedCall_1/cond/else/_13/cond/cond/else/_53/cond/cond/cond/else/_93/cond/cond/cond/cond/else/_133/cond/cond/cond/cond/cond/then/_172/output/_196", "shape": [], "dtype": "int32"}, {"name": "Func/PartitionedCall/PartitionedCall_1/cond/else/_13/cond/cond/else/_53/cond/cond/cond/else/_93/cond/cond/cond/cond/else/_133/cond/cond/cond/cond/cond/then/_172/output/_188", "shape": [17, 17, 1, 1], "dtype": "float32", "quantization": {"dtype": "float16", "original_dtype": "float32"}}, {"name": "Func/PartitionedCall/PartitionedCall_1/cond/else/_13/cond/cond/else/_53/cond/cond/cond/else/_93/cond/cond/cond/cond/else/_133/cond/cond/cond/cond/cond/then/_172/output/_189", "shape": [], "dtype": "int32"}, {"name": "Func/PartitionedCall/PartitionedCall_1/cond/else/_13/cond/cond/else/_53/cond/cond/cond/else/_93/cond/cond/cond/cond/else/_133/cond/cond/cond/cond/cond/then/_172/output/_190", "shape": [], "dtype": "int32"}, {"name": "Func/PartitionedCall/PartitionedCall_1/cond/else/_13/cond/cond/else/_53/cond/cond/cond/else/_93/cond/cond/cond/cond/else/_133/cond/cond/cond/cond/cond/then/_172/output/_191", "shape": [], "dtype": "int32"}, {"name": "Func/PartitionedCall/PartitionedCall_1/cond/else/_13/cond/cond/else/_53/cond/cond/cond/else/_93/cond/cond/cond/cond/else/_133/cond/cond/cond/cond/cond/then/_172/output/_192", "shape": [], "dtype": "int32"}, {"name": "Func/PartitionedCall/PartitionedCall_1/cond/else/_13/cond/cond/else/_53/cond/cond/cond/else/_93/cond/cond/cond/cond/else/_133/cond/cond/cond/cond/cond/then/_172/output/_193", "shape": [], "dtype": "int32"}, {"name": "Func/PartitionedCall/PartitionedCall_1/cond/else/_13/cond/cond/else/_53/cond/cond/cond/else/_93/cond/cond/cond/cond/else/_133/cond/cond/cond/cond/cond/then/_172/output/_194", "shape": [], "dtype": "int32"}, {"name": "Func/PartitionedCall/PartitionedCall_1/cond/else/_13/cond/cond/else/_53/cond/cond/cond/else/_93/cond/cond/cond/cond/else/_133/cond/cond/cond/cond/cond/then/_172/output/_195", "shape": [], "dtype": "int32"}]}]}